{"format": "graph-model", "generatedBy": "2.10.0", "convertedBy": "TensorFlow.js Converter v4.2.0", "signature": {"inputs": {"input_2": {"name": "input_2:0", "dtype": "DT_FLOAT", "tensorShape": {"dim": [{"size": "-1"}, {"size": "256"}, {"size": "256"}, {"size": "3"}]}}}, "outputs": {"conv2d_transpose_15": {"name": "Identity:0", "dtype": "DT_FLOAT", "tensorShape": {"dim": [{"size": "-1"}, {"size": "256"}, {"size": "256"}, {"size": "3"}]}}}}, "modelTopology": {"node": [{"name": "StatefulPartitionedCall/model_1/conv2d_transpose_15/strided_slice/stack", "op": "Const", "attr": {"dtype": {"type": "DT_INT32"}, "value": {"tensor": {"dtype": "DT_INT32", "tensorShape": {"dim": [{"size": "1"}]}}}}}, {"name": "StatefulPartitionedCall/model_1/conv2d_transpose_15/strided_slice/stack_1", "op": "Const", "attr": {"value": {"tensor": {"dtype": "DT_INT32", "tensorShape": {"dim": [{"size": "1"}]}}}, "dtype": {"type": "DT_INT32"}}}, {"name": "StatefulPartitionedCall/model_1/conv2d_transpose_15/strided_slice/stack_2", "op": "Const", "attr": {"dtype": {"type": "DT_INT32"}, "value": {"tensor": {"dtype": "DT_INT32", "tensorShape": {"dim": [{"size": "1"}]}}}}}, {"name": "StatefulPartitionedCall/model_1/conv2d_transpose_15/stack/1", "op": "Const", "attr": {"value": {"tensor": {"dtype": "DT_INT32", "tensorShape": {}}}, "dtype": {"type": "DT_INT32"}}}, {"name": "StatefulPartitionedCall/model_1/conv2d_transpose_15/stack/2", "op": "Const", "attr": {"value": {"tensor": {"dtype": "DT_INT32", "tensorShape": {}}}, "dtype": {"type": "DT_INT32"}}}, {"name": "StatefulPartitionedCall/model_1/conv2d_transpose_15/stack/3", "op": "Const", "attr": {"dtype": {"type": "DT_INT32"}, "value": {"tensor": {"dtype": "DT_INT32", "tensorShape": {}}}}}, {"name": "StatefulPartitionedCall/model_1/conv2d_transpose_15/conv2d_transpose/ReadVariableOp", "op": "Const", "attr": {"value": {"tensor": {"dtype": "DT_FLOAT", "tensorShape": {"dim": [{"size": "4"}, {"size": "4"}, {"size": "3"}, {"size": "128"}]}}}, "dtype": {"type": "DT_FLOAT"}}}, {"name": "StatefulPartitionedCall/model_1/upsample_7/instance_normalization_27/Reshape_1", "op": "Const", "attr": {"value": {"tensor": {"dtype": "DT_FLOAT", "tensorShape": {"dim": [{"size": "1"}, {"size": "1"}, {"size": "1"}, {"size": "64"}]}}}, "dtype": {"type": "DT_FLOAT"}}}, {"name": "StatefulPartitionedCall/model_1/upsample_7/conv2d_transpose_14/strided_slice/stack", "op": "Const", "attr": {"value": {"tensor": {"dtype": "DT_INT32", "tensorShape": {"dim": [{"size": "1"}]}}}, "dtype": {"type": "DT_INT32"}}}, {"name": "StatefulPartitionedCall/model_1/upsample_7/conv2d_transpose_14/strided_slice/stack_1", "op": "Const", "attr": {"value": {"tensor": {"dtype": "DT_INT32", "tensorShape": {"dim": [{"size": "1"}]}}}, "dtype": {"type": "DT_INT32"}}}, {"name": "StatefulPartitionedCall/model_1/upsample_7/conv2d_transpose_14/strided_slice/stack_2", "op": "Const", "attr": {"dtype": {"type": "DT_INT32"}, "value": {"tensor": {"dtype": "DT_INT32", "tensorShape": {"dim": [{"size": "1"}]}}}}}, {"name": "StatefulPartitionedCall/model_1/upsample_7/conv2d_transpose_14/stack/1", "op": "Const", "attr": {"dtype": {"type": "DT_INT32"}, "value": {"tensor": {"dtype": "DT_INT32", "tensorShape": {}}}}}, {"name": "StatefulPartitionedCall/model_1/upsample_7/conv2d_transpose_14/stack/2", "op": "Const", "attr": {"value": {"tensor": {"dtype": "DT_INT32", "tensorShape": {}}}, "dtype": {"type": "DT_INT32"}}}, {"name": "StatefulPartitionedCall/model_1/upsample_7/conv2d_transpose_14/stack/3", "op": "Const", "attr": {"dtype": {"type": "DT_INT32"}, "value": {"tensor": {"dtype": "DT_INT32", "tensorShape": {}}}}}, {"name": "StatefulPartitionedCall/model_1/upsample_7/conv2d_transpose_14/conv2d_transpose/ReadVariableOp", "op": "Const", "attr": {"value": {"tensor": {"dtype": "DT_FLOAT", "tensorShape": {"dim": [{"size": "4"}, {"size": "4"}, {"size": "64"}, {"size": "256"}]}}}, "dtype": {"type": "DT_FLOAT"}}}, {"name": "StatefulPartitionedCall/model_1/upsample_6/instance_normalization_26/Reshape_1", "op": "Const", "attr": {"value": {"tensor": {"dtype": "DT_FLOAT", "tensorShape": {"dim": [{"size": "1"}, {"size": "1"}, {"size": "1"}, {"size": "128"}]}}}, "dtype": {"type": "DT_FLOAT"}}}, {"name": "StatefulPartitionedCall/model_1/upsample_6/conv2d_transpose_13/strided_slice/stack", "op": "Const", "attr": {"dtype": {"type": "DT_INT32"}, "value": {"tensor": {"dtype": "DT_INT32", "tensorShape": {"dim": [{"size": "1"}]}}}}}, {"name": "StatefulPartitionedCall/model_1/upsample_6/conv2d_transpose_13/strided_slice/stack_1", "op": "Const", "attr": {"value": {"tensor": {"dtype": "DT_INT32", "tensorShape": {"dim": [{"size": "1"}]}}}, "dtype": {"type": "DT_INT32"}}}, {"name": "StatefulPartitionedCall/model_1/upsample_6/conv2d_transpose_13/strided_slice/stack_2", "op": "Const", "attr": {"dtype": {"type": "DT_INT32"}, "value": {"tensor": {"dtype": "DT_INT32", "tensorShape": {"dim": [{"size": "1"}]}}}}}, {"name": "StatefulPartitionedCall/model_1/upsample_6/conv2d_transpose_13/stack/1", "op": "Const", "attr": {"dtype": {"type": "DT_INT32"}, "value": {"tensor": {"dtype": "DT_INT32", "tensorShape": {}}}}}, {"name": "StatefulPartitionedCall/model_1/upsample_6/conv2d_transpose_13/stack/2", "op": "Const", "attr": {"value": {"tensor": {"dtype": "DT_INT32", "tensorShape": {}}}, "dtype": {"type": "DT_INT32"}}}, {"name": "StatefulPartitionedCall/model_1/upsample_6/conv2d_transpose_13/stack/3", "op": "Const", "attr": {"dtype": {"type": "DT_INT32"}, "value": {"tensor": {"dtype": "DT_INT32", "tensorShape": {}}}}}, {"name": "StatefulPartitionedCall/model_1/upsample_6/conv2d_transpose_13/conv2d_transpose/ReadVariableOp", "op": "Const", "attr": {"dtype": {"type": "DT_FLOAT"}, "value": {"tensor": {"dtype": "DT_FLOAT", "tensorShape": {"dim": [{"size": "4"}, {"size": "4"}, {"size": "128"}, {"size": "512"}]}}}}}, {"name": "StatefulPartitionedCall/model_1/upsample_5/instance_normalization_25/Reshape_1", "op": "Const", "attr": {"dtype": {"type": "DT_FLOAT"}, "value": {"tensor": {"dtype": "DT_FLOAT", "tensorShape": {"dim": [{"size": "1"}, {"size": "1"}, {"size": "1"}, {"size": "256"}]}}}}}, {"name": "StatefulPartitionedCall/model_1/upsample_5/conv2d_transpose_12/strided_slice/stack", "op": "Const", "attr": {"value": {"tensor": {"dtype": "DT_INT32", "tensorShape": {"dim": [{"size": "1"}]}}}, "dtype": {"type": "DT_INT32"}}}, {"name": "StatefulPartitionedCall/model_1/upsample_5/conv2d_transpose_12/strided_slice/stack_1", "op": "Const", "attr": {"value": {"tensor": {"dtype": "DT_INT32", "tensorShape": {"dim": [{"size": "1"}]}}}, "dtype": {"type": "DT_INT32"}}}, {"name": "StatefulPartitionedCall/model_1/upsample_5/conv2d_transpose_12/strided_slice/stack_2", "op": "Const", "attr": {"dtype": {"type": "DT_INT32"}, "value": {"tensor": {"dtype": "DT_INT32", "tensorShape": {"dim": [{"size": "1"}]}}}}}, {"name": "StatefulPartitionedCall/model_1/upsample_5/conv2d_transpose_12/stack/1", "op": "Const", "attr": {"dtype": {"type": "DT_INT32"}, "value": {"tensor": {"dtype": "DT_INT32", "tensorShape": {}}}}}, {"name": "StatefulPartitionedCall/model_1/upsample_5/conv2d_transpose_12/stack/2", "op": "Const", "attr": {"dtype": {"type": "DT_INT32"}, "value": {"tensor": {"dtype": "DT_INT32", "tensorShape": {}}}}}, {"name": "StatefulPartitionedCall/model_1/upsample_5/conv2d_transpose_12/stack/3", "op": "Const", "attr": {"value": {"tensor": {"dtype": "DT_INT32", "tensorShape": {}}}, "dtype": {"type": "DT_INT32"}}}, {"name": "StatefulPartitionedCall/model_1/upsample_5/conv2d_transpose_12/conv2d_transpose/ReadVariableOp", "op": "Const", "attr": {"value": {"tensor": {"dtype": "DT_FLOAT", "tensorShape": {"dim": [{"size": "4"}, {"size": "4"}, {"size": "256"}, {"size": "1024"}]}}}, "dtype": {"type": "DT_FLOAT"}}}, {"name": "StatefulPartitionedCall/model_1/upsample_4/instance_normalization_24/Reshape_1", "op": "Const", "attr": {"value": {"tensor": {"dtype": "DT_FLOAT", "tensorShape": {"dim": [{"size": "1"}, {"size": "1"}, {"size": "1"}, {"size": "512"}]}}}, "dtype": {"type": "DT_FLOAT"}}}, {"name": "StatefulPartitionedCall/model_1/upsample_4/conv2d_transpose_11/strided_slice/stack", "op": "Const", "attr": {"value": {"tensor": {"dtype": "DT_INT32", "tensorShape": {"dim": [{"size": "1"}]}}}, "dtype": {"type": "DT_INT32"}}}, {"name": "StatefulPartitionedCall/model_1/upsample_4/conv2d_transpose_11/strided_slice/stack_1", "op": "Const", "attr": {"dtype": {"type": "DT_INT32"}, "value": {"tensor": {"dtype": "DT_INT32", "tensorShape": {"dim": [{"size": "1"}]}}}}}, {"name": "StatefulPartitionedCall/model_1/upsample_4/conv2d_transpose_11/strided_slice/stack_2", "op": "Const", "attr": {"value": {"tensor": {"dtype": "DT_INT32", "tensorShape": {"dim": [{"size": "1"}]}}}, "dtype": {"type": "DT_INT32"}}}, {"name": "StatefulPartitionedCall/model_1/upsample_4/conv2d_transpose_11/stack/1", "op": "Const", "attr": {"dtype": {"type": "DT_INT32"}, "value": {"tensor": {"dtype": "DT_INT32", "tensorShape": {}}}}}, {"name": "StatefulPartitionedCall/model_1/upsample_4/conv2d_transpose_11/stack/2", "op": "Const", "attr": {"dtype": {"type": "DT_INT32"}, "value": {"tensor": {"dtype": "DT_INT32", "tensorShape": {}}}}}, {"name": "StatefulPartitionedCall/model_1/upsample_4/conv2d_transpose_11/stack/3", "op": "Const", "attr": {"dtype": {"type": "DT_INT32"}, "value": {"tensor": {"dtype": "DT_INT32", "tensorShape": {}}}}}, {"name": "StatefulPartitionedCall/model_1/upsample_4/conv2d_transpose_11/conv2d_transpose/ReadVariableOp", "op": "Const", "attr": {"dtype": {"type": "DT_FLOAT"}, "value": {"tensor": {"dtype": "DT_FLOAT", "tensorShape": {"dim": [{"size": "4"}, {"size": "4"}, {"size": "512"}, {"size": "1024"}]}}}}}, {"name": "StatefulPartitionedCall/model_1/upsample_3/instance_normalization_23/Reshape_1", "op": "Const", "attr": {"dtype": {"type": "DT_FLOAT"}, "value": {"tensor": {"dtype": "DT_FLOAT", "tensorShape": {"dim": [{"size": "1"}, {"size": "1"}, {"size": "1"}, {"size": "512"}]}}}}}, {"name": "StatefulPartitionedCall/model_1/upsample_3/conv2d_transpose_10/strided_slice/stack", "op": "Const", "attr": {"dtype": {"type": "DT_INT32"}, "value": {"tensor": {"dtype": "DT_INT32", "tensorShape": {"dim": [{"size": "1"}]}}}}}, {"name": "StatefulPartitionedCall/model_1/upsample_3/conv2d_transpose_10/strided_slice/stack_1", "op": "Const", "attr": {"dtype": {"type": "DT_INT32"}, "value": {"tensor": {"dtype": "DT_INT32", "tensorShape": {"dim": [{"size": "1"}]}}}}}, {"name": "StatefulPartitionedCall/model_1/upsample_3/conv2d_transpose_10/strided_slice/stack_2", "op": "Const", "attr": {"dtype": {"type": "DT_INT32"}, "value": {"tensor": {"dtype": "DT_INT32", "tensorShape": {"dim": [{"size": "1"}]}}}}}, {"name": "StatefulPartitionedCall/model_1/upsample_3/conv2d_transpose_10/stack/1", "op": "Const", "attr": {"value": {"tensor": {"dtype": "DT_INT32", "tensorShape": {}}}, "dtype": {"type": "DT_INT32"}}}, {"name": "StatefulPartitionedCall/model_1/upsample_3/conv2d_transpose_10/stack/2", "op": "Const", "attr": {"value": {"tensor": {"dtype": "DT_INT32", "tensorShape": {}}}, "dtype": {"type": "DT_INT32"}}}, {"name": "StatefulPartitionedCall/model_1/upsample_3/conv2d_transpose_10/stack/3", "op": "Const", "attr": {"value": {"tensor": {"dtype": "DT_INT32", "tensorShape": {}}}, "dtype": {"type": "DT_INT32"}}}, {"name": "StatefulPartitionedCall/model_1/upsample_3/conv2d_transpose_10/conv2d_transpose/ReadVariableOp", "op": "Const", "attr": {"value": {"tensor": {"dtype": "DT_FLOAT", "tensorShape": {"dim": [{"size": "4"}, {"size": "4"}, {"size": "512"}, {"size": "1024"}]}}}, "dtype": {"type": "DT_FLOAT"}}}, {"name": "StatefulPartitionedCall/model_1/upsample_2/instance_normalization_22/Reshape_1", "op": "Const", "attr": {"dtype": {"type": "DT_FLOAT"}, "value": {"tensor": {"dtype": "DT_FLOAT", "tensorShape": {"dim": [{"size": "1"}, {"size": "1"}, {"size": "1"}, {"size": "512"}]}}}}}, {"name": "StatefulPartitionedCall/model_1/upsample_2/conv2d_transpose_9/strided_slice/stack", "op": "Const", "attr": {"value": {"tensor": {"dtype": "DT_INT32", "tensorShape": {"dim": [{"size": "1"}]}}}, "dtype": {"type": "DT_INT32"}}}, {"name": "StatefulPartitionedCall/model_1/upsample_2/conv2d_transpose_9/strided_slice/stack_1", "op": "Const", "attr": {"value": {"tensor": {"dtype": "DT_INT32", "tensorShape": {"dim": [{"size": "1"}]}}}, "dtype": {"type": "DT_INT32"}}}, {"name": "StatefulPartitionedCall/model_1/upsample_2/conv2d_transpose_9/strided_slice/stack_2", "op": "Const", "attr": {"dtype": {"type": "DT_INT32"}, "value": {"tensor": {"dtype": "DT_INT32", "tensorShape": {"dim": [{"size": "1"}]}}}}}, {"name": "StatefulPartitionedCall/model_1/upsample_2/conv2d_transpose_9/stack/1", "op": "Const", "attr": {"value": {"tensor": {"dtype": "DT_INT32", "tensorShape": {}}}, "dtype": {"type": "DT_INT32"}}}, {"name": "StatefulPartitionedCall/model_1/upsample_2/conv2d_transpose_9/stack/2", "op": "Const", "attr": {"value": {"tensor": {"dtype": "DT_INT32", "tensorShape": {}}}, "dtype": {"type": "DT_INT32"}}}, {"name": "StatefulPartitionedCall/model_1/upsample_2/conv2d_transpose_9/stack/3", "op": "Const", "attr": {"value": {"tensor": {"dtype": "DT_INT32", "tensorShape": {}}}, "dtype": {"type": "DT_INT32"}}}, {"name": "StatefulPartitionedCall/model_1/upsample_2/conv2d_transpose_9/conv2d_transpose/ReadVariableOp", "op": "Const", "attr": {"dtype": {"type": "DT_FLOAT"}, "value": {"tensor": {"dtype": "DT_FLOAT", "tensorShape": {"dim": [{"size": "4"}, {"size": "4"}, {"size": "512"}, {"size": "1024"}]}}}}}, {"name": "StatefulPartitionedCall/model_1/upsample_1/conv2d_transpose_8/strided_slice/stack", "op": "Const", "attr": {"value": {"tensor": {"dtype": "DT_INT32", "tensorShape": {"dim": [{"size": "1"}]}}}, "dtype": {"type": "DT_INT32"}}}, {"name": "StatefulPartitionedCall/model_1/upsample_1/conv2d_transpose_8/strided_slice/stack_1", "op": "Const", "attr": {"dtype": {"type": "DT_INT32"}, "value": {"tensor": {"dtype": "DT_INT32", "tensorShape": {"dim": [{"size": "1"}]}}}}}, {"name": "StatefulPartitionedCall/model_1/upsample_1/conv2d_transpose_8/strided_slice/stack_2", "op": "Const", "attr": {"dtype": {"type": "DT_INT32"}, "value": {"tensor": {"dtype": "DT_INT32", "tensorShape": {"dim": [{"size": "1"}]}}}}}, {"name": "StatefulPartitionedCall/model_1/upsample_1/conv2d_transpose_8/stack/1", "op": "Const", "attr": {"value": {"tensor": {"dtype": "DT_INT32", "tensorShape": {}}}, "dtype": {"type": "DT_INT32"}}}, {"name": "StatefulPartitionedCall/model_1/upsample_1/conv2d_transpose_8/stack/2", "op": "Const", "attr": {"value": {"tensor": {"dtype": "DT_INT32", "tensorShape": {}}}, "dtype": {"type": "DT_INT32"}}}, {"name": "StatefulPartitionedCall/model_1/upsample_1/conv2d_transpose_8/stack/3", "op": "Const", "attr": {"value": {"tensor": {"dtype": "DT_INT32", "tensorShape": {}}}, "dtype": {"type": "DT_INT32"}}}, {"name": "StatefulPartitionedCall/model_1/upsample_1/conv2d_transpose_8/conv2d_transpose/ReadVariableOp", "op": "Const", "attr": {"dtype": {"type": "DT_FLOAT"}, "value": {"tensor": {"dtype": "DT_FLOAT", "tensorShape": {"dim": [{"size": "4"}, {"size": "4"}, {"size": "512"}, {"size": "512"}]}}}}}, {"name": "StatefulPartitionedCall/model_1/downsample_8/conv2d_15/Conv2D/ReadVariableOp", "op": "Const", "attr": {"value": {"tensor": {"dtype": "DT_FLOAT", "tensorShape": {"dim": [{"size": "4"}, {"size": "4"}, {"size": "512"}, {"size": "512"}]}}}, "dtype": {"type": "DT_FLOAT"}}}, {"name": "StatefulPartitionedCall/model_1/downsample_8/instance_normalization_20/moments/mean/reduction_indices", "op": "Const", "attr": {"value": {"tensor": {"dtype": "DT_INT32", "tensorShape": {"dim": [{"size": "2"}]}}}, "dtype": {"type": "DT_INT32"}}}, {"name": "StatefulPartitionedCall/model_1/downsample_8/instance_normalization_20/moments/variance/reduction_indices", "op": "Const", "attr": {"dtype": {"type": "DT_INT32"}, "value": {"tensor": {"dtype": "DT_INT32", "tensorShape": {"dim": [{"size": "2"}]}}}}}, {"name": "StatefulPartitionedCall/model_1/downsample_8/instance_normalization_20/batchnorm/add/y", "op": "Const", "attr": {"dtype": {"type": "DT_FLOAT"}, "value": {"tensor": {"dtype": "DT_FLOAT", "tensorShape": {}}}}}, {"name": "StatefulPartitionedCall/model_1/downsample_8/instance_normalization_20/Reshape", "op": "Const", "attr": {"value": {"tensor": {"dtype": "DT_FLOAT", "tensorShape": {"dim": [{"size": "1"}, {"size": "1"}, {"size": "1"}, {"size": "512"}]}}}, "dtype": {"type": "DT_FLOAT"}}}, {"name": "StatefulPartitionedCall/model_1/upsample_1/instance_normalization_21/moments/mean/reduction_indices", "op": "Const", "attr": {"dtype": {"type": "DT_INT32"}, "value": {"tensor": {"dtype": "DT_INT32", "tensorShape": {"dim": [{"size": "2"}]}}}}}, {"name": "StatefulPartitionedCall/model_1/upsample_1/instance_normalization_21/moments/variance/reduction_indices", "op": "Const", "attr": {"dtype": {"type": "DT_INT32"}, "value": {"tensor": {"dtype": "DT_INT32", "tensorShape": {"dim": [{"size": "2"}]}}}}}, {"name": "StatefulPartitionedCall/model_1/upsample_1/instance_normalization_21/batchnorm/add/y", "op": "Const", "attr": {"dtype": {"type": "DT_FLOAT"}, "value": {"tensor": {"dtype": "DT_FLOAT", "tensorShape": {}}}}}, {"name": "StatefulPartitionedCall/model_1/upsample_1/instance_normalization_21/Reshape", "op": "Const", "attr": {"dtype": {"type": "DT_FLOAT"}, "value": {"tensor": {"dtype": "DT_FLOAT", "tensorShape": {"dim": [{"size": "1"}, {"size": "1"}, {"size": "1"}, {"size": "512"}]}}}}}, {"name": "StatefulPartitionedCall/model_1/downsample_7/instance_normalization_19/Reshape_1", "op": "Const", "attr": {"dtype": {"type": "DT_FLOAT"}, "value": {"tensor": {"dtype": "DT_FLOAT", "tensorShape": {"dim": [{"size": "1"}, {"size": "1"}, {"size": "1"}, {"size": "512"}]}}}}}, {"name": "StatefulPartitionedCall/model_1/downsample_7/conv2d_14/Conv2D/ReadVariableOp", "op": "Const", "attr": {"dtype": {"type": "DT_FLOAT"}, "value": {"tensor": {"dtype": "DT_FLOAT", "tensorShape": {"dim": [{"size": "4"}, {"size": "4"}, {"size": "512"}, {"size": "512"}]}}}}}, {"name": "StatefulPartitionedCall/model_1/downsample_7/instance_normalization_19/moments/mean/reduction_indices", "op": "Const", "attr": {"value": {"tensor": {"dtype": "DT_INT32", "tensorShape": {"dim": [{"size": "2"}]}}}, "dtype": {"type": "DT_INT32"}}}, {"name": "StatefulPartitionedCall/model_1/downsample_7/instance_normalization_19/moments/variance/reduction_indices", "op": "Const", "attr": {"value": {"tensor": {"dtype": "DT_INT32", "tensorShape": {"dim": [{"size": "2"}]}}}, "dtype": {"type": "DT_INT32"}}}, {"name": "StatefulPartitionedCall/model_1/downsample_7/instance_normalization_19/batchnorm/add/y", "op": "Const", "attr": {"dtype": {"type": "DT_FLOAT"}, "value": {"tensor": {"dtype": "DT_FLOAT", "tensorShape": {}}}}}, {"name": "StatefulPartitionedCall/model_1/downsample_7/instance_normalization_19/Reshape", "op": "Const", "attr": {"value": {"tensor": {"dtype": "DT_FLOAT", "tensorShape": {"dim": [{"size": "1"}, {"size": "1"}, {"size": "1"}, {"size": "512"}]}}}, "dtype": {"type": "DT_FLOAT"}}}, {"name": "StatefulPartitionedCall/model_1/concatenate_7/concat/axis", "op": "Const", "attr": {"value": {"tensor": {"dtype": "DT_INT32", "tensorShape": {}}}, "dtype": {"type": "DT_INT32"}}}, {"name": "StatefulPartitionedCall/model_1/upsample_2/instance_normalization_22/moments/mean/reduction_indices", "op": "Const", "attr": {"value": {"tensor": {"dtype": "DT_INT32", "tensorShape": {"dim": [{"size": "2"}]}}}, "dtype": {"type": "DT_INT32"}}}, {"name": "StatefulPartitionedCall/model_1/upsample_2/instance_normalization_22/moments/variance/reduction_indices", "op": "Const", "attr": {"dtype": {"type": "DT_INT32"}, "value": {"tensor": {"dtype": "DT_INT32", "tensorShape": {"dim": [{"size": "2"}]}}}}}, {"name": "StatefulPartitionedCall/model_1/upsample_2/instance_normalization_22/batchnorm/add/y", "op": "Const", "attr": {"value": {"tensor": {"dtype": "DT_FLOAT", "tensorShape": {}}}, "dtype": {"type": "DT_FLOAT"}}}, {"name": "StatefulPartitionedCall/model_1/upsample_2/instance_normalization_22/Reshape", "op": "Const", "attr": {"value": {"tensor": {"dtype": "DT_FLOAT", "tensorShape": {"dim": [{"size": "1"}, {"size": "1"}, {"size": "1"}, {"size": "512"}]}}}, "dtype": {"type": "DT_FLOAT"}}}, {"name": "StatefulPartitionedCall/model_1/downsample_6/instance_normalization_18/Reshape_1", "op": "Const", "attr": {"dtype": {"type": "DT_FLOAT"}, "value": {"tensor": {"dtype": "DT_FLOAT", "tensorShape": {"dim": [{"size": "1"}, {"size": "1"}, {"size": "1"}, {"size": "512"}]}}}}}, {"name": "StatefulPartitionedCall/model_1/downsample_6/conv2d_13/Conv2D/ReadVariableOp", "op": "Const", "attr": {"value": {"tensor": {"dtype": "DT_FLOAT", "tensorShape": {"dim": [{"size": "4"}, {"size": "4"}, {"size": "512"}, {"size": "512"}]}}}, "dtype": {"type": "DT_FLOAT"}}}, {"name": "StatefulPartitionedCall/model_1/downsample_6/instance_normalization_18/moments/mean/reduction_indices", "op": "Const", "attr": {"dtype": {"type": "DT_INT32"}, "value": {"tensor": {"dtype": "DT_INT32", "tensorShape": {"dim": [{"size": "2"}]}}}}}, {"name": "StatefulPartitionedCall/model_1/downsample_6/instance_normalization_18/moments/variance/reduction_indices", "op": "Const", "attr": {"dtype": {"type": "DT_INT32"}, "value": {"tensor": {"dtype": "DT_INT32", "tensorShape": {"dim": [{"size": "2"}]}}}}}, {"name": "StatefulPartitionedCall/model_1/downsample_6/instance_normalization_18/batchnorm/add/y", "op": "Const", "attr": {"dtype": {"type": "DT_FLOAT"}, "value": {"tensor": {"dtype": "DT_FLOAT", "tensorShape": {}}}}}, {"name": "StatefulPartitionedCall/model_1/downsample_6/instance_normalization_18/Reshape", "op": "Const", "attr": {"value": {"tensor": {"dtype": "DT_FLOAT", "tensorShape": {"dim": [{"size": "1"}, {"size": "1"}, {"size": "1"}, {"size": "512"}]}}}, "dtype": {"type": "DT_FLOAT"}}}, {"name": "StatefulPartitionedCall/model_1/concatenate_8/concat/axis", "op": "Const", "attr": {"dtype": {"type": "DT_INT32"}, "value": {"tensor": {"dtype": "DT_INT32", "tensorShape": {}}}}}, {"name": "StatefulPartitionedCall/model_1/upsample_3/instance_normalization_23/moments/mean/reduction_indices", "op": "Const", "attr": {"dtype": {"type": "DT_INT32"}, "value": {"tensor": {"dtype": "DT_INT32", "tensorShape": {"dim": [{"size": "2"}]}}}}}, {"name": "StatefulPartitionedCall/model_1/upsample_3/instance_normalization_23/moments/variance/reduction_indices", "op": "Const", "attr": {"dtype": {"type": "DT_INT32"}, "value": {"tensor": {"dtype": "DT_INT32", "tensorShape": {"dim": [{"size": "2"}]}}}}}, {"name": "StatefulPartitionedCall/model_1/upsample_3/instance_normalization_23/batchnorm/add/y", "op": "Const", "attr": {"dtype": {"type": "DT_FLOAT"}, "value": {"tensor": {"dtype": "DT_FLOAT", "tensorShape": {}}}}}, {"name": "StatefulPartitionedCall/model_1/upsample_3/instance_normalization_23/Reshape", "op": "Const", "attr": {"value": {"tensor": {"dtype": "DT_FLOAT", "tensorShape": {"dim": [{"size": "1"}, {"size": "1"}, {"size": "1"}, {"size": "512"}]}}}, "dtype": {"type": "DT_FLOAT"}}}, {"name": "StatefulPartitionedCall/model_1/downsample_5/instance_normalization_17/Reshape_1", "op": "Const", "attr": {"value": {"tensor": {"dtype": "DT_FLOAT", "tensorShape": {"dim": [{"size": "1"}, {"size": "1"}, {"size": "1"}, {"size": "512"}]}}}, "dtype": {"type": "DT_FLOAT"}}}, {"name": "StatefulPartitionedCall/model_1/downsample_5/conv2d_12/Conv2D/ReadVariableOp", "op": "Const", "attr": {"dtype": {"type": "DT_FLOAT"}, "value": {"tensor": {"dtype": "DT_FLOAT", "tensorShape": {"dim": [{"size": "4"}, {"size": "4"}, {"size": "512"}, {"size": "512"}]}}}}}, {"name": "StatefulPartitionedCall/model_1/downsample_5/instance_normalization_17/moments/mean/reduction_indices", "op": "Const", "attr": {"value": {"tensor": {"dtype": "DT_INT32", "tensorShape": {"dim": [{"size": "2"}]}}}, "dtype": {"type": "DT_INT32"}}}, {"name": "StatefulPartitionedCall/model_1/downsample_5/instance_normalization_17/moments/variance/reduction_indices", "op": "Const", "attr": {"dtype": {"type": "DT_INT32"}, "value": {"tensor": {"dtype": "DT_INT32", "tensorShape": {"dim": [{"size": "2"}]}}}}}, {"name": "StatefulPartitionedCall/model_1/downsample_5/instance_normalization_17/batchnorm/add/y", "op": "Const", "attr": {"dtype": {"type": "DT_FLOAT"}, "value": {"tensor": {"dtype": "DT_FLOAT", "tensorShape": {}}}}}, {"name": "StatefulPartitionedCall/model_1/downsample_5/instance_normalization_17/Reshape", "op": "Const", "attr": {"dtype": {"type": "DT_FLOAT"}, "value": {"tensor": {"dtype": "DT_FLOAT", "tensorShape": {"dim": [{"size": "1"}, {"size": "1"}, {"size": "1"}, {"size": "512"}]}}}}}, {"name": "StatefulPartitionedCall/model_1/concatenate_9/concat/axis", "op": "Const", "attr": {"dtype": {"type": "DT_INT32"}, "value": {"tensor": {"dtype": "DT_INT32", "tensorShape": {}}}}}, {"name": "StatefulPartitionedCall/model_1/upsample_4/instance_normalization_24/moments/mean/reduction_indices", "op": "Const", "attr": {"dtype": {"type": "DT_INT32"}, "value": {"tensor": {"dtype": "DT_INT32", "tensorShape": {"dim": [{"size": "2"}]}}}}}, {"name": "StatefulPartitionedCall/model_1/upsample_4/instance_normalization_24/moments/variance/reduction_indices", "op": "Const", "attr": {"value": {"tensor": {"dtype": "DT_INT32", "tensorShape": {"dim": [{"size": "2"}]}}}, "dtype": {"type": "DT_INT32"}}}, {"name": "StatefulPartitionedCall/model_1/upsample_4/instance_normalization_24/batchnorm/add/y", "op": "Const", "attr": {"dtype": {"type": "DT_FLOAT"}, "value": {"tensor": {"dtype": "DT_FLOAT", "tensorShape": {}}}}}, {"name": "StatefulPartitionedCall/model_1/upsample_4/instance_normalization_24/Reshape", "op": "Const", "attr": {"value": {"tensor": {"dtype": "DT_FLOAT", "tensorShape": {"dim": [{"size": "1"}, {"size": "1"}, {"size": "1"}, {"size": "512"}]}}}, "dtype": {"type": "DT_FLOAT"}}}, {"name": "StatefulPartitionedCall/model_1/downsample_4/instance_normalization_16/Reshape_1", "op": "Const", "attr": {"value": {"tensor": {"dtype": "DT_FLOAT", "tensorShape": {"dim": [{"size": "1"}, {"size": "1"}, {"size": "1"}, {"size": "512"}]}}}, "dtype": {"type": "DT_FLOAT"}}}, {"name": "StatefulPartitionedCall/model_1/downsample_4/conv2d_11/Conv2D/ReadVariableOp", "op": "Const", "attr": {"dtype": {"type": "DT_FLOAT"}, "value": {"tensor": {"dtype": "DT_FLOAT", "tensorShape": {"dim": [{"size": "4"}, {"size": "4"}, {"size": "256"}, {"size": "512"}]}}}}}, {"name": "StatefulPartitionedCall/model_1/downsample_4/instance_normalization_16/moments/mean/reduction_indices", "op": "Const", "attr": {"value": {"tensor": {"dtype": "DT_INT32", "tensorShape": {"dim": [{"size": "2"}]}}}, "dtype": {"type": "DT_INT32"}}}, {"name": "StatefulPartitionedCall/model_1/downsample_4/instance_normalization_16/moments/variance/reduction_indices", "op": "Const", "attr": {"value": {"tensor": {"dtype": "DT_INT32", "tensorShape": {"dim": [{"size": "2"}]}}}, "dtype": {"type": "DT_INT32"}}}, {"name": "StatefulPartitionedCall/model_1/downsample_4/instance_normalization_16/batchnorm/add/y", "op": "Const", "attr": {"value": {"tensor": {"dtype": "DT_FLOAT", "tensorShape": {}}}, "dtype": {"type": "DT_FLOAT"}}}, {"name": "StatefulPartitionedCall/model_1/downsample_4/instance_normalization_16/Reshape", "op": "Const", "attr": {"value": {"tensor": {"dtype": "DT_FLOAT", "tensorShape": {"dim": [{"size": "1"}, {"size": "1"}, {"size": "1"}, {"size": "512"}]}}}, "dtype": {"type": "DT_FLOAT"}}}, {"name": "StatefulPartitionedCall/model_1/concatenate_10/concat/axis", "op": "Const", "attr": {"value": {"tensor": {"dtype": "DT_INT32", "tensorShape": {}}}, "dtype": {"type": "DT_INT32"}}}, {"name": "StatefulPartitionedCall/model_1/upsample_5/instance_normalization_25/moments/mean/reduction_indices", "op": "Const", "attr": {"dtype": {"type": "DT_INT32"}, "value": {"tensor": {"dtype": "DT_INT32", "tensorShape": {"dim": [{"size": "2"}]}}}}}, {"name": "StatefulPartitionedCall/model_1/upsample_5/instance_normalization_25/moments/variance/reduction_indices", "op": "Const", "attr": {"dtype": {"type": "DT_INT32"}, "value": {"tensor": {"dtype": "DT_INT32", "tensorShape": {"dim": [{"size": "2"}]}}}}}, {"name": "StatefulPartitionedCall/model_1/upsample_5/instance_normalization_25/batchnorm/add/y", "op": "Const", "attr": {"dtype": {"type": "DT_FLOAT"}, "value": {"tensor": {"dtype": "DT_FLOAT", "tensorShape": {}}}}}, {"name": "StatefulPartitionedCall/model_1/upsample_5/instance_normalization_25/Reshape", "op": "Const", "attr": {"dtype": {"type": "DT_FLOAT"}, "value": {"tensor": {"dtype": "DT_FLOAT", "tensorShape": {"dim": [{"size": "1"}, {"size": "1"}, {"size": "1"}, {"size": "256"}]}}}}}, {"name": "StatefulPartitionedCall/model_1/downsample_3/instance_normalization_15/Reshape_1", "op": "Const", "attr": {"value": {"tensor": {"dtype": "DT_FLOAT", "tensorShape": {"dim": [{"size": "1"}, {"size": "1"}, {"size": "1"}, {"size": "256"}]}}}, "dtype": {"type": "DT_FLOAT"}}}, {"name": "StatefulPartitionedCall/model_1/downsample_3/conv2d_10/Conv2D/ReadVariableOp", "op": "Const", "attr": {"dtype": {"type": "DT_FLOAT"}, "value": {"tensor": {"dtype": "DT_FLOAT", "tensorShape": {"dim": [{"size": "4"}, {"size": "4"}, {"size": "128"}, {"size": "256"}]}}}}}, {"name": "StatefulPartitionedCall/model_1/downsample_3/instance_normalization_15/moments/mean/reduction_indices", "op": "Const", "attr": {"dtype": {"type": "DT_INT32"}, "value": {"tensor": {"dtype": "DT_INT32", "tensorShape": {"dim": [{"size": "2"}]}}}}}, {"name": "StatefulPartitionedCall/model_1/downsample_3/instance_normalization_15/moments/variance/reduction_indices", "op": "Const", "attr": {"dtype": {"type": "DT_INT32"}, "value": {"tensor": {"dtype": "DT_INT32", "tensorShape": {"dim": [{"size": "2"}]}}}}}, {"name": "StatefulPartitionedCall/model_1/downsample_3/instance_normalization_15/batchnorm/add/y", "op": "Const", "attr": {"dtype": {"type": "DT_FLOAT"}, "value": {"tensor": {"dtype": "DT_FLOAT", "tensorShape": {}}}}}, {"name": "StatefulPartitionedCall/model_1/downsample_3/instance_normalization_15/Reshape", "op": "Const", "attr": {"dtype": {"type": "DT_FLOAT"}, "value": {"tensor": {"dtype": "DT_FLOAT", "tensorShape": {"dim": [{"size": "1"}, {"size": "1"}, {"size": "1"}, {"size": "256"}]}}}}}, {"name": "StatefulPartitionedCall/model_1/concatenate_11/concat/axis", "op": "Const", "attr": {"dtype": {"type": "DT_INT32"}, "value": {"tensor": {"dtype": "DT_INT32", "tensorShape": {}}}}}, {"name": "StatefulPartitionedCall/model_1/upsample_6/instance_normalization_26/moments/mean/reduction_indices", "op": "Const", "attr": {"value": {"tensor": {"dtype": "DT_INT32", "tensorShape": {"dim": [{"size": "2"}]}}}, "dtype": {"type": "DT_INT32"}}}, {"name": "StatefulPartitionedCall/model_1/upsample_6/instance_normalization_26/moments/variance/reduction_indices", "op": "Const", "attr": {"dtype": {"type": "DT_INT32"}, "value": {"tensor": {"dtype": "DT_INT32", "tensorShape": {"dim": [{"size": "2"}]}}}}}, {"name": "StatefulPartitionedCall/model_1/upsample_6/instance_normalization_26/batchnorm/add/y", "op": "Const", "attr": {"value": {"tensor": {"dtype": "DT_FLOAT", "tensorShape": {}}}, "dtype": {"type": "DT_FLOAT"}}}, {"name": "StatefulPartitionedCall/model_1/upsample_6/instance_normalization_26/Reshape", "op": "Const", "attr": {"dtype": {"type": "DT_FLOAT"}, "value": {"tensor": {"dtype": "DT_FLOAT", "tensorShape": {"dim": [{"size": "1"}, {"size": "1"}, {"size": "1"}, {"size": "128"}]}}}}}, {"name": "StatefulPartitionedCall/model_1/downsample_2/instance_normalization_14/Reshape_1", "op": "Const", "attr": {"dtype": {"type": "DT_FLOAT"}, "value": {"tensor": {"dtype": "DT_FLOAT", "tensorShape": {"dim": [{"size": "1"}, {"size": "1"}, {"size": "1"}, {"size": "128"}]}}}}}, {"name": "StatefulPartitionedCall/model_1/downsample_2/conv2d_9/Conv2D/ReadVariableOp", "op": "Const", "attr": {"value": {"tensor": {"dtype": "DT_FLOAT", "tensorShape": {"dim": [{"size": "4"}, {"size": "4"}, {"size": "64"}, {"size": "128"}]}}}, "dtype": {"type": "DT_FLOAT"}}}, {"name": "StatefulPartitionedCall/model_1/downsample_2/instance_normalization_14/moments/mean/reduction_indices", "op": "Const", "attr": {"dtype": {"type": "DT_INT32"}, "value": {"tensor": {"dtype": "DT_INT32", "tensorShape": {"dim": [{"size": "2"}]}}}}}, {"name": "StatefulPartitionedCall/model_1/downsample_2/instance_normalization_14/moments/variance/reduction_indices", "op": "Const", "attr": {"value": {"tensor": {"dtype": "DT_INT32", "tensorShape": {"dim": [{"size": "2"}]}}}, "dtype": {"type": "DT_INT32"}}}, {"name": "StatefulPartitionedCall/model_1/downsample_2/instance_normalization_14/batchnorm/add/y", "op": "Const", "attr": {"value": {"tensor": {"dtype": "DT_FLOAT", "tensorShape": {}}}, "dtype": {"type": "DT_FLOAT"}}}, {"name": "StatefulPartitionedCall/model_1/downsample_2/instance_normalization_14/Reshape", "op": "Const", "attr": {"dtype": {"type": "DT_FLOAT"}, "value": {"tensor": {"dtype": "DT_FLOAT", "tensorShape": {"dim": [{"size": "1"}, {"size": "1"}, {"size": "1"}, {"size": "128"}]}}}}}, {"name": "StatefulPartitionedCall/model_1/concatenate_12/concat/axis", "op": "Const", "attr": {"dtype": {"type": "DT_INT32"}, "value": {"tensor": {"dtype": "DT_INT32", "tensorShape": {}}}}}, {"name": "StatefulPartitionedCall/model_1/upsample_7/instance_normalization_27/moments/mean/reduction_indices", "op": "Const", "attr": {"value": {"tensor": {"dtype": "DT_INT32", "tensorShape": {"dim": [{"size": "2"}]}}}, "dtype": {"type": "DT_INT32"}}}, {"name": "StatefulPartitionedCall/model_1/upsample_7/instance_normalization_27/moments/variance/reduction_indices", "op": "Const", "attr": {"dtype": {"type": "DT_INT32"}, "value": {"tensor": {"dtype": "DT_INT32", "tensorShape": {"dim": [{"size": "2"}]}}}}}, {"name": "StatefulPartitionedCall/model_1/upsample_7/instance_normalization_27/batchnorm/add/y", "op": "Const", "attr": {"value": {"tensor": {"dtype": "DT_FLOAT", "tensorShape": {}}}, "dtype": {"type": "DT_FLOAT"}}}, {"name": "StatefulPartitionedCall/model_1/upsample_7/instance_normalization_27/Reshape", "op": "Const", "attr": {"value": {"tensor": {"dtype": "DT_FLOAT", "tensorShape": {"dim": [{"size": "1"}, {"size": "1"}, {"size": "1"}, {"size": "64"}]}}}, "dtype": {"type": "DT_FLOAT"}}}, {"name": "StatefulPartitionedCall/model_1/downsample_1/conv2d_8/Conv2D/ReadVariableOp", "op": "Const", "attr": {"value": {"tensor": {"dtype": "DT_FLOAT", "tensorShape": {"dim": [{"size": "4"}, {"size": "4"}, {"size": "3"}, {"size": "64"}]}}}, "dtype": {"type": "DT_FLOAT"}}}, {"name": "StatefulPartitionedCall/model_1/concatenate_13/concat/axis", "op": "Const", "attr": {"value": {"tensor": {"dtype": "DT_INT32", "tensorShape": {}}}, "dtype": {"type": "DT_INT32"}}}, {"name": "StatefulPartitionedCall/model_1/conv2d_transpose_15/BiasAdd/ReadVariableOp", "op": "Const", "attr": {"dtype": {"type": "DT_FLOAT"}, "value": {"tensor": {"dtype": "DT_FLOAT", "tensorShape": {"dim": [{"size": "3"}]}}}}}, {"name": "input_2", "op": "Placeholder", "attr": {"dtype": {"type": "DT_FLOAT"}, "shape": {"shape": {"dim": [{"size": "-1"}, {"size": "256"}, {"size": "256"}, {"size": "3"}]}}}}, {"name": "StatefulPartitionedCall/model_1/downsample_1/conv2d_8/Conv2D", "op": "Conv2D", "input": ["input_2", "StatefulPartitionedCall/model_1/downsample_1/conv2d_8/Conv2D/ReadVariableOp"], "device": "/device:CPU:0", "attr": {"padding": {"s": "U0FNRQ=="}, "dilations": {"list": {"i": ["1", "1", "1", "1"]}}, "strides": {"list": {"i": ["1", "2", "2", "1"]}}, "use_cudnn_on_gpu": {"b": true}, "data_format": {"s": "TkhXQw=="}, "explicit_paddings": {"list": {}}, "T": {"type": "DT_FLOAT"}}}, {"name": "StatefulPartitionedCall/model_1/downsample_1/re_lu_15/Relu", "op": "Relu", "input": ["StatefulPartitionedCall/model_1/downsample_1/conv2d_8/Conv2D"], "attr": {"T": {"type": "DT_FLOAT"}}}, {"name": "StatefulPartitionedCall/model_1/downsample_2/conv2d_9/Conv2D", "op": "Conv2D", "input": ["StatefulPartitionedCall/model_1/downsample_1/re_lu_15/Relu", "StatefulPartitionedCall/model_1/downsample_2/conv2d_9/Conv2D/ReadVariableOp"], "device": "/device:CPU:0", "attr": {"T": {"type": "DT_FLOAT"}, "strides": {"list": {"i": ["1", "2", "2", "1"]}}, "use_cudnn_on_gpu": {"b": true}, "padding": {"s": "U0FNRQ=="}, "explicit_paddings": {"list": {}}, "dilations": {"list": {"i": ["1", "1", "1", "1"]}}, "data_format": {"s": "TkhXQw=="}}}, {"name": "StatefulPartitionedCall/model_1/downsample_2/instance_normalization_14/moments/mean", "op": "Mean", "input": ["StatefulPartitionedCall/model_1/downsample_2/conv2d_9/Conv2D", "StatefulPartitionedCall/model_1/downsample_2/instance_normalization_14/moments/mean/reduction_indices"], "attr": {"T": {"type": "DT_FLOAT"}, "keep_dims": {"b": true}, "Tidx": {"type": "DT_INT32"}}}, {"name": "StatefulPartitionedCall/model_1/downsample_2/instance_normalization_14/moments/SquaredDifference", "op": "SquaredDifference", "input": ["StatefulPartitionedCall/model_1/downsample_2/conv2d_9/Conv2D", "StatefulPartitionedCall/model_1/downsample_2/instance_normalization_14/moments/mean"], "attr": {"T": {"type": "DT_FLOAT"}}}, {"name": "StatefulPartitionedCall/model_1/downsample_2/instance_normalization_14/moments/variance", "op": "Mean", "input": ["StatefulPartitionedCall/model_1/downsample_2/instance_normalization_14/moments/SquaredDifference", "StatefulPartitionedCall/model_1/downsample_2/instance_normalization_14/moments/variance/reduction_indices"], "attr": {"keep_dims": {"b": true}, "Tidx": {"type": "DT_INT32"}, "T": {"type": "DT_FLOAT"}}}, {"name": "StatefulPartitionedCall/model_1/downsample_2/instance_normalization_14/batchnorm/add", "op": "AddV2", "input": ["StatefulPartitionedCall/model_1/downsample_2/instance_normalization_14/moments/variance", "StatefulPartitionedCall/model_1/downsample_2/instance_normalization_14/batchnorm/add/y"], "attr": {"T": {"type": "DT_FLOAT"}}}, {"name": "StatefulPartitionedCall/model_1/downsample_2/instance_normalization_14/batchnorm/Rsqrt", "op": "Rsqrt", "input": ["StatefulPartitionedCall/model_1/downsample_2/instance_normalization_14/batchnorm/add"], "attr": {"T": {"type": "DT_FLOAT"}}}, {"name": "StatefulPartitionedCall/model_1/downsample_2/instance_normalization_14/batchnorm/mul", "op": "Mul", "input": ["StatefulPartitionedCall/model_1/downsample_2/instance_normalization_14/batchnorm/Rsqrt", "StatefulPartitionedCall/model_1/downsample_2/instance_normalization_14/Reshape"], "attr": {"T": {"type": "DT_FLOAT"}}}, {"name": "StatefulPartitionedCall/model_1/downsample_2/instance_normalization_14/batchnorm/mul_2", "op": "Mul", "input": ["StatefulPartitionedCall/model_1/downsample_2/instance_normalization_14/moments/mean", "StatefulPartitionedCall/model_1/downsample_2/instance_normalization_14/batchnorm/mul"], "attr": {"T": {"type": "DT_FLOAT"}}}, {"name": "StatefulPartitionedCall/model_1/downsample_2/instance_normalization_14/batchnorm/mul_1", "op": "Mul", "input": ["StatefulPartitionedCall/model_1/downsample_2/conv2d_9/Conv2D", "StatefulPartitionedCall/model_1/downsample_2/instance_normalization_14/batchnorm/mul"], "attr": {"T": {"type": "DT_FLOAT"}}}, {"name": "StatefulPartitionedCall/model_1/downsample_2/instance_normalization_14/batchnorm/sub", "op": "Sub", "input": ["StatefulPartitionedCall/model_1/downsample_2/instance_normalization_14/Reshape_1", "StatefulPartitionedCall/model_1/downsample_2/instance_normalization_14/batchnorm/mul_2"], "attr": {"T": {"type": "DT_FLOAT"}}}, {"name": "StatefulPartitionedCall/model_1/downsample_2/instance_normalization_14/batchnorm/add_1", "op": "AddV2", "input": ["StatefulPartitionedCall/model_1/downsample_2/instance_normalization_14/batchnorm/mul_1", "StatefulPartitionedCall/model_1/downsample_2/instance_normalization_14/batchnorm/sub"], "attr": {"T": {"type": "DT_FLOAT"}}}, {"name": "StatefulPartitionedCall/model_1/downsample_2/re_lu_16/Relu", "op": "Relu", "input": ["StatefulPartitionedCall/model_1/downsample_2/instance_normalization_14/batchnorm/add_1"], "attr": {"T": {"type": "DT_FLOAT"}}}, {"name": "StatefulPartitionedCall/model_1/downsample_3/conv2d_10/Conv2D", "op": "Conv2D", "input": ["StatefulPartitionedCall/model_1/downsample_2/re_lu_16/Relu", "StatefulPartitionedCall/model_1/downsample_3/conv2d_10/Conv2D/ReadVariableOp"], "device": "/device:CPU:0", "attr": {"strides": {"list": {"i": ["1", "2", "2", "1"]}}, "use_cudnn_on_gpu": {"b": true}, "T": {"type": "DT_FLOAT"}, "dilations": {"list": {"i": ["1", "1", "1", "1"]}}, "explicit_paddings": {"list": {}}, "data_format": {"s": "TkhXQw=="}, "padding": {"s": "U0FNRQ=="}}}, {"name": "StatefulPartitionedCall/model_1/downsample_3/instance_normalization_15/moments/mean", "op": "Mean", "input": ["StatefulPartitionedCall/model_1/downsample_3/conv2d_10/Conv2D", "StatefulPartitionedCall/model_1/downsample_3/instance_normalization_15/moments/mean/reduction_indices"], "attr": {"keep_dims": {"b": true}, "Tidx": {"type": "DT_INT32"}, "T": {"type": "DT_FLOAT"}}}, {"name": "StatefulPartitionedCall/model_1/downsample_3/instance_normalization_15/moments/SquaredDifference", "op": "SquaredDifference", "input": ["StatefulPartitionedCall/model_1/downsample_3/conv2d_10/Conv2D", "StatefulPartitionedCall/model_1/downsample_3/instance_normalization_15/moments/mean"], "attr": {"T": {"type": "DT_FLOAT"}}}, {"name": "StatefulPartitionedCall/model_1/downsample_3/instance_normalization_15/moments/variance", "op": "Mean", "input": ["StatefulPartitionedCall/model_1/downsample_3/instance_normalization_15/moments/SquaredDifference", "StatefulPartitionedCall/model_1/downsample_3/instance_normalization_15/moments/variance/reduction_indices"], "attr": {"Tidx": {"type": "DT_INT32"}, "keep_dims": {"b": true}, "T": {"type": "DT_FLOAT"}}}, {"name": "StatefulPartitionedCall/model_1/downsample_3/instance_normalization_15/batchnorm/add", "op": "AddV2", "input": ["StatefulPartitionedCall/model_1/downsample_3/instance_normalization_15/moments/variance", "StatefulPartitionedCall/model_1/downsample_3/instance_normalization_15/batchnorm/add/y"], "attr": {"T": {"type": "DT_FLOAT"}}}, {"name": "StatefulPartitionedCall/model_1/downsample_3/instance_normalization_15/batchnorm/Rsqrt", "op": "Rsqrt", "input": ["StatefulPartitionedCall/model_1/downsample_3/instance_normalization_15/batchnorm/add"], "attr": {"T": {"type": "DT_FLOAT"}}}, {"name": "StatefulPartitionedCall/model_1/downsample_3/instance_normalization_15/batchnorm/mul", "op": "Mul", "input": ["StatefulPartitionedCall/model_1/downsample_3/instance_normalization_15/batchnorm/Rsqrt", "StatefulPartitionedCall/model_1/downsample_3/instance_normalization_15/Reshape"], "attr": {"T": {"type": "DT_FLOAT"}}}, {"name": "StatefulPartitionedCall/model_1/downsample_3/instance_normalization_15/batchnorm/mul_2", "op": "Mul", "input": ["StatefulPartitionedCall/model_1/downsample_3/instance_normalization_15/moments/mean", "StatefulPartitionedCall/model_1/downsample_3/instance_normalization_15/batchnorm/mul"], "attr": {"T": {"type": "DT_FLOAT"}}}, {"name": "StatefulPartitionedCall/model_1/downsample_3/instance_normalization_15/batchnorm/mul_1", "op": "Mul", "input": ["StatefulPartitionedCall/model_1/downsample_3/conv2d_10/Conv2D", "StatefulPartitionedCall/model_1/downsample_3/instance_normalization_15/batchnorm/mul"], "attr": {"T": {"type": "DT_FLOAT"}}}, {"name": "StatefulPartitionedCall/model_1/downsample_3/instance_normalization_15/batchnorm/sub", "op": "Sub", "input": ["StatefulPartitionedCall/model_1/downsample_3/instance_normalization_15/Reshape_1", "StatefulPartitionedCall/model_1/downsample_3/instance_normalization_15/batchnorm/mul_2"], "attr": {"T": {"type": "DT_FLOAT"}}}, {"name": "StatefulPartitionedCall/model_1/downsample_3/instance_normalization_15/batchnorm/add_1", "op": "AddV2", "input": ["StatefulPartitionedCall/model_1/downsample_3/instance_normalization_15/batchnorm/mul_1", "StatefulPartitionedCall/model_1/downsample_3/instance_normalization_15/batchnorm/sub"], "attr": {"T": {"type": "DT_FLOAT"}}}, {"name": "StatefulPartitionedCall/model_1/downsample_3/re_lu_17/Relu", "op": "Relu", "input": ["StatefulPartitionedCall/model_1/downsample_3/instance_normalization_15/batchnorm/add_1"], "attr": {"T": {"type": "DT_FLOAT"}}}, {"name": "StatefulPartitionedCall/model_1/downsample_4/conv2d_11/Conv2D", "op": "Conv2D", "input": ["StatefulPartitionedCall/model_1/downsample_3/re_lu_17/Relu", "StatefulPartitionedCall/model_1/downsample_4/conv2d_11/Conv2D/ReadVariableOp"], "device": "/device:CPU:0", "attr": {"strides": {"list": {"i": ["1", "2", "2", "1"]}}, "T": {"type": "DT_FLOAT"}, "padding": {"s": "U0FNRQ=="}, "data_format": {"s": "TkhXQw=="}, "use_cudnn_on_gpu": {"b": true}, "dilations": {"list": {"i": ["1", "1", "1", "1"]}}, "explicit_paddings": {"list": {}}}}, {"name": "StatefulPartitionedCall/model_1/downsample_4/instance_normalization_16/moments/mean", "op": "Mean", "input": ["StatefulPartitionedCall/model_1/downsample_4/conv2d_11/Conv2D", "StatefulPartitionedCall/model_1/downsample_4/instance_normalization_16/moments/mean/reduction_indices"], "attr": {"keep_dims": {"b": true}, "T": {"type": "DT_FLOAT"}, "Tidx": {"type": "DT_INT32"}}}, {"name": "StatefulPartitionedCall/model_1/downsample_4/instance_normalization_16/moments/SquaredDifference", "op": "SquaredDifference", "input": ["StatefulPartitionedCall/model_1/downsample_4/conv2d_11/Conv2D", "StatefulPartitionedCall/model_1/downsample_4/instance_normalization_16/moments/mean"], "attr": {"T": {"type": "DT_FLOAT"}}}, {"name": "StatefulPartitionedCall/model_1/downsample_4/instance_normalization_16/moments/variance", "op": "Mean", "input": ["StatefulPartitionedCall/model_1/downsample_4/instance_normalization_16/moments/SquaredDifference", "StatefulPartitionedCall/model_1/downsample_4/instance_normalization_16/moments/variance/reduction_indices"], "attr": {"Tidx": {"type": "DT_INT32"}, "keep_dims": {"b": true}, "T": {"type": "DT_FLOAT"}}}, {"name": "StatefulPartitionedCall/model_1/downsample_4/instance_normalization_16/batchnorm/add", "op": "AddV2", "input": ["StatefulPartitionedCall/model_1/downsample_4/instance_normalization_16/moments/variance", "StatefulPartitionedCall/model_1/downsample_4/instance_normalization_16/batchnorm/add/y"], "attr": {"T": {"type": "DT_FLOAT"}}}, {"name": "StatefulPartitionedCall/model_1/downsample_4/instance_normalization_16/batchnorm/Rsqrt", "op": "Rsqrt", "input": ["StatefulPartitionedCall/model_1/downsample_4/instance_normalization_16/batchnorm/add"], "attr": {"T": {"type": "DT_FLOAT"}}}, {"name": "StatefulPartitionedCall/model_1/downsample_4/instance_normalization_16/batchnorm/mul", "op": "Mul", "input": ["StatefulPartitionedCall/model_1/downsample_4/instance_normalization_16/batchnorm/Rsqrt", "StatefulPartitionedCall/model_1/downsample_4/instance_normalization_16/Reshape"], "attr": {"T": {"type": "DT_FLOAT"}}}, {"name": "StatefulPartitionedCall/model_1/downsample_4/instance_normalization_16/batchnorm/mul_2", "op": "Mul", "input": ["StatefulPartitionedCall/model_1/downsample_4/instance_normalization_16/moments/mean", "StatefulPartitionedCall/model_1/downsample_4/instance_normalization_16/batchnorm/mul"], "attr": {"T": {"type": "DT_FLOAT"}}}, {"name": "StatefulPartitionedCall/model_1/downsample_4/instance_normalization_16/batchnorm/mul_1", "op": "Mul", "input": ["StatefulPartitionedCall/model_1/downsample_4/conv2d_11/Conv2D", "StatefulPartitionedCall/model_1/downsample_4/instance_normalization_16/batchnorm/mul"], "attr": {"T": {"type": "DT_FLOAT"}}}, {"name": "StatefulPartitionedCall/model_1/downsample_4/instance_normalization_16/batchnorm/sub", "op": "Sub", "input": ["StatefulPartitionedCall/model_1/downsample_4/instance_normalization_16/Reshape_1", "StatefulPartitionedCall/model_1/downsample_4/instance_normalization_16/batchnorm/mul_2"], "attr": {"T": {"type": "DT_FLOAT"}}}, {"name": "StatefulPartitionedCall/model_1/downsample_4/instance_normalization_16/batchnorm/add_1", "op": "AddV2", "input": ["StatefulPartitionedCall/model_1/downsample_4/instance_normalization_16/batchnorm/mul_1", "StatefulPartitionedCall/model_1/downsample_4/instance_normalization_16/batchnorm/sub"], "attr": {"T": {"type": "DT_FLOAT"}}}, {"name": "StatefulPartitionedCall/model_1/downsample_4/re_lu_18/Relu", "op": "Relu", "input": ["StatefulPartitionedCall/model_1/downsample_4/instance_normalization_16/batchnorm/add_1"], "attr": {"T": {"type": "DT_FLOAT"}}}, {"name": "StatefulPartitionedCall/model_1/downsample_5/conv2d_12/Conv2D", "op": "Conv2D", "input": ["StatefulPartitionedCall/model_1/downsample_4/re_lu_18/Relu", "StatefulPartitionedCall/model_1/downsample_5/conv2d_12/Conv2D/ReadVariableOp"], "device": "/device:CPU:0", "attr": {"padding": {"s": "U0FNRQ=="}, "T": {"type": "DT_FLOAT"}, "explicit_paddings": {"list": {}}, "strides": {"list": {"i": ["1", "2", "2", "1"]}}, "use_cudnn_on_gpu": {"b": true}, "data_format": {"s": "TkhXQw=="}, "dilations": {"list": {"i": ["1", "1", "1", "1"]}}}}, {"name": "StatefulPartitionedCall/model_1/downsample_5/instance_normalization_17/moments/mean", "op": "Mean", "input": ["StatefulPartitionedCall/model_1/downsample_5/conv2d_12/Conv2D", "StatefulPartitionedCall/model_1/downsample_5/instance_normalization_17/moments/mean/reduction_indices"], "attr": {"keep_dims": {"b": true}, "T": {"type": "DT_FLOAT"}, "Tidx": {"type": "DT_INT32"}}}, {"name": "StatefulPartitionedCall/model_1/downsample_5/instance_normalization_17/moments/SquaredDifference", "op": "SquaredDifference", "input": ["StatefulPartitionedCall/model_1/downsample_5/conv2d_12/Conv2D", "StatefulPartitionedCall/model_1/downsample_5/instance_normalization_17/moments/mean"], "attr": {"T": {"type": "DT_FLOAT"}}}, {"name": "StatefulPartitionedCall/model_1/downsample_5/instance_normalization_17/moments/variance", "op": "Mean", "input": ["StatefulPartitionedCall/model_1/downsample_5/instance_normalization_17/moments/SquaredDifference", "StatefulPartitionedCall/model_1/downsample_5/instance_normalization_17/moments/variance/reduction_indices"], "attr": {"T": {"type": "DT_FLOAT"}, "Tidx": {"type": "DT_INT32"}, "keep_dims": {"b": true}}}, {"name": "StatefulPartitionedCall/model_1/downsample_5/instance_normalization_17/batchnorm/add", "op": "AddV2", "input": ["StatefulPartitionedCall/model_1/downsample_5/instance_normalization_17/moments/variance", "StatefulPartitionedCall/model_1/downsample_5/instance_normalization_17/batchnorm/add/y"], "attr": {"T": {"type": "DT_FLOAT"}}}, {"name": "StatefulPartitionedCall/model_1/downsample_5/instance_normalization_17/batchnorm/Rsqrt", "op": "Rsqrt", "input": ["StatefulPartitionedCall/model_1/downsample_5/instance_normalization_17/batchnorm/add"], "attr": {"T": {"type": "DT_FLOAT"}}}, {"name": "StatefulPartitionedCall/model_1/downsample_5/instance_normalization_17/batchnorm/mul", "op": "Mul", "input": ["StatefulPartitionedCall/model_1/downsample_5/instance_normalization_17/batchnorm/Rsqrt", "StatefulPartitionedCall/model_1/downsample_5/instance_normalization_17/Reshape"], "attr": {"T": {"type": "DT_FLOAT"}}}, {"name": "StatefulPartitionedCall/model_1/downsample_5/instance_normalization_17/batchnorm/mul_2", "op": "Mul", "input": ["StatefulPartitionedCall/model_1/downsample_5/instance_normalization_17/moments/mean", "StatefulPartitionedCall/model_1/downsample_5/instance_normalization_17/batchnorm/mul"], "attr": {"T": {"type": "DT_FLOAT"}}}, {"name": "StatefulPartitionedCall/model_1/downsample_5/instance_normalization_17/batchnorm/mul_1", "op": "Mul", "input": ["StatefulPartitionedCall/model_1/downsample_5/conv2d_12/Conv2D", "StatefulPartitionedCall/model_1/downsample_5/instance_normalization_17/batchnorm/mul"], "attr": {"T": {"type": "DT_FLOAT"}}}, {"name": "StatefulPartitionedCall/model_1/downsample_5/instance_normalization_17/batchnorm/sub", "op": "Sub", "input": ["StatefulPartitionedCall/model_1/downsample_5/instance_normalization_17/Reshape_1", "StatefulPartitionedCall/model_1/downsample_5/instance_normalization_17/batchnorm/mul_2"], "attr": {"T": {"type": "DT_FLOAT"}}}, {"name": "StatefulPartitionedCall/model_1/downsample_5/instance_normalization_17/batchnorm/add_1", "op": "AddV2", "input": ["StatefulPartitionedCall/model_1/downsample_5/instance_normalization_17/batchnorm/mul_1", "StatefulPartitionedCall/model_1/downsample_5/instance_normalization_17/batchnorm/sub"], "attr": {"T": {"type": "DT_FLOAT"}}}, {"name": "StatefulPartitionedCall/model_1/downsample_5/re_lu_19/Relu", "op": "Relu", "input": ["StatefulPartitionedCall/model_1/downsample_5/instance_normalization_17/batchnorm/add_1"], "attr": {"T": {"type": "DT_FLOAT"}}}, {"name": "StatefulPartitionedCall/model_1/downsample_6/conv2d_13/Conv2D", "op": "Conv2D", "input": ["StatefulPartitionedCall/model_1/downsample_5/re_lu_19/Relu", "StatefulPartitionedCall/model_1/downsample_6/conv2d_13/Conv2D/ReadVariableOp"], "device": "/device:CPU:0", "attr": {"T": {"type": "DT_FLOAT"}, "use_cudnn_on_gpu": {"b": true}, "dilations": {"list": {"i": ["1", "1", "1", "1"]}}, "strides": {"list": {"i": ["1", "2", "2", "1"]}}, "padding": {"s": "U0FNRQ=="}, "data_format": {"s": "TkhXQw=="}, "explicit_paddings": {"list": {}}}}, {"name": "StatefulPartitionedCall/model_1/downsample_6/instance_normalization_18/moments/mean", "op": "Mean", "input": ["StatefulPartitionedCall/model_1/downsample_6/conv2d_13/Conv2D", "StatefulPartitionedCall/model_1/downsample_6/instance_normalization_18/moments/mean/reduction_indices"], "attr": {"Tidx": {"type": "DT_INT32"}, "keep_dims": {"b": true}, "T": {"type": "DT_FLOAT"}}}, {"name": "StatefulPartitionedCall/model_1/downsample_6/instance_normalization_18/moments/SquaredDifference", "op": "SquaredDifference", "input": ["StatefulPartitionedCall/model_1/downsample_6/conv2d_13/Conv2D", "StatefulPartitionedCall/model_1/downsample_6/instance_normalization_18/moments/mean"], "attr": {"T": {"type": "DT_FLOAT"}}}, {"name": "StatefulPartitionedCall/model_1/downsample_6/instance_normalization_18/moments/variance", "op": "Mean", "input": ["StatefulPartitionedCall/model_1/downsample_6/instance_normalization_18/moments/SquaredDifference", "StatefulPartitionedCall/model_1/downsample_6/instance_normalization_18/moments/variance/reduction_indices"], "attr": {"Tidx": {"type": "DT_INT32"}, "keep_dims": {"b": true}, "T": {"type": "DT_FLOAT"}}}, {"name": "StatefulPartitionedCall/model_1/downsample_6/instance_normalization_18/batchnorm/add", "op": "AddV2", "input": ["StatefulPartitionedCall/model_1/downsample_6/instance_normalization_18/moments/variance", "StatefulPartitionedCall/model_1/downsample_6/instance_normalization_18/batchnorm/add/y"], "attr": {"T": {"type": "DT_FLOAT"}}}, {"name": "StatefulPartitionedCall/model_1/downsample_6/instance_normalization_18/batchnorm/Rsqrt", "op": "Rsqrt", "input": ["StatefulPartitionedCall/model_1/downsample_6/instance_normalization_18/batchnorm/add"], "attr": {"T": {"type": "DT_FLOAT"}}}, {"name": "StatefulPartitionedCall/model_1/downsample_6/instance_normalization_18/batchnorm/mul", "op": "Mul", "input": ["StatefulPartitionedCall/model_1/downsample_6/instance_normalization_18/batchnorm/Rsqrt", "StatefulPartitionedCall/model_1/downsample_6/instance_normalization_18/Reshape"], "attr": {"T": {"type": "DT_FLOAT"}}}, {"name": "StatefulPartitionedCall/model_1/downsample_6/instance_normalization_18/batchnorm/mul_2", "op": "Mul", "input": ["StatefulPartitionedCall/model_1/downsample_6/instance_normalization_18/moments/mean", "StatefulPartitionedCall/model_1/downsample_6/instance_normalization_18/batchnorm/mul"], "attr": {"T": {"type": "DT_FLOAT"}}}, {"name": "StatefulPartitionedCall/model_1/downsample_6/instance_normalization_18/batchnorm/mul_1", "op": "Mul", "input": ["StatefulPartitionedCall/model_1/downsample_6/conv2d_13/Conv2D", "StatefulPartitionedCall/model_1/downsample_6/instance_normalization_18/batchnorm/mul"], "attr": {"T": {"type": "DT_FLOAT"}}}, {"name": "StatefulPartitionedCall/model_1/downsample_6/instance_normalization_18/batchnorm/sub", "op": "Sub", "input": ["StatefulPartitionedCall/model_1/downsample_6/instance_normalization_18/Reshape_1", "StatefulPartitionedCall/model_1/downsample_6/instance_normalization_18/batchnorm/mul_2"], "attr": {"T": {"type": "DT_FLOAT"}}}, {"name": "StatefulPartitionedCall/model_1/downsample_6/instance_normalization_18/batchnorm/add_1", "op": "AddV2", "input": ["StatefulPartitionedCall/model_1/downsample_6/instance_normalization_18/batchnorm/mul_1", "StatefulPartitionedCall/model_1/downsample_6/instance_normalization_18/batchnorm/sub"], "attr": {"T": {"type": "DT_FLOAT"}}}, {"name": "StatefulPartitionedCall/model_1/downsample_6/re_lu_20/Relu", "op": "Relu", "input": ["StatefulPartitionedCall/model_1/downsample_6/instance_normalization_18/batchnorm/add_1"], "attr": {"T": {"type": "DT_FLOAT"}}}, {"name": "StatefulPartitionedCall/model_1/downsample_7/conv2d_14/Conv2D", "op": "Conv2D", "input": ["StatefulPartitionedCall/model_1/downsample_6/re_lu_20/Relu", "StatefulPartitionedCall/model_1/downsample_7/conv2d_14/Conv2D/ReadVariableOp"], "device": "/device:CPU:0", "attr": {"strides": {"list": {"i": ["1", "2", "2", "1"]}}, "explicit_paddings": {"list": {}}, "T": {"type": "DT_FLOAT"}, "padding": {"s": "U0FNRQ=="}, "data_format": {"s": "TkhXQw=="}, "dilations": {"list": {"i": ["1", "1", "1", "1"]}}, "use_cudnn_on_gpu": {"b": true}}}, {"name": "StatefulPartitionedCall/model_1/downsample_7/instance_normalization_19/moments/mean", "op": "Mean", "input": ["StatefulPartitionedCall/model_1/downsample_7/conv2d_14/Conv2D", "StatefulPartitionedCall/model_1/downsample_7/instance_normalization_19/moments/mean/reduction_indices"], "attr": {"T": {"type": "DT_FLOAT"}, "Tidx": {"type": "DT_INT32"}, "keep_dims": {"b": true}}}, {"name": "StatefulPartitionedCall/model_1/downsample_7/instance_normalization_19/moments/SquaredDifference", "op": "SquaredDifference", "input": ["StatefulPartitionedCall/model_1/downsample_7/conv2d_14/Conv2D", "StatefulPartitionedCall/model_1/downsample_7/instance_normalization_19/moments/mean"], "attr": {"T": {"type": "DT_FLOAT"}}}, {"name": "StatefulPartitionedCall/model_1/downsample_7/instance_normalization_19/moments/variance", "op": "Mean", "input": ["StatefulPartitionedCall/model_1/downsample_7/instance_normalization_19/moments/SquaredDifference", "StatefulPartitionedCall/model_1/downsample_7/instance_normalization_19/moments/variance/reduction_indices"], "attr": {"Tidx": {"type": "DT_INT32"}, "keep_dims": {"b": true}, "T": {"type": "DT_FLOAT"}}}, {"name": "StatefulPartitionedCall/model_1/downsample_7/instance_normalization_19/batchnorm/add", "op": "AddV2", "input": ["StatefulPartitionedCall/model_1/downsample_7/instance_normalization_19/moments/variance", "StatefulPartitionedCall/model_1/downsample_7/instance_normalization_19/batchnorm/add/y"], "attr": {"T": {"type": "DT_FLOAT"}}}, {"name": "StatefulPartitionedCall/model_1/downsample_7/instance_normalization_19/batchnorm/Rsqrt", "op": "Rsqrt", "input": ["StatefulPartitionedCall/model_1/downsample_7/instance_normalization_19/batchnorm/add"], "attr": {"T": {"type": "DT_FLOAT"}}}, {"name": "StatefulPartitionedCall/model_1/downsample_7/instance_normalization_19/batchnorm/mul", "op": "Mul", "input": ["StatefulPartitionedCall/model_1/downsample_7/instance_normalization_19/batchnorm/Rsqrt", "StatefulPartitionedCall/model_1/downsample_7/instance_normalization_19/Reshape"], "attr": {"T": {"type": "DT_FLOAT"}}}, {"name": "StatefulPartitionedCall/model_1/downsample_7/instance_normalization_19/batchnorm/mul_2", "op": "Mul", "input": ["StatefulPartitionedCall/model_1/downsample_7/instance_normalization_19/moments/mean", "StatefulPartitionedCall/model_1/downsample_7/instance_normalization_19/batchnorm/mul"], "attr": {"T": {"type": "DT_FLOAT"}}}, {"name": "StatefulPartitionedCall/model_1/downsample_7/instance_normalization_19/batchnorm/mul_1", "op": "Mul", "input": ["StatefulPartitionedCall/model_1/downsample_7/conv2d_14/Conv2D", "StatefulPartitionedCall/model_1/downsample_7/instance_normalization_19/batchnorm/mul"], "attr": {"T": {"type": "DT_FLOAT"}}}, {"name": "StatefulPartitionedCall/model_1/downsample_7/instance_normalization_19/batchnorm/sub", "op": "Sub", "input": ["StatefulPartitionedCall/model_1/downsample_7/instance_normalization_19/Reshape_1", "StatefulPartitionedCall/model_1/downsample_7/instance_normalization_19/batchnorm/mul_2"], "attr": {"T": {"type": "DT_FLOAT"}}}, {"name": "StatefulPartitionedCall/model_1/downsample_7/instance_normalization_19/batchnorm/add_1", "op": "AddV2", "input": ["StatefulPartitionedCall/model_1/downsample_7/instance_normalization_19/batchnorm/mul_1", "StatefulPartitionedCall/model_1/downsample_7/instance_normalization_19/batchnorm/sub"], "attr": {"T": {"type": "DT_FLOAT"}}}, {"name": "StatefulPartitionedCall/model_1/downsample_7/re_lu_21/Relu", "op": "Relu", "input": ["StatefulPartitionedCall/model_1/downsample_7/instance_normalization_19/batchnorm/add_1"], "attr": {"T": {"type": "DT_FLOAT"}}}, {"name": "StatefulPartitionedCall/model_1/downsample_8/conv2d_15/Conv2D", "op": "Conv2D", "input": ["StatefulPartitionedCall/model_1/downsample_7/re_lu_21/Relu", "StatefulPartitionedCall/model_1/downsample_8/conv2d_15/Conv2D/ReadVariableOp"], "device": "/device:CPU:0", "attr": {"T": {"type": "DT_FLOAT"}, "use_cudnn_on_gpu": {"b": true}, "explicit_paddings": {"list": {}}, "strides": {"list": {"i": ["1", "2", "2", "1"]}}, "padding": {"s": "U0FNRQ=="}, "dilations": {"list": {"i": ["1", "1", "1", "1"]}}, "data_format": {"s": "TkhXQw=="}}}, {"name": "StatefulPartitionedCall/model_1/downsample_8/instance_normalization_20/moments/mean", "op": "Mean", "input": ["StatefulPartitionedCall/model_1/downsample_8/conv2d_15/Conv2D", "StatefulPartitionedCall/model_1/downsample_8/instance_normalization_20/moments/mean/reduction_indices"], "attr": {"T": {"type": "DT_FLOAT"}, "Tidx": {"type": "DT_INT32"}, "keep_dims": {"b": true}}}, {"name": "StatefulPartitionedCall/model_1/downsample_8/instance_normalization_20/moments/SquaredDifference", "op": "SquaredDifference", "input": ["StatefulPartitionedCall/model_1/downsample_8/conv2d_15/Conv2D", "StatefulPartitionedCall/model_1/downsample_8/instance_normalization_20/moments/mean"], "attr": {"T": {"type": "DT_FLOAT"}}}, {"name": "StatefulPartitionedCall/model_1/downsample_8/instance_normalization_20/moments/variance", "op": "Mean", "input": ["StatefulPartitionedCall/model_1/downsample_8/instance_normalization_20/moments/SquaredDifference", "StatefulPartitionedCall/model_1/downsample_8/instance_normalization_20/moments/variance/reduction_indices"], "attr": {"T": {"type": "DT_FLOAT"}, "Tidx": {"type": "DT_INT32"}, "keep_dims": {"b": true}}}, {"name": "StatefulPartitionedCall/model_1/downsample_8/instance_normalization_20/batchnorm/add", "op": "AddV2", "input": ["StatefulPartitionedCall/model_1/downsample_8/instance_normalization_20/moments/variance", "StatefulPartitionedCall/model_1/downsample_8/instance_normalization_20/batchnorm/add/y"], "attr": {"T": {"type": "DT_FLOAT"}}}, {"name": "StatefulPartitionedCall/model_1/downsample_8/instance_normalization_20/batchnorm/Rsqrt", "op": "Rsqrt", "input": ["StatefulPartitionedCall/model_1/downsample_8/instance_normalization_20/batchnorm/add"], "attr": {"T": {"type": "DT_FLOAT"}}}, {"name": "StatefulPartitionedCall/model_1/downsample_8/instance_normalization_20/batchnorm/mul", "op": "Mul", "input": ["StatefulPartitionedCall/model_1/downsample_8/instance_normalization_20/batchnorm/Rsqrt", "StatefulPartitionedCall/model_1/downsample_8/instance_normalization_20/Reshape"], "attr": {"T": {"type": "DT_FLOAT"}}}, {"name": "StatefulPartitionedCall/model_1/downsample_8/instance_normalization_20/batchnorm/mul_2", "op": "Mul", "input": ["StatefulPartitionedCall/model_1/downsample_8/instance_normalization_20/moments/mean", "StatefulPartitionedCall/model_1/downsample_8/instance_normalization_20/batchnorm/mul"], "attr": {"T": {"type": "DT_FLOAT"}}}, {"name": "StatefulPartitionedCall/model_1/downsample_8/instance_normalization_20/batchnorm/mul_1", "op": "Mul", "input": ["StatefulPartitionedCall/model_1/downsample_8/conv2d_15/Conv2D", "StatefulPartitionedCall/model_1/downsample_8/instance_normalization_20/batchnorm/mul"], "attr": {"T": {"type": "DT_FLOAT"}}}, {"name": "StatefulPartitionedCall/model_1/downsample_8/instance_normalization_20/batchnorm/add_1", "op": "Sub", "input": ["StatefulPartitionedCall/model_1/downsample_8/instance_normalization_20/batchnorm/mul_1", "StatefulPartitionedCall/model_1/downsample_8/instance_normalization_20/batchnorm/mul_2"], "attr": {"T": {"type": "DT_FLOAT"}}}, {"name": "StatefulPartitionedCall/model_1/downsample_8/re_lu_22/Relu", "op": "Relu", "input": ["StatefulPartitionedCall/model_1/downsample_8/instance_normalization_20/batchnorm/add_1"], "attr": {"T": {"type": "DT_FLOAT"}}}, {"name": "StatefulPartitionedCall/model_1/upsample_1/conv2d_transpose_8/Shape", "op": "Shape", "input": ["StatefulPartitionedCall/model_1/downsample_8/re_lu_22/Relu"], "attr": {"T": {"type": "DT_FLOAT"}, "out_type": {"type": "DT_INT32"}}}, {"name": "StatefulPartitionedCall/model_1/upsample_1/conv2d_transpose_8/strided_slice", "op": "StridedSlice", "input": ["StatefulPartitionedCall/model_1/upsample_1/conv2d_transpose_8/Shape", "StatefulPartitionedCall/model_1/upsample_1/conv2d_transpose_8/strided_slice/stack", "StatefulPartitionedCall/model_1/upsample_1/conv2d_transpose_8/strided_slice/stack_1", "StatefulPartitionedCall/model_1/upsample_1/conv2d_transpose_8/strided_slice/stack_2"], "attr": {"ellipsis_mask": {"i": "0"}, "end_mask": {"i": "0"}, "new_axis_mask": {"i": "0"}, "Index": {"type": "DT_INT32"}, "begin_mask": {"i": "0"}, "shrink_axis_mask": {"i": "1"}, "T": {"type": "DT_INT32"}}}, {"name": "StatefulPartitionedCall/model_1/upsample_1/conv2d_transpose_8/stack", "op": "Pack", "input": ["StatefulPartitionedCall/model_1/upsample_1/conv2d_transpose_8/strided_slice", "StatefulPartitionedCall/model_1/upsample_1/conv2d_transpose_8/stack/1", "StatefulPartitionedCall/model_1/upsample_1/conv2d_transpose_8/stack/2", "StatefulPartitionedCall/model_1/upsample_1/conv2d_transpose_8/stack/3"], "attr": {"T": {"type": "DT_INT32"}, "axis": {"i": "0"}, "N": {"i": "4"}}}, {"name": "StatefulPartitionedCall/model_1/upsample_1/conv2d_transpose_8/conv2d_transpose", "op": "Conv2DBackpropInput", "input": ["StatefulPartitionedCall/model_1/upsample_1/conv2d_transpose_8/stack", "StatefulPartitionedCall/model_1/upsample_1/conv2d_transpose_8/conv2d_transpose/ReadVariableOp", "StatefulPartitionedCall/model_1/downsample_8/re_lu_22/Relu"], "attr": {"use_cudnn_on_gpu": {"b": true}, "strides": {"list": {"i": ["1", "2", "2", "1"]}}, "padding": {"s": "U0FNRQ=="}, "T": {"type": "DT_FLOAT"}, "explicit_paddings": {"list": {}}, "dilations": {"list": {"i": ["1", "1", "1", "1"]}}, "data_format": {"s": "TkhXQw=="}}}, {"name": "StatefulPartitionedCall/model_1/upsample_1/instance_normalization_21/moments/mean", "op": "Mean", "input": ["StatefulPartitionedCall/model_1/upsample_1/conv2d_transpose_8/conv2d_transpose", "StatefulPartitionedCall/model_1/upsample_1/instance_normalization_21/moments/mean/reduction_indices"], "attr": {"keep_dims": {"b": true}, "T": {"type": "DT_FLOAT"}, "Tidx": {"type": "DT_INT32"}}}, {"name": "StatefulPartitionedCall/model_1/upsample_1/instance_normalization_21/moments/SquaredDifference", "op": "SquaredDifference", "input": ["StatefulPartitionedCall/model_1/upsample_1/conv2d_transpose_8/conv2d_transpose", "StatefulPartitionedCall/model_1/upsample_1/instance_normalization_21/moments/mean"], "attr": {"T": {"type": "DT_FLOAT"}}}, {"name": "StatefulPartitionedCall/model_1/upsample_1/instance_normalization_21/moments/variance", "op": "Mean", "input": ["StatefulPartitionedCall/model_1/upsample_1/instance_normalization_21/moments/SquaredDifference", "StatefulPartitionedCall/model_1/upsample_1/instance_normalization_21/moments/variance/reduction_indices"], "attr": {"T": {"type": "DT_FLOAT"}, "keep_dims": {"b": true}, "Tidx": {"type": "DT_INT32"}}}, {"name": "StatefulPartitionedCall/model_1/upsample_1/instance_normalization_21/batchnorm/add", "op": "AddV2", "input": ["StatefulPartitionedCall/model_1/upsample_1/instance_normalization_21/moments/variance", "StatefulPartitionedCall/model_1/upsample_1/instance_normalization_21/batchnorm/add/y"], "attr": {"T": {"type": "DT_FLOAT"}}}, {"name": "StatefulPartitionedCall/model_1/upsample_1/instance_normalization_21/batchnorm/Rsqrt", "op": "Rsqrt", "input": ["StatefulPartitionedCall/model_1/upsample_1/instance_normalization_21/batchnorm/add"], "attr": {"T": {"type": "DT_FLOAT"}}}, {"name": "StatefulPartitionedCall/model_1/upsample_1/instance_normalization_21/batchnorm/mul", "op": "Mul", "input": ["StatefulPartitionedCall/model_1/upsample_1/instance_normalization_21/batchnorm/Rsqrt", "StatefulPartitionedCall/model_1/upsample_1/instance_normalization_21/Reshape"], "attr": {"T": {"type": "DT_FLOAT"}}}, {"name": "StatefulPartitionedCall/model_1/upsample_1/instance_normalization_21/batchnorm/mul_2", "op": "Mul", "input": ["StatefulPartitionedCall/model_1/upsample_1/instance_normalization_21/moments/mean", "StatefulPartitionedCall/model_1/upsample_1/instance_normalization_21/batchnorm/mul"], "attr": {"T": {"type": "DT_FLOAT"}}}, {"name": "StatefulPartitionedCall/model_1/upsample_1/instance_normalization_21/batchnorm/mul_1", "op": "Mul", "input": ["StatefulPartitionedCall/model_1/upsample_1/conv2d_transpose_8/conv2d_transpose", "StatefulPartitionedCall/model_1/upsample_1/instance_normalization_21/batchnorm/mul"], "attr": {"T": {"type": "DT_FLOAT"}}}, {"name": "StatefulPartitionedCall/model_1/upsample_1/instance_normalization_21/batchnorm/add_1", "op": "Sub", "input": ["StatefulPartitionedCall/model_1/upsample_1/instance_normalization_21/batchnorm/mul_1", "StatefulPartitionedCall/model_1/upsample_1/instance_normalization_21/batchnorm/mul_2"], "attr": {"T": {"type": "DT_FLOAT"}}}, {"name": "StatefulPartitionedCall/model_1/upsample_1/re_lu_23/Relu", "op": "Relu", "input": ["StatefulPartitionedCall/model_1/upsample_1/instance_normalization_21/batchnorm/add_1"], "attr": {"T": {"type": "DT_FLOAT"}}}, {"name": "StatefulPartitionedCall/model_1/concatenate_7/concat", "op": "ConcatV2", "input": ["StatefulPartitionedCall/model_1/upsample_1/re_lu_23/Relu", "StatefulPartitionedCall/model_1/downsample_7/re_lu_21/Relu", "StatefulPartitionedCall/model_1/concatenate_7/concat/axis"], "attr": {"T": {"type": "DT_FLOAT"}, "N": {"i": "2"}, "Tidx": {"type": "DT_INT32"}}}, {"name": "StatefulPartitionedCall/model_1/upsample_2/conv2d_transpose_9/Shape", "op": "Shape", "input": ["StatefulPartitionedCall/model_1/concatenate_7/concat"], "attr": {"out_type": {"type": "DT_INT32"}, "T": {"type": "DT_FLOAT"}}}, {"name": "StatefulPartitionedCall/model_1/upsample_2/conv2d_transpose_9/strided_slice", "op": "StridedSlice", "input": ["StatefulPartitionedCall/model_1/upsample_2/conv2d_transpose_9/Shape", "StatefulPartitionedCall/model_1/upsample_2/conv2d_transpose_9/strided_slice/stack", "StatefulPartitionedCall/model_1/upsample_2/conv2d_transpose_9/strided_slice/stack_1", "StatefulPartitionedCall/model_1/upsample_2/conv2d_transpose_9/strided_slice/stack_2"], "attr": {"begin_mask": {"i": "0"}, "end_mask": {"i": "0"}, "ellipsis_mask": {"i": "0"}, "Index": {"type": "DT_INT32"}, "shrink_axis_mask": {"i": "1"}, "new_axis_mask": {"i": "0"}, "T": {"type": "DT_INT32"}}}, {"name": "StatefulPartitionedCall/model_1/upsample_2/conv2d_transpose_9/stack", "op": "Pack", "input": ["StatefulPartitionedCall/model_1/upsample_2/conv2d_transpose_9/strided_slice", "StatefulPartitionedCall/model_1/upsample_2/conv2d_transpose_9/stack/1", "StatefulPartitionedCall/model_1/upsample_2/conv2d_transpose_9/stack/2", "StatefulPartitionedCall/model_1/upsample_2/conv2d_transpose_9/stack/3"], "attr": {"axis": {"i": "0"}, "N": {"i": "4"}, "T": {"type": "DT_INT32"}}}, {"name": "StatefulPartitionedCall/model_1/upsample_2/conv2d_transpose_9/conv2d_transpose", "op": "Conv2DBackpropInput", "input": ["StatefulPartitionedCall/model_1/upsample_2/conv2d_transpose_9/stack", "StatefulPartitionedCall/model_1/upsample_2/conv2d_transpose_9/conv2d_transpose/ReadVariableOp", "StatefulPartitionedCall/model_1/concatenate_7/concat"], "attr": {"dilations": {"list": {"i": ["1", "1", "1", "1"]}}, "explicit_paddings": {"list": {}}, "strides": {"list": {"i": ["1", "2", "2", "1"]}}, "T": {"type": "DT_FLOAT"}, "use_cudnn_on_gpu": {"b": true}, "padding": {"s": "U0FNRQ=="}, "data_format": {"s": "TkhXQw=="}}}, {"name": "StatefulPartitionedCall/model_1/upsample_2/instance_normalization_22/moments/mean", "op": "Mean", "input": ["StatefulPartitionedCall/model_1/upsample_2/conv2d_transpose_9/conv2d_transpose", "StatefulPartitionedCall/model_1/upsample_2/instance_normalization_22/moments/mean/reduction_indices"], "attr": {"T": {"type": "DT_FLOAT"}, "Tidx": {"type": "DT_INT32"}, "keep_dims": {"b": true}}}, {"name": "StatefulPartitionedCall/model_1/upsample_2/instance_normalization_22/moments/SquaredDifference", "op": "SquaredDifference", "input": ["StatefulPartitionedCall/model_1/upsample_2/conv2d_transpose_9/conv2d_transpose", "StatefulPartitionedCall/model_1/upsample_2/instance_normalization_22/moments/mean"], "attr": {"T": {"type": "DT_FLOAT"}}}, {"name": "StatefulPartitionedCall/model_1/upsample_2/instance_normalization_22/moments/variance", "op": "Mean", "input": ["StatefulPartitionedCall/model_1/upsample_2/instance_normalization_22/moments/SquaredDifference", "StatefulPartitionedCall/model_1/upsample_2/instance_normalization_22/moments/variance/reduction_indices"], "attr": {"Tidx": {"type": "DT_INT32"}, "keep_dims": {"b": true}, "T": {"type": "DT_FLOAT"}}}, {"name": "StatefulPartitionedCall/model_1/upsample_2/instance_normalization_22/batchnorm/add", "op": "AddV2", "input": ["StatefulPartitionedCall/model_1/upsample_2/instance_normalization_22/moments/variance", "StatefulPartitionedCall/model_1/upsample_2/instance_normalization_22/batchnorm/add/y"], "attr": {"T": {"type": "DT_FLOAT"}}}, {"name": "StatefulPartitionedCall/model_1/upsample_2/instance_normalization_22/batchnorm/Rsqrt", "op": "Rsqrt", "input": ["StatefulPartitionedCall/model_1/upsample_2/instance_normalization_22/batchnorm/add"], "attr": {"T": {"type": "DT_FLOAT"}}}, {"name": "StatefulPartitionedCall/model_1/upsample_2/instance_normalization_22/batchnorm/mul", "op": "Mul", "input": ["StatefulPartitionedCall/model_1/upsample_2/instance_normalization_22/batchnorm/Rsqrt", "StatefulPartitionedCall/model_1/upsample_2/instance_normalization_22/Reshape"], "attr": {"T": {"type": "DT_FLOAT"}}}, {"name": "StatefulPartitionedCall/model_1/upsample_2/instance_normalization_22/batchnorm/mul_2", "op": "Mul", "input": ["StatefulPartitionedCall/model_1/upsample_2/instance_normalization_22/moments/mean", "StatefulPartitionedCall/model_1/upsample_2/instance_normalization_22/batchnorm/mul"], "attr": {"T": {"type": "DT_FLOAT"}}}, {"name": "StatefulPartitionedCall/model_1/upsample_2/instance_normalization_22/batchnorm/mul_1", "op": "Mul", "input": ["StatefulPartitionedCall/model_1/upsample_2/conv2d_transpose_9/conv2d_transpose", "StatefulPartitionedCall/model_1/upsample_2/instance_normalization_22/batchnorm/mul"], "attr": {"T": {"type": "DT_FLOAT"}}}, {"name": "StatefulPartitionedCall/model_1/upsample_2/instance_normalization_22/batchnorm/sub", "op": "Sub", "input": ["StatefulPartitionedCall/model_1/upsample_2/instance_normalization_22/Reshape_1", "StatefulPartitionedCall/model_1/upsample_2/instance_normalization_22/batchnorm/mul_2"], "attr": {"T": {"type": "DT_FLOAT"}}}, {"name": "StatefulPartitionedCall/model_1/upsample_2/instance_normalization_22/batchnorm/add_1", "op": "AddV2", "input": ["StatefulPartitionedCall/model_1/upsample_2/instance_normalization_22/batchnorm/mul_1", "StatefulPartitionedCall/model_1/upsample_2/instance_normalization_22/batchnorm/sub"], "attr": {"T": {"type": "DT_FLOAT"}}}, {"name": "StatefulPartitionedCall/model_1/upsample_2/re_lu_24/Relu", "op": "Relu", "input": ["StatefulPartitionedCall/model_1/upsample_2/instance_normalization_22/batchnorm/add_1"], "attr": {"T": {"type": "DT_FLOAT"}}}, {"name": "StatefulPartitionedCall/model_1/concatenate_8/concat", "op": "ConcatV2", "input": ["StatefulPartitionedCall/model_1/upsample_2/re_lu_24/Relu", "StatefulPartitionedCall/model_1/downsample_6/re_lu_20/Relu", "StatefulPartitionedCall/model_1/concatenate_8/concat/axis"], "attr": {"N": {"i": "2"}, "Tidx": {"type": "DT_INT32"}, "T": {"type": "DT_FLOAT"}}}, {"name": "StatefulPartitionedCall/model_1/upsample_3/conv2d_transpose_10/Shape", "op": "Shape", "input": ["StatefulPartitionedCall/model_1/concatenate_8/concat"], "attr": {"T": {"type": "DT_FLOAT"}, "out_type": {"type": "DT_INT32"}}}, {"name": "StatefulPartitionedCall/model_1/upsample_3/conv2d_transpose_10/strided_slice", "op": "StridedSlice", "input": ["StatefulPartitionedCall/model_1/upsample_3/conv2d_transpose_10/Shape", "StatefulPartitionedCall/model_1/upsample_3/conv2d_transpose_10/strided_slice/stack", "StatefulPartitionedCall/model_1/upsample_3/conv2d_transpose_10/strided_slice/stack_1", "StatefulPartitionedCall/model_1/upsample_3/conv2d_transpose_10/strided_slice/stack_2"], "attr": {"T": {"type": "DT_INT32"}, "ellipsis_mask": {"i": "0"}, "end_mask": {"i": "0"}, "new_axis_mask": {"i": "0"}, "begin_mask": {"i": "0"}, "shrink_axis_mask": {"i": "1"}, "Index": {"type": "DT_INT32"}}}, {"name": "StatefulPartitionedCall/model_1/upsample_3/conv2d_transpose_10/stack", "op": "Pack", "input": ["StatefulPartitionedCall/model_1/upsample_3/conv2d_transpose_10/strided_slice", "StatefulPartitionedCall/model_1/upsample_3/conv2d_transpose_10/stack/1", "StatefulPartitionedCall/model_1/upsample_3/conv2d_transpose_10/stack/2", "StatefulPartitionedCall/model_1/upsample_3/conv2d_transpose_10/stack/3"], "attr": {"N": {"i": "4"}, "T": {"type": "DT_INT32"}, "axis": {"i": "0"}}}, {"name": "StatefulPartitionedCall/model_1/upsample_3/conv2d_transpose_10/conv2d_transpose", "op": "Conv2DBackpropInput", "input": ["StatefulPartitionedCall/model_1/upsample_3/conv2d_transpose_10/stack", "StatefulPartitionedCall/model_1/upsample_3/conv2d_transpose_10/conv2d_transpose/ReadVariableOp", "StatefulPartitionedCall/model_1/concatenate_8/concat"], "attr": {"strides": {"list": {"i": ["1", "2", "2", "1"]}}, "data_format": {"s": "TkhXQw=="}, "explicit_paddings": {"list": {}}, "use_cudnn_on_gpu": {"b": true}, "dilations": {"list": {"i": ["1", "1", "1", "1"]}}, "padding": {"s": "U0FNRQ=="}, "T": {"type": "DT_FLOAT"}}}, {"name": "StatefulPartitionedCall/model_1/upsample_3/instance_normalization_23/moments/mean", "op": "Mean", "input": ["StatefulPartitionedCall/model_1/upsample_3/conv2d_transpose_10/conv2d_transpose", "StatefulPartitionedCall/model_1/upsample_3/instance_normalization_23/moments/mean/reduction_indices"], "attr": {"T": {"type": "DT_FLOAT"}, "keep_dims": {"b": true}, "Tidx": {"type": "DT_INT32"}}}, {"name": "StatefulPartitionedCall/model_1/upsample_3/instance_normalization_23/moments/SquaredDifference", "op": "SquaredDifference", "input": ["StatefulPartitionedCall/model_1/upsample_3/conv2d_transpose_10/conv2d_transpose", "StatefulPartitionedCall/model_1/upsample_3/instance_normalization_23/moments/mean"], "attr": {"T": {"type": "DT_FLOAT"}}}, {"name": "StatefulPartitionedCall/model_1/upsample_3/instance_normalization_23/moments/variance", "op": "Mean", "input": ["StatefulPartitionedCall/model_1/upsample_3/instance_normalization_23/moments/SquaredDifference", "StatefulPartitionedCall/model_1/upsample_3/instance_normalization_23/moments/variance/reduction_indices"], "attr": {"keep_dims": {"b": true}, "Tidx": {"type": "DT_INT32"}, "T": {"type": "DT_FLOAT"}}}, {"name": "StatefulPartitionedCall/model_1/upsample_3/instance_normalization_23/batchnorm/add", "op": "AddV2", "input": ["StatefulPartitionedCall/model_1/upsample_3/instance_normalization_23/moments/variance", "StatefulPartitionedCall/model_1/upsample_3/instance_normalization_23/batchnorm/add/y"], "attr": {"T": {"type": "DT_FLOAT"}}}, {"name": "StatefulPartitionedCall/model_1/upsample_3/instance_normalization_23/batchnorm/Rsqrt", "op": "Rsqrt", "input": ["StatefulPartitionedCall/model_1/upsample_3/instance_normalization_23/batchnorm/add"], "attr": {"T": {"type": "DT_FLOAT"}}}, {"name": "StatefulPartitionedCall/model_1/upsample_3/instance_normalization_23/batchnorm/mul", "op": "Mul", "input": ["StatefulPartitionedCall/model_1/upsample_3/instance_normalization_23/batchnorm/Rsqrt", "StatefulPartitionedCall/model_1/upsample_3/instance_normalization_23/Reshape"], "attr": {"T": {"type": "DT_FLOAT"}}}, {"name": "StatefulPartitionedCall/model_1/upsample_3/instance_normalization_23/batchnorm/mul_2", "op": "Mul", "input": ["StatefulPartitionedCall/model_1/upsample_3/instance_normalization_23/moments/mean", "StatefulPartitionedCall/model_1/upsample_3/instance_normalization_23/batchnorm/mul"], "attr": {"T": {"type": "DT_FLOAT"}}}, {"name": "StatefulPartitionedCall/model_1/upsample_3/instance_normalization_23/batchnorm/mul_1", "op": "Mul", "input": ["StatefulPartitionedCall/model_1/upsample_3/conv2d_transpose_10/conv2d_transpose", "StatefulPartitionedCall/model_1/upsample_3/instance_normalization_23/batchnorm/mul"], "attr": {"T": {"type": "DT_FLOAT"}}}, {"name": "StatefulPartitionedCall/model_1/upsample_3/instance_normalization_23/batchnorm/sub", "op": "Sub", "input": ["StatefulPartitionedCall/model_1/upsample_3/instance_normalization_23/Reshape_1", "StatefulPartitionedCall/model_1/upsample_3/instance_normalization_23/batchnorm/mul_2"], "attr": {"T": {"type": "DT_FLOAT"}}}, {"name": "StatefulPartitionedCall/model_1/upsample_3/instance_normalization_23/batchnorm/add_1", "op": "AddV2", "input": ["StatefulPartitionedCall/model_1/upsample_3/instance_normalization_23/batchnorm/mul_1", "StatefulPartitionedCall/model_1/upsample_3/instance_normalization_23/batchnorm/sub"], "attr": {"T": {"type": "DT_FLOAT"}}}, {"name": "StatefulPartitionedCall/model_1/upsample_3/re_lu_25/Relu", "op": "Relu", "input": ["StatefulPartitionedCall/model_1/upsample_3/instance_normalization_23/batchnorm/add_1"], "attr": {"T": {"type": "DT_FLOAT"}}}, {"name": "StatefulPartitionedCall/model_1/concatenate_9/concat", "op": "ConcatV2", "input": ["StatefulPartitionedCall/model_1/upsample_3/re_lu_25/Relu", "StatefulPartitionedCall/model_1/downsample_5/re_lu_19/Relu", "StatefulPartitionedCall/model_1/concatenate_9/concat/axis"], "attr": {"Tidx": {"type": "DT_INT32"}, "N": {"i": "2"}, "T": {"type": "DT_FLOAT"}}}, {"name": "StatefulPartitionedCall/model_1/upsample_4/conv2d_transpose_11/Shape", "op": "Shape", "input": ["StatefulPartitionedCall/model_1/concatenate_9/concat"], "attr": {"T": {"type": "DT_FLOAT"}, "out_type": {"type": "DT_INT32"}}}, {"name": "StatefulPartitionedCall/model_1/upsample_4/conv2d_transpose_11/strided_slice", "op": "StridedSlice", "input": ["StatefulPartitionedCall/model_1/upsample_4/conv2d_transpose_11/Shape", "StatefulPartitionedCall/model_1/upsample_4/conv2d_transpose_11/strided_slice/stack", "StatefulPartitionedCall/model_1/upsample_4/conv2d_transpose_11/strided_slice/stack_1", "StatefulPartitionedCall/model_1/upsample_4/conv2d_transpose_11/strided_slice/stack_2"], "attr": {"T": {"type": "DT_INT32"}, "new_axis_mask": {"i": "0"}, "Index": {"type": "DT_INT32"}, "shrink_axis_mask": {"i": "1"}, "begin_mask": {"i": "0"}, "ellipsis_mask": {"i": "0"}, "end_mask": {"i": "0"}}}, {"name": "StatefulPartitionedCall/model_1/upsample_4/conv2d_transpose_11/stack", "op": "Pack", "input": ["StatefulPartitionedCall/model_1/upsample_4/conv2d_transpose_11/strided_slice", "StatefulPartitionedCall/model_1/upsample_4/conv2d_transpose_11/stack/1", "StatefulPartitionedCall/model_1/upsample_4/conv2d_transpose_11/stack/2", "StatefulPartitionedCall/model_1/upsample_4/conv2d_transpose_11/stack/3"], "attr": {"axis": {"i": "0"}, "N": {"i": "4"}, "T": {"type": "DT_INT32"}}}, {"name": "StatefulPartitionedCall/model_1/upsample_4/conv2d_transpose_11/conv2d_transpose", "op": "Conv2DBackpropInput", "input": ["StatefulPartitionedCall/model_1/upsample_4/conv2d_transpose_11/stack", "StatefulPartitionedCall/model_1/upsample_4/conv2d_transpose_11/conv2d_transpose/ReadVariableOp", "StatefulPartitionedCall/model_1/concatenate_9/concat"], "attr": {"data_format": {"s": "TkhXQw=="}, "dilations": {"list": {"i": ["1", "1", "1", "1"]}}, "use_cudnn_on_gpu": {"b": true}, "explicit_paddings": {"list": {}}, "T": {"type": "DT_FLOAT"}, "strides": {"list": {"i": ["1", "2", "2", "1"]}}, "padding": {"s": "U0FNRQ=="}}}, {"name": "StatefulPartitionedCall/model_1/upsample_4/instance_normalization_24/moments/mean", "op": "Mean", "input": ["StatefulPartitionedCall/model_1/upsample_4/conv2d_transpose_11/conv2d_transpose", "StatefulPartitionedCall/model_1/upsample_4/instance_normalization_24/moments/mean/reduction_indices"], "attr": {"keep_dims": {"b": true}, "Tidx": {"type": "DT_INT32"}, "T": {"type": "DT_FLOAT"}}}, {"name": "StatefulPartitionedCall/model_1/upsample_4/instance_normalization_24/moments/SquaredDifference", "op": "SquaredDifference", "input": ["StatefulPartitionedCall/model_1/upsample_4/conv2d_transpose_11/conv2d_transpose", "StatefulPartitionedCall/model_1/upsample_4/instance_normalization_24/moments/mean"], "attr": {"T": {"type": "DT_FLOAT"}}}, {"name": "StatefulPartitionedCall/model_1/upsample_4/instance_normalization_24/moments/variance", "op": "Mean", "input": ["StatefulPartitionedCall/model_1/upsample_4/instance_normalization_24/moments/SquaredDifference", "StatefulPartitionedCall/model_1/upsample_4/instance_normalization_24/moments/variance/reduction_indices"], "attr": {"Tidx": {"type": "DT_INT32"}, "T": {"type": "DT_FLOAT"}, "keep_dims": {"b": true}}}, {"name": "StatefulPartitionedCall/model_1/upsample_4/instance_normalization_24/batchnorm/add", "op": "AddV2", "input": ["StatefulPartitionedCall/model_1/upsample_4/instance_normalization_24/moments/variance", "StatefulPartitionedCall/model_1/upsample_4/instance_normalization_24/batchnorm/add/y"], "attr": {"T": {"type": "DT_FLOAT"}}}, {"name": "StatefulPartitionedCall/model_1/upsample_4/instance_normalization_24/batchnorm/Rsqrt", "op": "Rsqrt", "input": ["StatefulPartitionedCall/model_1/upsample_4/instance_normalization_24/batchnorm/add"], "attr": {"T": {"type": "DT_FLOAT"}}}, {"name": "StatefulPartitionedCall/model_1/upsample_4/instance_normalization_24/batchnorm/mul", "op": "Mul", "input": ["StatefulPartitionedCall/model_1/upsample_4/instance_normalization_24/batchnorm/Rsqrt", "StatefulPartitionedCall/model_1/upsample_4/instance_normalization_24/Reshape"], "attr": {"T": {"type": "DT_FLOAT"}}}, {"name": "StatefulPartitionedCall/model_1/upsample_4/instance_normalization_24/batchnorm/mul_2", "op": "Mul", "input": ["StatefulPartitionedCall/model_1/upsample_4/instance_normalization_24/moments/mean", "StatefulPartitionedCall/model_1/upsample_4/instance_normalization_24/batchnorm/mul"], "attr": {"T": {"type": "DT_FLOAT"}}}, {"name": "StatefulPartitionedCall/model_1/upsample_4/instance_normalization_24/batchnorm/mul_1", "op": "Mul", "input": ["StatefulPartitionedCall/model_1/upsample_4/conv2d_transpose_11/conv2d_transpose", "StatefulPartitionedCall/model_1/upsample_4/instance_normalization_24/batchnorm/mul"], "attr": {"T": {"type": "DT_FLOAT"}}}, {"name": "StatefulPartitionedCall/model_1/upsample_4/instance_normalization_24/batchnorm/sub", "op": "Sub", "input": ["StatefulPartitionedCall/model_1/upsample_4/instance_normalization_24/Reshape_1", "StatefulPartitionedCall/model_1/upsample_4/instance_normalization_24/batchnorm/mul_2"], "attr": {"T": {"type": "DT_FLOAT"}}}, {"name": "StatefulPartitionedCall/model_1/upsample_4/instance_normalization_24/batchnorm/add_1", "op": "AddV2", "input": ["StatefulPartitionedCall/model_1/upsample_4/instance_normalization_24/batchnorm/mul_1", "StatefulPartitionedCall/model_1/upsample_4/instance_normalization_24/batchnorm/sub"], "attr": {"T": {"type": "DT_FLOAT"}}}, {"name": "StatefulPartitionedCall/model_1/upsample_4/re_lu_26/Relu", "op": "Relu", "input": ["StatefulPartitionedCall/model_1/upsample_4/instance_normalization_24/batchnorm/add_1"], "attr": {"T": {"type": "DT_FLOAT"}}}, {"name": "StatefulPartitionedCall/model_1/concatenate_10/concat", "op": "ConcatV2", "input": ["StatefulPartitionedCall/model_1/upsample_4/re_lu_26/Relu", "StatefulPartitionedCall/model_1/downsample_4/re_lu_18/Relu", "StatefulPartitionedCall/model_1/concatenate_10/concat/axis"], "attr": {"T": {"type": "DT_FLOAT"}, "Tidx": {"type": "DT_INT32"}, "N": {"i": "2"}}}, {"name": "StatefulPartitionedCall/model_1/upsample_5/conv2d_transpose_12/Shape", "op": "Shape", "input": ["StatefulPartitionedCall/model_1/concatenate_10/concat"], "attr": {"out_type": {"type": "DT_INT32"}, "T": {"type": "DT_FLOAT"}}}, {"name": "StatefulPartitionedCall/model_1/upsample_5/conv2d_transpose_12/strided_slice", "op": "StridedSlice", "input": ["StatefulPartitionedCall/model_1/upsample_5/conv2d_transpose_12/Shape", "StatefulPartitionedCall/model_1/upsample_5/conv2d_transpose_12/strided_slice/stack", "StatefulPartitionedCall/model_1/upsample_5/conv2d_transpose_12/strided_slice/stack_1", "StatefulPartitionedCall/model_1/upsample_5/conv2d_transpose_12/strided_slice/stack_2"], "attr": {"end_mask": {"i": "0"}, "ellipsis_mask": {"i": "0"}, "new_axis_mask": {"i": "0"}, "T": {"type": "DT_INT32"}, "Index": {"type": "DT_INT32"}, "shrink_axis_mask": {"i": "1"}, "begin_mask": {"i": "0"}}}, {"name": "StatefulPartitionedCall/model_1/upsample_5/conv2d_transpose_12/stack", "op": "Pack", "input": ["StatefulPartitionedCall/model_1/upsample_5/conv2d_transpose_12/strided_slice", "StatefulPartitionedCall/model_1/upsample_5/conv2d_transpose_12/stack/1", "StatefulPartitionedCall/model_1/upsample_5/conv2d_transpose_12/stack/2", "StatefulPartitionedCall/model_1/upsample_5/conv2d_transpose_12/stack/3"], "attr": {"T": {"type": "DT_INT32"}, "N": {"i": "4"}, "axis": {"i": "0"}}}, {"name": "StatefulPartitionedCall/model_1/upsample_5/conv2d_transpose_12/conv2d_transpose", "op": "Conv2DBackpropInput", "input": ["StatefulPartitionedCall/model_1/upsample_5/conv2d_transpose_12/stack", "StatefulPartitionedCall/model_1/upsample_5/conv2d_transpose_12/conv2d_transpose/ReadVariableOp", "StatefulPartitionedCall/model_1/concatenate_10/concat"], "attr": {"explicit_paddings": {"list": {}}, "data_format": {"s": "TkhXQw=="}, "strides": {"list": {"i": ["1", "2", "2", "1"]}}, "dilations": {"list": {"i": ["1", "1", "1", "1"]}}, "padding": {"s": "U0FNRQ=="}, "T": {"type": "DT_FLOAT"}, "use_cudnn_on_gpu": {"b": true}}}, {"name": "StatefulPartitionedCall/model_1/upsample_5/instance_normalization_25/moments/mean", "op": "Mean", "input": ["StatefulPartitionedCall/model_1/upsample_5/conv2d_transpose_12/conv2d_transpose", "StatefulPartitionedCall/model_1/upsample_5/instance_normalization_25/moments/mean/reduction_indices"], "attr": {"T": {"type": "DT_FLOAT"}, "Tidx": {"type": "DT_INT32"}, "keep_dims": {"b": true}}}, {"name": "StatefulPartitionedCall/model_1/upsample_5/instance_normalization_25/moments/SquaredDifference", "op": "SquaredDifference", "input": ["StatefulPartitionedCall/model_1/upsample_5/conv2d_transpose_12/conv2d_transpose", "StatefulPartitionedCall/model_1/upsample_5/instance_normalization_25/moments/mean"], "attr": {"T": {"type": "DT_FLOAT"}}}, {"name": "StatefulPartitionedCall/model_1/upsample_5/instance_normalization_25/moments/variance", "op": "Mean", "input": ["StatefulPartitionedCall/model_1/upsample_5/instance_normalization_25/moments/SquaredDifference", "StatefulPartitionedCall/model_1/upsample_5/instance_normalization_25/moments/variance/reduction_indices"], "attr": {"T": {"type": "DT_FLOAT"}, "Tidx": {"type": "DT_INT32"}, "keep_dims": {"b": true}}}, {"name": "StatefulPartitionedCall/model_1/upsample_5/instance_normalization_25/batchnorm/add", "op": "AddV2", "input": ["StatefulPartitionedCall/model_1/upsample_5/instance_normalization_25/moments/variance", "StatefulPartitionedCall/model_1/upsample_5/instance_normalization_25/batchnorm/add/y"], "attr": {"T": {"type": "DT_FLOAT"}}}, {"name": "StatefulPartitionedCall/model_1/upsample_5/instance_normalization_25/batchnorm/Rsqrt", "op": "Rsqrt", "input": ["StatefulPartitionedCall/model_1/upsample_5/instance_normalization_25/batchnorm/add"], "attr": {"T": {"type": "DT_FLOAT"}}}, {"name": "StatefulPartitionedCall/model_1/upsample_5/instance_normalization_25/batchnorm/mul", "op": "Mul", "input": ["StatefulPartitionedCall/model_1/upsample_5/instance_normalization_25/batchnorm/Rsqrt", "StatefulPartitionedCall/model_1/upsample_5/instance_normalization_25/Reshape"], "attr": {"T": {"type": "DT_FLOAT"}}}, {"name": "StatefulPartitionedCall/model_1/upsample_5/instance_normalization_25/batchnorm/mul_2", "op": "Mul", "input": ["StatefulPartitionedCall/model_1/upsample_5/instance_normalization_25/moments/mean", "StatefulPartitionedCall/model_1/upsample_5/instance_normalization_25/batchnorm/mul"], "attr": {"T": {"type": "DT_FLOAT"}}}, {"name": "StatefulPartitionedCall/model_1/upsample_5/instance_normalization_25/batchnorm/mul_1", "op": "Mul", "input": ["StatefulPartitionedCall/model_1/upsample_5/conv2d_transpose_12/conv2d_transpose", "StatefulPartitionedCall/model_1/upsample_5/instance_normalization_25/batchnorm/mul"], "attr": {"T": {"type": "DT_FLOAT"}}}, {"name": "StatefulPartitionedCall/model_1/upsample_5/instance_normalization_25/batchnorm/sub", "op": "Sub", "input": ["StatefulPartitionedCall/model_1/upsample_5/instance_normalization_25/Reshape_1", "StatefulPartitionedCall/model_1/upsample_5/instance_normalization_25/batchnorm/mul_2"], "attr": {"T": {"type": "DT_FLOAT"}}}, {"name": "StatefulPartitionedCall/model_1/upsample_5/instance_normalization_25/batchnorm/add_1", "op": "AddV2", "input": ["StatefulPartitionedCall/model_1/upsample_5/instance_normalization_25/batchnorm/mul_1", "StatefulPartitionedCall/model_1/upsample_5/instance_normalization_25/batchnorm/sub"], "attr": {"T": {"type": "DT_FLOAT"}}}, {"name": "StatefulPartitionedCall/model_1/upsample_5/re_lu_27/Relu", "op": "Relu", "input": ["StatefulPartitionedCall/model_1/upsample_5/instance_normalization_25/batchnorm/add_1"], "attr": {"T": {"type": "DT_FLOAT"}}}, {"name": "StatefulPartitionedCall/model_1/concatenate_11/concat", "op": "ConcatV2", "input": ["StatefulPartitionedCall/model_1/upsample_5/re_lu_27/Relu", "StatefulPartitionedCall/model_1/downsample_3/re_lu_17/Relu", "StatefulPartitionedCall/model_1/concatenate_11/concat/axis"], "attr": {"N": {"i": "2"}, "T": {"type": "DT_FLOAT"}, "Tidx": {"type": "DT_INT32"}}}, {"name": "StatefulPartitionedCall/model_1/upsample_6/conv2d_transpose_13/Shape", "op": "Shape", "input": ["StatefulPartitionedCall/model_1/concatenate_11/concat"], "attr": {"out_type": {"type": "DT_INT32"}, "T": {"type": "DT_FLOAT"}}}, {"name": "StatefulPartitionedCall/model_1/upsample_6/conv2d_transpose_13/strided_slice", "op": "StridedSlice", "input": ["StatefulPartitionedCall/model_1/upsample_6/conv2d_transpose_13/Shape", "StatefulPartitionedCall/model_1/upsample_6/conv2d_transpose_13/strided_slice/stack", "StatefulPartitionedCall/model_1/upsample_6/conv2d_transpose_13/strided_slice/stack_1", "StatefulPartitionedCall/model_1/upsample_6/conv2d_transpose_13/strided_slice/stack_2"], "attr": {"ellipsis_mask": {"i": "0"}, "new_axis_mask": {"i": "0"}, "end_mask": {"i": "0"}, "begin_mask": {"i": "0"}, "shrink_axis_mask": {"i": "1"}, "Index": {"type": "DT_INT32"}, "T": {"type": "DT_INT32"}}}, {"name": "StatefulPartitionedCall/model_1/upsample_6/conv2d_transpose_13/stack", "op": "Pack", "input": ["StatefulPartitionedCall/model_1/upsample_6/conv2d_transpose_13/strided_slice", "StatefulPartitionedCall/model_1/upsample_6/conv2d_transpose_13/stack/1", "StatefulPartitionedCall/model_1/upsample_6/conv2d_transpose_13/stack/2", "StatefulPartitionedCall/model_1/upsample_6/conv2d_transpose_13/stack/3"], "attr": {"axis": {"i": "0"}, "T": {"type": "DT_INT32"}, "N": {"i": "4"}}}, {"name": "StatefulPartitionedCall/model_1/upsample_6/conv2d_transpose_13/conv2d_transpose", "op": "Conv2DBackpropInput", "input": ["StatefulPartitionedCall/model_1/upsample_6/conv2d_transpose_13/stack", "StatefulPartitionedCall/model_1/upsample_6/conv2d_transpose_13/conv2d_transpose/ReadVariableOp", "StatefulPartitionedCall/model_1/concatenate_11/concat"], "attr": {"strides": {"list": {"i": ["1", "2", "2", "1"]}}, "dilations": {"list": {"i": ["1", "1", "1", "1"]}}, "explicit_paddings": {"list": {}}, "T": {"type": "DT_FLOAT"}, "padding": {"s": "U0FNRQ=="}, "use_cudnn_on_gpu": {"b": true}, "data_format": {"s": "TkhXQw=="}}}, {"name": "StatefulPartitionedCall/model_1/upsample_6/instance_normalization_26/moments/mean", "op": "Mean", "input": ["StatefulPartitionedCall/model_1/upsample_6/conv2d_transpose_13/conv2d_transpose", "StatefulPartitionedCall/model_1/upsample_6/instance_normalization_26/moments/mean/reduction_indices"], "attr": {"Tidx": {"type": "DT_INT32"}, "T": {"type": "DT_FLOAT"}, "keep_dims": {"b": true}}}, {"name": "StatefulPartitionedCall/model_1/upsample_6/instance_normalization_26/moments/SquaredDifference", "op": "SquaredDifference", "input": ["StatefulPartitionedCall/model_1/upsample_6/conv2d_transpose_13/conv2d_transpose", "StatefulPartitionedCall/model_1/upsample_6/instance_normalization_26/moments/mean"], "attr": {"T": {"type": "DT_FLOAT"}}}, {"name": "StatefulPartitionedCall/model_1/upsample_6/instance_normalization_26/moments/variance", "op": "Mean", "input": ["StatefulPartitionedCall/model_1/upsample_6/instance_normalization_26/moments/SquaredDifference", "StatefulPartitionedCall/model_1/upsample_6/instance_normalization_26/moments/variance/reduction_indices"], "attr": {"keep_dims": {"b": true}, "Tidx": {"type": "DT_INT32"}, "T": {"type": "DT_FLOAT"}}}, {"name": "StatefulPartitionedCall/model_1/upsample_6/instance_normalization_26/batchnorm/add", "op": "AddV2", "input": ["StatefulPartitionedCall/model_1/upsample_6/instance_normalization_26/moments/variance", "StatefulPartitionedCall/model_1/upsample_6/instance_normalization_26/batchnorm/add/y"], "attr": {"T": {"type": "DT_FLOAT"}}}, {"name": "StatefulPartitionedCall/model_1/upsample_6/instance_normalization_26/batchnorm/Rsqrt", "op": "Rsqrt", "input": ["StatefulPartitionedCall/model_1/upsample_6/instance_normalization_26/batchnorm/add"], "attr": {"T": {"type": "DT_FLOAT"}}}, {"name": "StatefulPartitionedCall/model_1/upsample_6/instance_normalization_26/batchnorm/mul", "op": "Mul", "input": ["StatefulPartitionedCall/model_1/upsample_6/instance_normalization_26/batchnorm/Rsqrt", "StatefulPartitionedCall/model_1/upsample_6/instance_normalization_26/Reshape"], "attr": {"T": {"type": "DT_FLOAT"}}}, {"name": "StatefulPartitionedCall/model_1/upsample_6/instance_normalization_26/batchnorm/mul_2", "op": "Mul", "input": ["StatefulPartitionedCall/model_1/upsample_6/instance_normalization_26/moments/mean", "StatefulPartitionedCall/model_1/upsample_6/instance_normalization_26/batchnorm/mul"], "attr": {"T": {"type": "DT_FLOAT"}}}, {"name": "StatefulPartitionedCall/model_1/upsample_6/instance_normalization_26/batchnorm/mul_1", "op": "Mul", "input": ["StatefulPartitionedCall/model_1/upsample_6/conv2d_transpose_13/conv2d_transpose", "StatefulPartitionedCall/model_1/upsample_6/instance_normalization_26/batchnorm/mul"], "attr": {"T": {"type": "DT_FLOAT"}}}, {"name": "StatefulPartitionedCall/model_1/upsample_6/instance_normalization_26/batchnorm/sub", "op": "Sub", "input": ["StatefulPartitionedCall/model_1/upsample_6/instance_normalization_26/Reshape_1", "StatefulPartitionedCall/model_1/upsample_6/instance_normalization_26/batchnorm/mul_2"], "attr": {"T": {"type": "DT_FLOAT"}}}, {"name": "StatefulPartitionedCall/model_1/upsample_6/instance_normalization_26/batchnorm/add_1", "op": "AddV2", "input": ["StatefulPartitionedCall/model_1/upsample_6/instance_normalization_26/batchnorm/mul_1", "StatefulPartitionedCall/model_1/upsample_6/instance_normalization_26/batchnorm/sub"], "attr": {"T": {"type": "DT_FLOAT"}}}, {"name": "StatefulPartitionedCall/model_1/upsample_6/re_lu_28/Relu", "op": "Relu", "input": ["StatefulPartitionedCall/model_1/upsample_6/instance_normalization_26/batchnorm/add_1"], "attr": {"T": {"type": "DT_FLOAT"}}}, {"name": "StatefulPartitionedCall/model_1/concatenate_12/concat", "op": "ConcatV2", "input": ["StatefulPartitionedCall/model_1/upsample_6/re_lu_28/Relu", "StatefulPartitionedCall/model_1/downsample_2/re_lu_16/Relu", "StatefulPartitionedCall/model_1/concatenate_12/concat/axis"], "attr": {"N": {"i": "2"}, "T": {"type": "DT_FLOAT"}, "Tidx": {"type": "DT_INT32"}}}, {"name": "StatefulPartitionedCall/model_1/upsample_7/conv2d_transpose_14/Shape", "op": "Shape", "input": ["StatefulPartitionedCall/model_1/concatenate_12/concat"], "attr": {"T": {"type": "DT_FLOAT"}, "out_type": {"type": "DT_INT32"}}}, {"name": "StatefulPartitionedCall/model_1/upsample_7/conv2d_transpose_14/strided_slice", "op": "StridedSlice", "input": ["StatefulPartitionedCall/model_1/upsample_7/conv2d_transpose_14/Shape", "StatefulPartitionedCall/model_1/upsample_7/conv2d_transpose_14/strided_slice/stack", "StatefulPartitionedCall/model_1/upsample_7/conv2d_transpose_14/strided_slice/stack_1", "StatefulPartitionedCall/model_1/upsample_7/conv2d_transpose_14/strided_slice/stack_2"], "attr": {"new_axis_mask": {"i": "0"}, "begin_mask": {"i": "0"}, "T": {"type": "DT_INT32"}, "ellipsis_mask": {"i": "0"}, "shrink_axis_mask": {"i": "1"}, "Index": {"type": "DT_INT32"}, "end_mask": {"i": "0"}}}, {"name": "StatefulPartitionedCall/model_1/upsample_7/conv2d_transpose_14/stack", "op": "Pack", "input": ["StatefulPartitionedCall/model_1/upsample_7/conv2d_transpose_14/strided_slice", "StatefulPartitionedCall/model_1/upsample_7/conv2d_transpose_14/stack/1", "StatefulPartitionedCall/model_1/upsample_7/conv2d_transpose_14/stack/2", "StatefulPartitionedCall/model_1/upsample_7/conv2d_transpose_14/stack/3"], "attr": {"N": {"i": "4"}, "T": {"type": "DT_INT32"}, "axis": {"i": "0"}}}, {"name": "StatefulPartitionedCall/model_1/upsample_7/conv2d_transpose_14/conv2d_transpose", "op": "Conv2DBackpropInput", "input": ["StatefulPartitionedCall/model_1/upsample_7/conv2d_transpose_14/stack", "StatefulPartitionedCall/model_1/upsample_7/conv2d_transpose_14/conv2d_transpose/ReadVariableOp", "StatefulPartitionedCall/model_1/concatenate_12/concat"], "attr": {"use_cudnn_on_gpu": {"b": true}, "padding": {"s": "U0FNRQ=="}, "data_format": {"s": "TkhXQw=="}, "dilations": {"list": {"i": ["1", "1", "1", "1"]}}, "explicit_paddings": {"list": {}}, "T": {"type": "DT_FLOAT"}, "strides": {"list": {"i": ["1", "2", "2", "1"]}}}}, {"name": "StatefulPartitionedCall/model_1/upsample_7/instance_normalization_27/moments/mean", "op": "Mean", "input": ["StatefulPartitionedCall/model_1/upsample_7/conv2d_transpose_14/conv2d_transpose", "StatefulPartitionedCall/model_1/upsample_7/instance_normalization_27/moments/mean/reduction_indices"], "attr": {"Tidx": {"type": "DT_INT32"}, "keep_dims": {"b": true}, "T": {"type": "DT_FLOAT"}}}, {"name": "StatefulPartitionedCall/model_1/upsample_7/instance_normalization_27/moments/SquaredDifference", "op": "SquaredDifference", "input": ["StatefulPartitionedCall/model_1/upsample_7/conv2d_transpose_14/conv2d_transpose", "StatefulPartitionedCall/model_1/upsample_7/instance_normalization_27/moments/mean"], "attr": {"T": {"type": "DT_FLOAT"}}}, {"name": "StatefulPartitionedCall/model_1/upsample_7/instance_normalization_27/moments/variance", "op": "Mean", "input": ["StatefulPartitionedCall/model_1/upsample_7/instance_normalization_27/moments/SquaredDifference", "StatefulPartitionedCall/model_1/upsample_7/instance_normalization_27/moments/variance/reduction_indices"], "attr": {"keep_dims": {"b": true}, "T": {"type": "DT_FLOAT"}, "Tidx": {"type": "DT_INT32"}}}, {"name": "StatefulPartitionedCall/model_1/upsample_7/instance_normalization_27/batchnorm/add", "op": "AddV2", "input": ["StatefulPartitionedCall/model_1/upsample_7/instance_normalization_27/moments/variance", "StatefulPartitionedCall/model_1/upsample_7/instance_normalization_27/batchnorm/add/y"], "attr": {"T": {"type": "DT_FLOAT"}}}, {"name": "StatefulPartitionedCall/model_1/upsample_7/instance_normalization_27/batchnorm/Rsqrt", "op": "Rsqrt", "input": ["StatefulPartitionedCall/model_1/upsample_7/instance_normalization_27/batchnorm/add"], "attr": {"T": {"type": "DT_FLOAT"}}}, {"name": "StatefulPartitionedCall/model_1/upsample_7/instance_normalization_27/batchnorm/mul", "op": "Mul", "input": ["StatefulPartitionedCall/model_1/upsample_7/instance_normalization_27/batchnorm/Rsqrt", "StatefulPartitionedCall/model_1/upsample_7/instance_normalization_27/Reshape"], "attr": {"T": {"type": "DT_FLOAT"}}}, {"name": "StatefulPartitionedCall/model_1/upsample_7/instance_normalization_27/batchnorm/mul_2", "op": "Mul", "input": ["StatefulPartitionedCall/model_1/upsample_7/instance_normalization_27/moments/mean", "StatefulPartitionedCall/model_1/upsample_7/instance_normalization_27/batchnorm/mul"], "attr": {"T": {"type": "DT_FLOAT"}}}, {"name": "StatefulPartitionedCall/model_1/upsample_7/instance_normalization_27/batchnorm/mul_1", "op": "Mul", "input": ["StatefulPartitionedCall/model_1/upsample_7/conv2d_transpose_14/conv2d_transpose", "StatefulPartitionedCall/model_1/upsample_7/instance_normalization_27/batchnorm/mul"], "attr": {"T": {"type": "DT_FLOAT"}}}, {"name": "StatefulPartitionedCall/model_1/upsample_7/instance_normalization_27/batchnorm/sub", "op": "Sub", "input": ["StatefulPartitionedCall/model_1/upsample_7/instance_normalization_27/Reshape_1", "StatefulPartitionedCall/model_1/upsample_7/instance_normalization_27/batchnorm/mul_2"], "attr": {"T": {"type": "DT_FLOAT"}}}, {"name": "StatefulPartitionedCall/model_1/upsample_7/instance_normalization_27/batchnorm/add_1", "op": "AddV2", "input": ["StatefulPartitionedCall/model_1/upsample_7/instance_normalization_27/batchnorm/mul_1", "StatefulPartitionedCall/model_1/upsample_7/instance_normalization_27/batchnorm/sub"], "attr": {"T": {"type": "DT_FLOAT"}}}, {"name": "StatefulPartitionedCall/model_1/upsample_7/re_lu_29/Relu", "op": "Relu", "input": ["StatefulPartitionedCall/model_1/upsample_7/instance_normalization_27/batchnorm/add_1"], "attr": {"T": {"type": "DT_FLOAT"}}}, {"name": "StatefulPartitionedCall/model_1/concatenate_13/concat", "op": "ConcatV2", "input": ["StatefulPartitionedCall/model_1/upsample_7/re_lu_29/Relu", "StatefulPartitionedCall/model_1/downsample_1/re_lu_15/Relu", "StatefulPartitionedCall/model_1/concatenate_13/concat/axis"], "attr": {"N": {"i": "2"}, "Tidx": {"type": "DT_INT32"}, "T": {"type": "DT_FLOAT"}}}, {"name": "StatefulPartitionedCall/model_1/conv2d_transpose_15/Shape", "op": "Shape", "input": ["StatefulPartitionedCall/model_1/concatenate_13/concat"], "attr": {"T": {"type": "DT_FLOAT"}, "out_type": {"type": "DT_INT32"}}}, {"name": "StatefulPartitionedCall/model_1/conv2d_transpose_15/strided_slice", "op": "StridedSlice", "input": ["StatefulPartitionedCall/model_1/conv2d_transpose_15/Shape", "StatefulPartitionedCall/model_1/conv2d_transpose_15/strided_slice/stack", "StatefulPartitionedCall/model_1/conv2d_transpose_15/strided_slice/stack_1", "StatefulPartitionedCall/model_1/conv2d_transpose_15/strided_slice/stack_2"], "attr": {"end_mask": {"i": "0"}, "shrink_axis_mask": {"i": "1"}, "new_axis_mask": {"i": "0"}, "begin_mask": {"i": "0"}, "T": {"type": "DT_INT32"}, "Index": {"type": "DT_INT32"}, "ellipsis_mask": {"i": "0"}}}, {"name": "StatefulPartitionedCall/model_1/conv2d_transpose_15/stack", "op": "Pack", "input": ["StatefulPartitionedCall/model_1/conv2d_transpose_15/strided_slice", "StatefulPartitionedCall/model_1/conv2d_transpose_15/stack/1", "StatefulPartitionedCall/model_1/conv2d_transpose_15/stack/2", "StatefulPartitionedCall/model_1/conv2d_transpose_15/stack/3"], "attr": {"T": {"type": "DT_INT32"}, "axis": {"i": "0"}, "N": {"i": "4"}}}, {"name": "StatefulPartitionedCall/model_1/conv2d_transpose_15/conv2d_transpose", "op": "Conv2DBackpropInput", "input": ["StatefulPartitionedCall/model_1/conv2d_transpose_15/stack", "StatefulPartitionedCall/model_1/conv2d_transpose_15/conv2d_transpose/ReadVariableOp", "StatefulPartitionedCall/model_1/concatenate_13/concat"], "attr": {"use_cudnn_on_gpu": {"b": true}, "dilations": {"list": {"i": ["1", "1", "1", "1"]}}, "strides": {"list": {"i": ["1", "2", "2", "1"]}}, "padding": {"s": "U0FNRQ=="}, "T": {"type": "DT_FLOAT"}, "data_format": {"s": "TkhXQw=="}, "explicit_paddings": {"list": {}}}}, {"name": "StatefulPartitionedCall/model_1/conv2d_transpose_15/BiasAdd", "op": "BiasAdd", "input": ["StatefulPartitionedCall/model_1/conv2d_transpose_15/conv2d_transpose", "StatefulPartitionedCall/model_1/conv2d_transpose_15/BiasAdd/ReadVariableOp"], "attr": {"data_format": {"s": "TkhXQw=="}, "T": {"type": "DT_FLOAT"}}}, {"name": "StatefulPartitionedCall/model_1/conv2d_transpose_15/Tanh", "op": "Tanh", "input": ["StatefulPartitionedCall/model_1/conv2d_transpose_15/BiasAdd"], "attr": {"T": {"type": "DT_FLOAT"}}}, {"name": "Identity", "op": "Identity", "input": ["StatefulPartitionedCall/model_1/conv2d_transpose_15/Tanh"], "attr": {"T": {"type": "DT_FLOAT"}}}], "library": {}, "versions": {"producer": 1205}}, "weightsManifest": [{"paths": ["group1-shard1of52.bin", "group1-shard2of52.bin", "group1-shard3of52.bin", "group1-shard4of52.bin", "group1-shard5of52.bin", "group1-shard6of52.bin", "group1-shard7of52.bin", "group1-shard8of52.bin", "group1-shard9of52.bin", "group1-shard10of52.bin", "group1-shard11of52.bin", "group1-shard12of52.bin", "group1-shard13of52.bin", "group1-shard14of52.bin", "group1-shard15of52.bin", "group1-shard16of52.bin", "group1-shard17of52.bin", "group1-shard18of52.bin", "group1-shard19of52.bin", "group1-shard20of52.bin", "group1-shard21of52.bin", "group1-shard22of52.bin", "group1-shard23of52.bin", "group1-shard24of52.bin", "group1-shard25of52.bin", "group1-shard26of52.bin", "group1-shard27of52.bin", "group1-shard28of52.bin", "group1-shard29of52.bin", "group1-shard30of52.bin", "group1-shard31of52.bin", "group1-shard32of52.bin", "group1-shard33of52.bin", "group1-shard34of52.bin", "group1-shard35of52.bin", "group1-shard36of52.bin", "group1-shard37of52.bin", "group1-shard38of52.bin", "group1-shard39of52.bin", "group1-shard40of52.bin", "group1-shard41of52.bin", "group1-shard42of52.bin", "group1-shard43of52.bin", "group1-shard44of52.bin", "group1-shard45of52.bin", "group1-shard46of52.bin", "group1-shard47of52.bin", "group1-shard48of52.bin", "group1-shard49of52.bin", "group1-shard50of52.bin", "group1-shard51of52.bin", "group1-shard52of52.bin"], "weights": [{"name": "StatefulPartitionedCall/model_1/conv2d_transpose_15/strided_slice/stack", "shape": [1], "dtype": "int32"}, {"name": "StatefulPartitionedCall/model_1/conv2d_transpose_15/strided_slice/stack_1", "shape": [1], "dtype": "int32"}, {"name": "StatefulPartitionedCall/model_1/conv2d_transpose_15/strided_slice/stack_2", "shape": [1], "dtype": "int32"}, {"name": "StatefulPartitionedCall/model_1/conv2d_transpose_15/stack/1", "shape": [], "dtype": "int32"}, {"name": "StatefulPartitionedCall/model_1/conv2d_transpose_15/stack/2", "shape": [], "dtype": "int32"}, {"name": "StatefulPartitionedCall/model_1/conv2d_transpose_15/stack/3", "shape": [], "dtype": "int32"}, {"name": "StatefulPartitionedCall/model_1/conv2d_transpose_15/conv2d_transpose/ReadVariableOp", "shape": [4, 4, 3, 128], "dtype": "float32"}, {"name": "StatefulPartitionedCall/model_1/upsample_7/instance_normalization_27/Reshape_1", "shape": [1, 1, 1, 64], "dtype": "float32"}, {"name": "StatefulPartitionedCall/model_1/upsample_7/conv2d_transpose_14/strided_slice/stack", "shape": [1], "dtype": "int32"}, {"name": "StatefulPartitionedCall/model_1/upsample_7/conv2d_transpose_14/strided_slice/stack_1", "shape": [1], "dtype": "int32"}, {"name": "StatefulPartitionedCall/model_1/upsample_7/conv2d_transpose_14/strided_slice/stack_2", "shape": [1], "dtype": "int32"}, {"name": "StatefulPartitionedCall/model_1/upsample_7/conv2d_transpose_14/stack/1", "shape": [], "dtype": "int32"}, {"name": "StatefulPartitionedCall/model_1/upsample_7/conv2d_transpose_14/stack/2", "shape": [], "dtype": "int32"}, {"name": "StatefulPartitionedCall/model_1/upsample_7/conv2d_transpose_14/stack/3", "shape": [], "dtype": "int32"}, {"name": "StatefulPartitionedCall/model_1/upsample_7/conv2d_transpose_14/conv2d_transpose/ReadVariableOp", "shape": [4, 4, 64, 256], "dtype": "float32"}, {"name": "StatefulPartitionedCall/model_1/upsample_6/instance_normalization_26/Reshape_1", "shape": [1, 1, 1, 128], "dtype": "float32"}, {"name": "StatefulPartitionedCall/model_1/upsample_6/conv2d_transpose_13/strided_slice/stack", "shape": [1], "dtype": "int32"}, {"name": "StatefulPartitionedCall/model_1/upsample_6/conv2d_transpose_13/strided_slice/stack_1", "shape": [1], "dtype": "int32"}, {"name": "StatefulPartitionedCall/model_1/upsample_6/conv2d_transpose_13/strided_slice/stack_2", "shape": [1], "dtype": "int32"}, {"name": "StatefulPartitionedCall/model_1/upsample_6/conv2d_transpose_13/stack/1", "shape": [], "dtype": "int32"}, {"name": "StatefulPartitionedCall/model_1/upsample_6/conv2d_transpose_13/stack/2", "shape": [], "dtype": "int32"}, {"name": "StatefulPartitionedCall/model_1/upsample_6/conv2d_transpose_13/stack/3", "shape": [], "dtype": "int32"}, {"name": "StatefulPartitionedCall/model_1/upsample_6/conv2d_transpose_13/conv2d_transpose/ReadVariableOp", "shape": [4, 4, 128, 512], "dtype": "float32"}, {"name": "StatefulPartitionedCall/model_1/upsample_5/instance_normalization_25/Reshape_1", "shape": [1, 1, 1, 256], "dtype": "float32"}, {"name": "StatefulPartitionedCall/model_1/upsample_5/conv2d_transpose_12/strided_slice/stack", "shape": [1], "dtype": "int32"}, {"name": "StatefulPartitionedCall/model_1/upsample_5/conv2d_transpose_12/strided_slice/stack_1", "shape": [1], "dtype": "int32"}, {"name": "StatefulPartitionedCall/model_1/upsample_5/conv2d_transpose_12/strided_slice/stack_2", "shape": [1], "dtype": "int32"}, {"name": "StatefulPartitionedCall/model_1/upsample_5/conv2d_transpose_12/stack/1", "shape": [], "dtype": "int32"}, {"name": "StatefulPartitionedCall/model_1/upsample_5/conv2d_transpose_12/stack/2", "shape": [], "dtype": "int32"}, {"name": "StatefulPartitionedCall/model_1/upsample_5/conv2d_transpose_12/stack/3", "shape": [], "dtype": "int32"}, {"name": "StatefulPartitionedCall/model_1/upsample_5/conv2d_transpose_12/conv2d_transpose/ReadVariableOp", "shape": [4, 4, 256, 1024], "dtype": "float32"}, {"name": "StatefulPartitionedCall/model_1/upsample_4/instance_normalization_24/Reshape_1", "shape": [1, 1, 1, 512], "dtype": "float32"}, {"name": "StatefulPartitionedCall/model_1/upsample_4/conv2d_transpose_11/strided_slice/stack", "shape": [1], "dtype": "int32"}, {"name": "StatefulPartitionedCall/model_1/upsample_4/conv2d_transpose_11/strided_slice/stack_1", "shape": [1], "dtype": "int32"}, {"name": "StatefulPartitionedCall/model_1/upsample_4/conv2d_transpose_11/strided_slice/stack_2", "shape": [1], "dtype": "int32"}, {"name": "StatefulPartitionedCall/model_1/upsample_4/conv2d_transpose_11/stack/1", "shape": [], "dtype": "int32"}, {"name": "StatefulPartitionedCall/model_1/upsample_4/conv2d_transpose_11/stack/2", "shape": [], "dtype": "int32"}, {"name": "StatefulPartitionedCall/model_1/upsample_4/conv2d_transpose_11/stack/3", "shape": [], "dtype": "int32"}, {"name": "StatefulPartitionedCall/model_1/upsample_4/conv2d_transpose_11/conv2d_transpose/ReadVariableOp", "shape": [4, 4, 512, 1024], "dtype": "float32"}, {"name": "StatefulPartitionedCall/model_1/upsample_3/instance_normalization_23/Reshape_1", "shape": [1, 1, 1, 512], "dtype": "float32"}, {"name": "StatefulPartitionedCall/model_1/upsample_3/conv2d_transpose_10/strided_slice/stack", "shape": [1], "dtype": "int32"}, {"name": "StatefulPartitionedCall/model_1/upsample_3/conv2d_transpose_10/strided_slice/stack_1", "shape": [1], "dtype": "int32"}, {"name": "StatefulPartitionedCall/model_1/upsample_3/conv2d_transpose_10/strided_slice/stack_2", "shape": [1], "dtype": "int32"}, {"name": "StatefulPartitionedCall/model_1/upsample_3/conv2d_transpose_10/stack/1", "shape": [], "dtype": "int32"}, {"name": "StatefulPartitionedCall/model_1/upsample_3/conv2d_transpose_10/stack/2", "shape": [], "dtype": "int32"}, {"name": "StatefulPartitionedCall/model_1/upsample_3/conv2d_transpose_10/stack/3", "shape": [], "dtype": "int32"}, {"name": "StatefulPartitionedCall/model_1/upsample_3/conv2d_transpose_10/conv2d_transpose/ReadVariableOp", "shape": [4, 4, 512, 1024], "dtype": "float32"}, {"name": "StatefulPartitionedCall/model_1/upsample_2/instance_normalization_22/Reshape_1", "shape": [1, 1, 1, 512], "dtype": "float32"}, {"name": "StatefulPartitionedCall/model_1/upsample_2/conv2d_transpose_9/strided_slice/stack", "shape": [1], "dtype": "int32"}, {"name": "StatefulPartitionedCall/model_1/upsample_2/conv2d_transpose_9/strided_slice/stack_1", "shape": [1], "dtype": "int32"}, {"name": "StatefulPartitionedCall/model_1/upsample_2/conv2d_transpose_9/strided_slice/stack_2", "shape": [1], "dtype": "int32"}, {"name": "StatefulPartitionedCall/model_1/upsample_2/conv2d_transpose_9/stack/1", "shape": [], "dtype": "int32"}, {"name": "StatefulPartitionedCall/model_1/upsample_2/conv2d_transpose_9/stack/2", "shape": [], "dtype": "int32"}, {"name": "StatefulPartitionedCall/model_1/upsample_2/conv2d_transpose_9/stack/3", "shape": [], "dtype": "int32"}, {"name": "StatefulPartitionedCall/model_1/upsample_2/conv2d_transpose_9/conv2d_transpose/ReadVariableOp", "shape": [4, 4, 512, 1024], "dtype": "float32"}, {"name": "StatefulPartitionedCall/model_1/upsample_1/conv2d_transpose_8/strided_slice/stack", "shape": [1], "dtype": "int32"}, {"name": "StatefulPartitionedCall/model_1/upsample_1/conv2d_transpose_8/strided_slice/stack_1", "shape": [1], "dtype": "int32"}, {"name": "StatefulPartitionedCall/model_1/upsample_1/conv2d_transpose_8/strided_slice/stack_2", "shape": [1], "dtype": "int32"}, {"name": "StatefulPartitionedCall/model_1/upsample_1/conv2d_transpose_8/stack/1", "shape": [], "dtype": "int32"}, {"name": "StatefulPartitionedCall/model_1/upsample_1/conv2d_transpose_8/stack/2", "shape": [], "dtype": "int32"}, {"name": "StatefulPartitionedCall/model_1/upsample_1/conv2d_transpose_8/stack/3", "shape": [], "dtype": "int32"}, {"name": "StatefulPartitionedCall/model_1/upsample_1/conv2d_transpose_8/conv2d_transpose/ReadVariableOp", "shape": [4, 4, 512, 512], "dtype": "float32"}, {"name": "StatefulPartitionedCall/model_1/downsample_8/conv2d_15/Conv2D/ReadVariableOp", "shape": [4, 4, 512, 512], "dtype": "float32"}, {"name": "StatefulPartitionedCall/model_1/downsample_8/instance_normalization_20/moments/mean/reduction_indices", "shape": [2], "dtype": "int32"}, {"name": "StatefulPartitionedCall/model_1/downsample_8/instance_normalization_20/moments/variance/reduction_indices", "shape": [2], "dtype": "int32"}, {"name": "StatefulPartitionedCall/model_1/downsample_8/instance_normalization_20/batchnorm/add/y", "shape": [], "dtype": "float32"}, {"name": "StatefulPartitionedCall/model_1/downsample_8/instance_normalization_20/Reshape", "shape": [1, 1, 1, 512], "dtype": "float32"}, {"name": "StatefulPartitionedCall/model_1/upsample_1/instance_normalization_21/moments/mean/reduction_indices", "shape": [2], "dtype": "int32"}, {"name": "StatefulPartitionedCall/model_1/upsample_1/instance_normalization_21/moments/variance/reduction_indices", "shape": [2], "dtype": "int32"}, {"name": "StatefulPartitionedCall/model_1/upsample_1/instance_normalization_21/batchnorm/add/y", "shape": [], "dtype": "float32"}, {"name": "StatefulPartitionedCall/model_1/upsample_1/instance_normalization_21/Reshape", "shape": [1, 1, 1, 512], "dtype": "float32"}, {"name": "StatefulPartitionedCall/model_1/downsample_7/instance_normalization_19/Reshape_1", "shape": [1, 1, 1, 512], "dtype": "float32"}, {"name": "StatefulPartitionedCall/model_1/downsample_7/conv2d_14/Conv2D/ReadVariableOp", "shape": [4, 4, 512, 512], "dtype": "float32"}, {"name": "StatefulPartitionedCall/model_1/downsample_7/instance_normalization_19/moments/mean/reduction_indices", "shape": [2], "dtype": "int32"}, {"name": "StatefulPartitionedCall/model_1/downsample_7/instance_normalization_19/moments/variance/reduction_indices", "shape": [2], "dtype": "int32"}, {"name": "StatefulPartitionedCall/model_1/downsample_7/instance_normalization_19/batchnorm/add/y", "shape": [], "dtype": "float32"}, {"name": "StatefulPartitionedCall/model_1/downsample_7/instance_normalization_19/Reshape", "shape": [1, 1, 1, 512], "dtype": "float32"}, {"name": "StatefulPartitionedCall/model_1/concatenate_7/concat/axis", "shape": [], "dtype": "int32"}, {"name": "StatefulPartitionedCall/model_1/upsample_2/instance_normalization_22/moments/mean/reduction_indices", "shape": [2], "dtype": "int32"}, {"name": "StatefulPartitionedCall/model_1/upsample_2/instance_normalization_22/moments/variance/reduction_indices", "shape": [2], "dtype": "int32"}, {"name": "StatefulPartitionedCall/model_1/upsample_2/instance_normalization_22/batchnorm/add/y", "shape": [], "dtype": "float32"}, {"name": "StatefulPartitionedCall/model_1/upsample_2/instance_normalization_22/Reshape", "shape": [1, 1, 1, 512], "dtype": "float32"}, {"name": "StatefulPartitionedCall/model_1/downsample_6/instance_normalization_18/Reshape_1", "shape": [1, 1, 1, 512], "dtype": "float32"}, {"name": "StatefulPartitionedCall/model_1/downsample_6/conv2d_13/Conv2D/ReadVariableOp", "shape": [4, 4, 512, 512], "dtype": "float32"}, {"name": "StatefulPartitionedCall/model_1/downsample_6/instance_normalization_18/moments/mean/reduction_indices", "shape": [2], "dtype": "int32"}, {"name": "StatefulPartitionedCall/model_1/downsample_6/instance_normalization_18/moments/variance/reduction_indices", "shape": [2], "dtype": "int32"}, {"name": "StatefulPartitionedCall/model_1/downsample_6/instance_normalization_18/batchnorm/add/y", "shape": [], "dtype": "float32"}, {"name": "StatefulPartitionedCall/model_1/downsample_6/instance_normalization_18/Reshape", "shape": [1, 1, 1, 512], "dtype": "float32"}, {"name": "StatefulPartitionedCall/model_1/concatenate_8/concat/axis", "shape": [], "dtype": "int32"}, {"name": "StatefulPartitionedCall/model_1/upsample_3/instance_normalization_23/moments/mean/reduction_indices", "shape": [2], "dtype": "int32"}, {"name": "StatefulPartitionedCall/model_1/upsample_3/instance_normalization_23/moments/variance/reduction_indices", "shape": [2], "dtype": "int32"}, {"name": "StatefulPartitionedCall/model_1/upsample_3/instance_normalization_23/batchnorm/add/y", "shape": [], "dtype": "float32"}, {"name": "StatefulPartitionedCall/model_1/upsample_3/instance_normalization_23/Reshape", "shape": [1, 1, 1, 512], "dtype": "float32"}, {"name": "StatefulPartitionedCall/model_1/downsample_5/instance_normalization_17/Reshape_1", "shape": [1, 1, 1, 512], "dtype": "float32"}, {"name": "StatefulPartitionedCall/model_1/downsample_5/conv2d_12/Conv2D/ReadVariableOp", "shape": [4, 4, 512, 512], "dtype": "float32"}, {"name": "StatefulPartitionedCall/model_1/downsample_5/instance_normalization_17/moments/mean/reduction_indices", "shape": [2], "dtype": "int32"}, {"name": "StatefulPartitionedCall/model_1/downsample_5/instance_normalization_17/moments/variance/reduction_indices", "shape": [2], "dtype": "int32"}, {"name": "StatefulPartitionedCall/model_1/downsample_5/instance_normalization_17/batchnorm/add/y", "shape": [], "dtype": "float32"}, {"name": "StatefulPartitionedCall/model_1/downsample_5/instance_normalization_17/Reshape", "shape": [1, 1, 1, 512], "dtype": "float32"}, {"name": "StatefulPartitionedCall/model_1/concatenate_9/concat/axis", "shape": [], "dtype": "int32"}, {"name": "StatefulPartitionedCall/model_1/upsample_4/instance_normalization_24/moments/mean/reduction_indices", "shape": [2], "dtype": "int32"}, {"name": "StatefulPartitionedCall/model_1/upsample_4/instance_normalization_24/moments/variance/reduction_indices", "shape": [2], "dtype": "int32"}, {"name": "StatefulPartitionedCall/model_1/upsample_4/instance_normalization_24/batchnorm/add/y", "shape": [], "dtype": "float32"}, {"name": "StatefulPartitionedCall/model_1/upsample_4/instance_normalization_24/Reshape", "shape": [1, 1, 1, 512], "dtype": "float32"}, {"name": "StatefulPartitionedCall/model_1/downsample_4/instance_normalization_16/Reshape_1", "shape": [1, 1, 1, 512], "dtype": "float32"}, {"name": "StatefulPartitionedCall/model_1/downsample_4/conv2d_11/Conv2D/ReadVariableOp", "shape": [4, 4, 256, 512], "dtype": "float32"}, {"name": "StatefulPartitionedCall/model_1/downsample_4/instance_normalization_16/moments/mean/reduction_indices", "shape": [2], "dtype": "int32"}, {"name": "StatefulPartitionedCall/model_1/downsample_4/instance_normalization_16/moments/variance/reduction_indices", "shape": [2], "dtype": "int32"}, {"name": "StatefulPartitionedCall/model_1/downsample_4/instance_normalization_16/batchnorm/add/y", "shape": [], "dtype": "float32"}, {"name": "StatefulPartitionedCall/model_1/downsample_4/instance_normalization_16/Reshape", "shape": [1, 1, 1, 512], "dtype": "float32"}, {"name": "StatefulPartitionedCall/model_1/concatenate_10/concat/axis", "shape": [], "dtype": "int32"}, {"name": "StatefulPartitionedCall/model_1/upsample_5/instance_normalization_25/moments/mean/reduction_indices", "shape": [2], "dtype": "int32"}, {"name": "StatefulPartitionedCall/model_1/upsample_5/instance_normalization_25/moments/variance/reduction_indices", "shape": [2], "dtype": "int32"}, {"name": "StatefulPartitionedCall/model_1/upsample_5/instance_normalization_25/batchnorm/add/y", "shape": [], "dtype": "float32"}, {"name": "StatefulPartitionedCall/model_1/upsample_5/instance_normalization_25/Reshape", "shape": [1, 1, 1, 256], "dtype": "float32"}, {"name": "StatefulPartitionedCall/model_1/downsample_3/instance_normalization_15/Reshape_1", "shape": [1, 1, 1, 256], "dtype": "float32"}, {"name": "StatefulPartitionedCall/model_1/downsample_3/conv2d_10/Conv2D/ReadVariableOp", "shape": [4, 4, 128, 256], "dtype": "float32"}, {"name": "StatefulPartitionedCall/model_1/downsample_3/instance_normalization_15/moments/mean/reduction_indices", "shape": [2], "dtype": "int32"}, {"name": "StatefulPartitionedCall/model_1/downsample_3/instance_normalization_15/moments/variance/reduction_indices", "shape": [2], "dtype": "int32"}, {"name": "StatefulPartitionedCall/model_1/downsample_3/instance_normalization_15/batchnorm/add/y", "shape": [], "dtype": "float32"}, {"name": "StatefulPartitionedCall/model_1/downsample_3/instance_normalization_15/Reshape", "shape": [1, 1, 1, 256], "dtype": "float32"}, {"name": "StatefulPartitionedCall/model_1/concatenate_11/concat/axis", "shape": [], "dtype": "int32"}, {"name": "StatefulPartitionedCall/model_1/upsample_6/instance_normalization_26/moments/mean/reduction_indices", "shape": [2], "dtype": "int32"}, {"name": "StatefulPartitionedCall/model_1/upsample_6/instance_normalization_26/moments/variance/reduction_indices", "shape": [2], "dtype": "int32"}, {"name": "StatefulPartitionedCall/model_1/upsample_6/instance_normalization_26/batchnorm/add/y", "shape": [], "dtype": "float32"}, {"name": "StatefulPartitionedCall/model_1/upsample_6/instance_normalization_26/Reshape", "shape": [1, 1, 1, 128], "dtype": "float32"}, {"name": "StatefulPartitionedCall/model_1/downsample_2/instance_normalization_14/Reshape_1", "shape": [1, 1, 1, 128], "dtype": "float32"}, {"name": "StatefulPartitionedCall/model_1/downsample_2/conv2d_9/Conv2D/ReadVariableOp", "shape": [4, 4, 64, 128], "dtype": "float32"}, {"name": "StatefulPartitionedCall/model_1/downsample_2/instance_normalization_14/moments/mean/reduction_indices", "shape": [2], "dtype": "int32"}, {"name": "StatefulPartitionedCall/model_1/downsample_2/instance_normalization_14/moments/variance/reduction_indices", "shape": [2], "dtype": "int32"}, {"name": "StatefulPartitionedCall/model_1/downsample_2/instance_normalization_14/batchnorm/add/y", "shape": [], "dtype": "float32"}, {"name": "StatefulPartitionedCall/model_1/downsample_2/instance_normalization_14/Reshape", "shape": [1, 1, 1, 128], "dtype": "float32"}, {"name": "StatefulPartitionedCall/model_1/concatenate_12/concat/axis", "shape": [], "dtype": "int32"}, {"name": "StatefulPartitionedCall/model_1/upsample_7/instance_normalization_27/moments/mean/reduction_indices", "shape": [2], "dtype": "int32"}, {"name": "StatefulPartitionedCall/model_1/upsample_7/instance_normalization_27/moments/variance/reduction_indices", "shape": [2], "dtype": "int32"}, {"name": "StatefulPartitionedCall/model_1/upsample_7/instance_normalization_27/batchnorm/add/y", "shape": [], "dtype": "float32"}, {"name": "StatefulPartitionedCall/model_1/upsample_7/instance_normalization_27/Reshape", "shape": [1, 1, 1, 64], "dtype": "float32"}, {"name": "StatefulPartitionedCall/model_1/downsample_1/conv2d_8/Conv2D/ReadVariableOp", "shape": [4, 4, 3, 64], "dtype": "float32"}, {"name": "StatefulPartitionedCall/model_1/concatenate_13/concat/axis", "shape": [], "dtype": "int32"}, {"name": "StatefulPartitionedCall/model_1/conv2d_transpose_15/BiasAdd/ReadVariableOp", "shape": [3], "dtype": "float32"}]}]}