{"format": "graph-model", "generatedBy": "2.10.0", "convertedBy": "TensorFlow.js Converter v4.2.0", "signature": {"inputs": {"input_1": {"name": "input_1:0", "dtype": "DT_FLOAT", "tensorShape": {"dim": [{"size": "-1"}, {"size": "256"}, {"size": "256"}, {"size": "3"}]}}}, "outputs": {"conv2d_transpose_7": {"name": "Identity:0", "dtype": "DT_FLOAT", "tensorShape": {"dim": [{"size": "-1"}, {"size": "256"}, {"size": "256"}, {"size": "3"}]}}}}, "modelTopology": {"node": [{"name": "StatefulPartitionedCall/model/conv2d_transpose_7/strided_slice/stack", "op": "Const", "attr": {"dtype": {"type": "DT_INT32"}, "value": {"tensor": {"dtype": "DT_INT32", "tensorShape": {"dim": [{"size": "1"}]}}}}}, {"name": "StatefulPartitionedCall/model/conv2d_transpose_7/strided_slice/stack_1", "op": "Const", "attr": {"value": {"tensor": {"dtype": "DT_INT32", "tensorShape": {"dim": [{"size": "1"}]}}}, "dtype": {"type": "DT_INT32"}}}, {"name": "StatefulPartitionedCall/model/conv2d_transpose_7/strided_slice/stack_2", "op": "Const", "attr": {"dtype": {"type": "DT_INT32"}, "value": {"tensor": {"dtype": "DT_INT32", "tensorShape": {"dim": [{"size": "1"}]}}}}}, {"name": "StatefulPartitionedCall/model/conv2d_transpose_7/stack/1", "op": "Const", "attr": {"dtype": {"type": "DT_INT32"}, "value": {"tensor": {"dtype": "DT_INT32", "tensorShape": {}}}}}, {"name": "StatefulPartitionedCall/model/conv2d_transpose_7/stack/2", "op": "Const", "attr": {"value": {"tensor": {"dtype": "DT_INT32", "tensorShape": {}}}, "dtype": {"type": "DT_INT32"}}}, {"name": "StatefulPartitionedCall/model/conv2d_transpose_7/stack/3", "op": "Const", "attr": {"dtype": {"type": "DT_INT32"}, "value": {"tensor": {"dtype": "DT_INT32", "tensorShape": {}}}}}, {"name": "StatefulPartitionedCall/model/conv2d_transpose_7/conv2d_transpose/ReadVariableOp", "op": "Const", "attr": {"value": {"tensor": {"dtype": "DT_FLOAT", "tensorShape": {"dim": [{"size": "4"}, {"size": "4"}, {"size": "3"}, {"size": "128"}]}}}, "dtype": {"type": "DT_FLOAT"}}}, {"name": "StatefulPartitionedCall/model/upsample_7/instance_normalization_13/Reshape_1", "op": "Const", "attr": {"value": {"tensor": {"dtype": "DT_FLOAT", "tensorShape": {"dim": [{"size": "1"}, {"size": "1"}, {"size": "1"}, {"size": "64"}]}}}, "dtype": {"type": "DT_FLOAT"}}}, {"name": "StatefulPartitionedCall/model/upsample_7/conv2d_transpose_6/strided_slice/stack", "op": "Const", "attr": {"value": {"tensor": {"dtype": "DT_INT32", "tensorShape": {"dim": [{"size": "1"}]}}}, "dtype": {"type": "DT_INT32"}}}, {"name": "StatefulPartitionedCall/model/upsample_7/conv2d_transpose_6/strided_slice/stack_1", "op": "Const", "attr": {"dtype": {"type": "DT_INT32"}, "value": {"tensor": {"dtype": "DT_INT32", "tensorShape": {"dim": [{"size": "1"}]}}}}}, {"name": "StatefulPartitionedCall/model/upsample_7/conv2d_transpose_6/strided_slice/stack_2", "op": "Const", "attr": {"value": {"tensor": {"dtype": "DT_INT32", "tensorShape": {"dim": [{"size": "1"}]}}}, "dtype": {"type": "DT_INT32"}}}, {"name": "StatefulPartitionedCall/model/upsample_7/conv2d_transpose_6/stack/1", "op": "Const", "attr": {"value": {"tensor": {"dtype": "DT_INT32", "tensorShape": {}}}, "dtype": {"type": "DT_INT32"}}}, {"name": "StatefulPartitionedCall/model/upsample_7/conv2d_transpose_6/stack/2", "op": "Const", "attr": {"value": {"tensor": {"dtype": "DT_INT32", "tensorShape": {}}}, "dtype": {"type": "DT_INT32"}}}, {"name": "StatefulPartitionedCall/model/upsample_7/conv2d_transpose_6/stack/3", "op": "Const", "attr": {"value": {"tensor": {"dtype": "DT_INT32", "tensorShape": {}}}, "dtype": {"type": "DT_INT32"}}}, {"name": "StatefulPartitionedCall/model/upsample_7/conv2d_transpose_6/conv2d_transpose/ReadVariableOp", "op": "Const", "attr": {"value": {"tensor": {"dtype": "DT_FLOAT", "tensorShape": {"dim": [{"size": "4"}, {"size": "4"}, {"size": "64"}, {"size": "256"}]}}}, "dtype": {"type": "DT_FLOAT"}}}, {"name": "StatefulPartitionedCall/model/upsample_6/instance_normalization_12/Reshape_1", "op": "Const", "attr": {"dtype": {"type": "DT_FLOAT"}, "value": {"tensor": {"dtype": "DT_FLOAT", "tensorShape": {"dim": [{"size": "1"}, {"size": "1"}, {"size": "1"}, {"size": "128"}]}}}}}, {"name": "StatefulPartitionedCall/model/upsample_6/conv2d_transpose_5/strided_slice/stack", "op": "Const", "attr": {"value": {"tensor": {"dtype": "DT_INT32", "tensorShape": {"dim": [{"size": "1"}]}}}, "dtype": {"type": "DT_INT32"}}}, {"name": "StatefulPartitionedCall/model/upsample_6/conv2d_transpose_5/strided_slice/stack_1", "op": "Const", "attr": {"dtype": {"type": "DT_INT32"}, "value": {"tensor": {"dtype": "DT_INT32", "tensorShape": {"dim": [{"size": "1"}]}}}}}, {"name": "StatefulPartitionedCall/model/upsample_6/conv2d_transpose_5/strided_slice/stack_2", "op": "Const", "attr": {"dtype": {"type": "DT_INT32"}, "value": {"tensor": {"dtype": "DT_INT32", "tensorShape": {"dim": [{"size": "1"}]}}}}}, {"name": "StatefulPartitionedCall/model/upsample_6/conv2d_transpose_5/stack/1", "op": "Const", "attr": {"value": {"tensor": {"dtype": "DT_INT32", "tensorShape": {}}}, "dtype": {"type": "DT_INT32"}}}, {"name": "StatefulPartitionedCall/model/upsample_6/conv2d_transpose_5/stack/2", "op": "Const", "attr": {"value": {"tensor": {"dtype": "DT_INT32", "tensorShape": {}}}, "dtype": {"type": "DT_INT32"}}}, {"name": "StatefulPartitionedCall/model/upsample_6/conv2d_transpose_5/stack/3", "op": "Const", "attr": {"value": {"tensor": {"dtype": "DT_INT32", "tensorShape": {}}}, "dtype": {"type": "DT_INT32"}}}, {"name": "StatefulPartitionedCall/model/upsample_6/conv2d_transpose_5/conv2d_transpose/ReadVariableOp", "op": "Const", "attr": {"dtype": {"type": "DT_FLOAT"}, "value": {"tensor": {"dtype": "DT_FLOAT", "tensorShape": {"dim": [{"size": "4"}, {"size": "4"}, {"size": "128"}, {"size": "512"}]}}}}}, {"name": "StatefulPartitionedCall/model/upsample_5/instance_normalization_11/Reshape_1", "op": "Const", "attr": {"value": {"tensor": {"dtype": "DT_FLOAT", "tensorShape": {"dim": [{"size": "1"}, {"size": "1"}, {"size": "1"}, {"size": "256"}]}}}, "dtype": {"type": "DT_FLOAT"}}}, {"name": "StatefulPartitionedCall/model/upsample_5/conv2d_transpose_4/strided_slice/stack", "op": "Const", "attr": {"value": {"tensor": {"dtype": "DT_INT32", "tensorShape": {"dim": [{"size": "1"}]}}}, "dtype": {"type": "DT_INT32"}}}, {"name": "StatefulPartitionedCall/model/upsample_5/conv2d_transpose_4/strided_slice/stack_1", "op": "Const", "attr": {"value": {"tensor": {"dtype": "DT_INT32", "tensorShape": {"dim": [{"size": "1"}]}}}, "dtype": {"type": "DT_INT32"}}}, {"name": "StatefulPartitionedCall/model/upsample_5/conv2d_transpose_4/strided_slice/stack_2", "op": "Const", "attr": {"value": {"tensor": {"dtype": "DT_INT32", "tensorShape": {"dim": [{"size": "1"}]}}}, "dtype": {"type": "DT_INT32"}}}, {"name": "StatefulPartitionedCall/model/upsample_5/conv2d_transpose_4/stack/1", "op": "Const", "attr": {"dtype": {"type": "DT_INT32"}, "value": {"tensor": {"dtype": "DT_INT32", "tensorShape": {}}}}}, {"name": "StatefulPartitionedCall/model/upsample_5/conv2d_transpose_4/stack/2", "op": "Const", "attr": {"dtype": {"type": "DT_INT32"}, "value": {"tensor": {"dtype": "DT_INT32", "tensorShape": {}}}}}, {"name": "StatefulPartitionedCall/model/upsample_5/conv2d_transpose_4/stack/3", "op": "Const", "attr": {"dtype": {"type": "DT_INT32"}, "value": {"tensor": {"dtype": "DT_INT32", "tensorShape": {}}}}}, {"name": "StatefulPartitionedCall/model/upsample_5/conv2d_transpose_4/conv2d_transpose/ReadVariableOp", "op": "Const", "attr": {"value": {"tensor": {"dtype": "DT_FLOAT", "tensorShape": {"dim": [{"size": "4"}, {"size": "4"}, {"size": "256"}, {"size": "1024"}]}}}, "dtype": {"type": "DT_FLOAT"}}}, {"name": "StatefulPartitionedCall/model/upsample_4/instance_normalization_10/Reshape_1", "op": "Const", "attr": {"dtype": {"type": "DT_FLOAT"}, "value": {"tensor": {"dtype": "DT_FLOAT", "tensorShape": {"dim": [{"size": "1"}, {"size": "1"}, {"size": "1"}, {"size": "512"}]}}}}}, {"name": "StatefulPartitionedCall/model/upsample_4/conv2d_transpose_3/strided_slice/stack", "op": "Const", "attr": {"dtype": {"type": "DT_INT32"}, "value": {"tensor": {"dtype": "DT_INT32", "tensorShape": {"dim": [{"size": "1"}]}}}}}, {"name": "StatefulPartitionedCall/model/upsample_4/conv2d_transpose_3/strided_slice/stack_1", "op": "Const", "attr": {"value": {"tensor": {"dtype": "DT_INT32", "tensorShape": {"dim": [{"size": "1"}]}}}, "dtype": {"type": "DT_INT32"}}}, {"name": "StatefulPartitionedCall/model/upsample_4/conv2d_transpose_3/strided_slice/stack_2", "op": "Const", "attr": {"dtype": {"type": "DT_INT32"}, "value": {"tensor": {"dtype": "DT_INT32", "tensorShape": {"dim": [{"size": "1"}]}}}}}, {"name": "StatefulPartitionedCall/model/upsample_4/conv2d_transpose_3/stack/1", "op": "Const", "attr": {"dtype": {"type": "DT_INT32"}, "value": {"tensor": {"dtype": "DT_INT32", "tensorShape": {}}}}}, {"name": "StatefulPartitionedCall/model/upsample_4/conv2d_transpose_3/stack/2", "op": "Const", "attr": {"dtype": {"type": "DT_INT32"}, "value": {"tensor": {"dtype": "DT_INT32", "tensorShape": {}}}}}, {"name": "StatefulPartitionedCall/model/upsample_4/conv2d_transpose_3/stack/3", "op": "Const", "attr": {"dtype": {"type": "DT_INT32"}, "value": {"tensor": {"dtype": "DT_INT32", "tensorShape": {}}}}}, {"name": "StatefulPartitionedCall/model/upsample_4/conv2d_transpose_3/conv2d_transpose/ReadVariableOp", "op": "Const", "attr": {"dtype": {"type": "DT_FLOAT"}, "value": {"tensor": {"dtype": "DT_FLOAT", "tensorShape": {"dim": [{"size": "4"}, {"size": "4"}, {"size": "512"}, {"size": "1024"}]}}}}}, {"name": "StatefulPartitionedCall/model/upsample_3/instance_normalization_9/Reshape_1", "op": "Const", "attr": {"value": {"tensor": {"dtype": "DT_FLOAT", "tensorShape": {"dim": [{"size": "1"}, {"size": "1"}, {"size": "1"}, {"size": "512"}]}}}, "dtype": {"type": "DT_FLOAT"}}}, {"name": "StatefulPartitionedCall/model/upsample_3/conv2d_transpose_2/strided_slice/stack", "op": "Const", "attr": {"dtype": {"type": "DT_INT32"}, "value": {"tensor": {"dtype": "DT_INT32", "tensorShape": {"dim": [{"size": "1"}]}}}}}, {"name": "StatefulPartitionedCall/model/upsample_3/conv2d_transpose_2/strided_slice/stack_1", "op": "Const", "attr": {"dtype": {"type": "DT_INT32"}, "value": {"tensor": {"dtype": "DT_INT32", "tensorShape": {"dim": [{"size": "1"}]}}}}}, {"name": "StatefulPartitionedCall/model/upsample_3/conv2d_transpose_2/strided_slice/stack_2", "op": "Const", "attr": {"dtype": {"type": "DT_INT32"}, "value": {"tensor": {"dtype": "DT_INT32", "tensorShape": {"dim": [{"size": "1"}]}}}}}, {"name": "StatefulPartitionedCall/model/upsample_3/conv2d_transpose_2/stack/1", "op": "Const", "attr": {"value": {"tensor": {"dtype": "DT_INT32", "tensorShape": {}}}, "dtype": {"type": "DT_INT32"}}}, {"name": "StatefulPartitionedCall/model/upsample_3/conv2d_transpose_2/stack/2", "op": "Const", "attr": {"dtype": {"type": "DT_INT32"}, "value": {"tensor": {"dtype": "DT_INT32", "tensorShape": {}}}}}, {"name": "StatefulPartitionedCall/model/upsample_3/conv2d_transpose_2/stack/3", "op": "Const", "attr": {"dtype": {"type": "DT_INT32"}, "value": {"tensor": {"dtype": "DT_INT32", "tensorShape": {}}}}}, {"name": "StatefulPartitionedCall/model/upsample_3/conv2d_transpose_2/conv2d_transpose/ReadVariableOp", "op": "Const", "attr": {"value": {"tensor": {"dtype": "DT_FLOAT", "tensorShape": {"dim": [{"size": "4"}, {"size": "4"}, {"size": "512"}, {"size": "1024"}]}}}, "dtype": {"type": "DT_FLOAT"}}}, {"name": "StatefulPartitionedCall/model/upsample_2/instance_normalization_8/Reshape_1", "op": "Const", "attr": {"value": {"tensor": {"dtype": "DT_FLOAT", "tensorShape": {"dim": [{"size": "1"}, {"size": "1"}, {"size": "1"}, {"size": "512"}]}}}, "dtype": {"type": "DT_FLOAT"}}}, {"name": "StatefulPartitionedCall/model/upsample_2/conv2d_transpose_1/strided_slice/stack", "op": "Const", "attr": {"dtype": {"type": "DT_INT32"}, "value": {"tensor": {"dtype": "DT_INT32", "tensorShape": {"dim": [{"size": "1"}]}}}}}, {"name": "StatefulPartitionedCall/model/upsample_2/conv2d_transpose_1/strided_slice/stack_1", "op": "Const", "attr": {"dtype": {"type": "DT_INT32"}, "value": {"tensor": {"dtype": "DT_INT32", "tensorShape": {"dim": [{"size": "1"}]}}}}}, {"name": "StatefulPartitionedCall/model/upsample_2/conv2d_transpose_1/strided_slice/stack_2", "op": "Const", "attr": {"value": {"tensor": {"dtype": "DT_INT32", "tensorShape": {"dim": [{"size": "1"}]}}}, "dtype": {"type": "DT_INT32"}}}, {"name": "StatefulPartitionedCall/model/upsample_2/conv2d_transpose_1/stack/1", "op": "Const", "attr": {"value": {"tensor": {"dtype": "DT_INT32", "tensorShape": {}}}, "dtype": {"type": "DT_INT32"}}}, {"name": "StatefulPartitionedCall/model/upsample_2/conv2d_transpose_1/stack/2", "op": "Const", "attr": {"value": {"tensor": {"dtype": "DT_INT32", "tensorShape": {}}}, "dtype": {"type": "DT_INT32"}}}, {"name": "StatefulPartitionedCall/model/upsample_2/conv2d_transpose_1/stack/3", "op": "Const", "attr": {"dtype": {"type": "DT_INT32"}, "value": {"tensor": {"dtype": "DT_INT32", "tensorShape": {}}}}}, {"name": "StatefulPartitionedCall/model/upsample_2/conv2d_transpose_1/conv2d_transpose/ReadVariableOp", "op": "Const", "attr": {"value": {"tensor": {"dtype": "DT_FLOAT", "tensorShape": {"dim": [{"size": "4"}, {"size": "4"}, {"size": "512"}, {"size": "1024"}]}}}, "dtype": {"type": "DT_FLOAT"}}}, {"name": "StatefulPartitionedCall/model/upsample_1/conv2d_transpose/strided_slice/stack", "op": "Const", "attr": {"dtype": {"type": "DT_INT32"}, "value": {"tensor": {"dtype": "DT_INT32", "tensorShape": {"dim": [{"size": "1"}]}}}}}, {"name": "StatefulPartitionedCall/model/upsample_1/conv2d_transpose/strided_slice/stack_1", "op": "Const", "attr": {"value": {"tensor": {"dtype": "DT_INT32", "tensorShape": {"dim": [{"size": "1"}]}}}, "dtype": {"type": "DT_INT32"}}}, {"name": "StatefulPartitionedCall/model/upsample_1/conv2d_transpose/strided_slice/stack_2", "op": "Const", "attr": {"dtype": {"type": "DT_INT32"}, "value": {"tensor": {"dtype": "DT_INT32", "tensorShape": {"dim": [{"size": "1"}]}}}}}, {"name": "StatefulPartitionedCall/model/upsample_1/conv2d_transpose/stack/1", "op": "Const", "attr": {"value": {"tensor": {"dtype": "DT_INT32", "tensorShape": {}}}, "dtype": {"type": "DT_INT32"}}}, {"name": "StatefulPartitionedCall/model/upsample_1/conv2d_transpose/stack/2", "op": "Const", "attr": {"value": {"tensor": {"dtype": "DT_INT32", "tensorShape": {}}}, "dtype": {"type": "DT_INT32"}}}, {"name": "StatefulPartitionedCall/model/upsample_1/conv2d_transpose/stack/3", "op": "Const", "attr": {"dtype": {"type": "DT_INT32"}, "value": {"tensor": {"dtype": "DT_INT32", "tensorShape": {}}}}}, {"name": "StatefulPartitionedCall/model/upsample_1/conv2d_transpose/conv2d_transpose/ReadVariableOp", "op": "Const", "attr": {"dtype": {"type": "DT_FLOAT"}, "value": {"tensor": {"dtype": "DT_FLOAT", "tensorShape": {"dim": [{"size": "4"}, {"size": "4"}, {"size": "512"}, {"size": "512"}]}}}}}, {"name": "StatefulPartitionedCall/model/downsample_8/conv2d_7/Conv2D/ReadVariableOp", "op": "Const", "attr": {"dtype": {"type": "DT_FLOAT"}, "value": {"tensor": {"dtype": "DT_FLOAT", "tensorShape": {"dim": [{"size": "4"}, {"size": "4"}, {"size": "512"}, {"size": "512"}]}}}}}, {"name": "StatefulPartitionedCall/model/downsample_8/instance_normalization_6/moments/mean/reduction_indices", "op": "Const", "attr": {"value": {"tensor": {"dtype": "DT_INT32", "tensorShape": {"dim": [{"size": "2"}]}}}, "dtype": {"type": "DT_INT32"}}}, {"name": "StatefulPartitionedCall/model/downsample_8/instance_normalization_6/moments/variance/reduction_indices", "op": "Const", "attr": {"value": {"tensor": {"dtype": "DT_INT32", "tensorShape": {"dim": [{"size": "2"}]}}}, "dtype": {"type": "DT_INT32"}}}, {"name": "StatefulPartitionedCall/model/downsample_8/instance_normalization_6/batchnorm/add/y", "op": "Const", "attr": {"dtype": {"type": "DT_FLOAT"}, "value": {"tensor": {"dtype": "DT_FLOAT", "tensorShape": {}}}}}, {"name": "StatefulPartitionedCall/model/downsample_8/instance_normalization_6/Reshape", "op": "Const", "attr": {"value": {"tensor": {"dtype": "DT_FLOAT", "tensorShape": {"dim": [{"size": "1"}, {"size": "1"}, {"size": "1"}, {"size": "512"}]}}}, "dtype": {"type": "DT_FLOAT"}}}, {"name": "StatefulPartitionedCall/model/upsample_1/instance_normalization_7/moments/mean/reduction_indices", "op": "Const", "attr": {"value": {"tensor": {"dtype": "DT_INT32", "tensorShape": {"dim": [{"size": "2"}]}}}, "dtype": {"type": "DT_INT32"}}}, {"name": "StatefulPartitionedCall/model/upsample_1/instance_normalization_7/moments/variance/reduction_indices", "op": "Const", "attr": {"value": {"tensor": {"dtype": "DT_INT32", "tensorShape": {"dim": [{"size": "2"}]}}}, "dtype": {"type": "DT_INT32"}}}, {"name": "StatefulPartitionedCall/model/upsample_1/instance_normalization_7/batchnorm/add/y", "op": "Const", "attr": {"value": {"tensor": {"dtype": "DT_FLOAT", "tensorShape": {}}}, "dtype": {"type": "DT_FLOAT"}}}, {"name": "StatefulPartitionedCall/model/upsample_1/instance_normalization_7/Reshape", "op": "Const", "attr": {"value": {"tensor": {"dtype": "DT_FLOAT", "tensorShape": {"dim": [{"size": "1"}, {"size": "1"}, {"size": "1"}, {"size": "512"}]}}}, "dtype": {"type": "DT_FLOAT"}}}, {"name": "StatefulPartitionedCall/model/downsample_7/instance_normalization_5/Reshape_1", "op": "Const", "attr": {"dtype": {"type": "DT_FLOAT"}, "value": {"tensor": {"dtype": "DT_FLOAT", "tensorShape": {"dim": [{"size": "1"}, {"size": "1"}, {"size": "1"}, {"size": "512"}]}}}}}, {"name": "StatefulPartitionedCall/model/downsample_7/conv2d_6/Conv2D/ReadVariableOp", "op": "Const", "attr": {"value": {"tensor": {"dtype": "DT_FLOAT", "tensorShape": {"dim": [{"size": "4"}, {"size": "4"}, {"size": "512"}, {"size": "512"}]}}}, "dtype": {"type": "DT_FLOAT"}}}, {"name": "StatefulPartitionedCall/model/downsample_7/instance_normalization_5/moments/mean/reduction_indices", "op": "Const", "attr": {"dtype": {"type": "DT_INT32"}, "value": {"tensor": {"dtype": "DT_INT32", "tensorShape": {"dim": [{"size": "2"}]}}}}}, {"name": "StatefulPartitionedCall/model/downsample_7/instance_normalization_5/moments/variance/reduction_indices", "op": "Const", "attr": {"value": {"tensor": {"dtype": "DT_INT32", "tensorShape": {"dim": [{"size": "2"}]}}}, "dtype": {"type": "DT_INT32"}}}, {"name": "StatefulPartitionedCall/model/downsample_7/instance_normalization_5/batchnorm/add/y", "op": "Const", "attr": {"dtype": {"type": "DT_FLOAT"}, "value": {"tensor": {"dtype": "DT_FLOAT", "tensorShape": {}}}}}, {"name": "StatefulPartitionedCall/model/downsample_7/instance_normalization_5/Reshape", "op": "Const", "attr": {"value": {"tensor": {"dtype": "DT_FLOAT", "tensorShape": {"dim": [{"size": "1"}, {"size": "1"}, {"size": "1"}, {"size": "512"}]}}}, "dtype": {"type": "DT_FLOAT"}}}, {"name": "StatefulPartitionedCall/model/concatenate/concat/axis", "op": "Const", "attr": {"value": {"tensor": {"dtype": "DT_INT32", "tensorShape": {}}}, "dtype": {"type": "DT_INT32"}}}, {"name": "StatefulPartitionedCall/model/upsample_2/instance_normalization_8/moments/mean/reduction_indices", "op": "Const", "attr": {"dtype": {"type": "DT_INT32"}, "value": {"tensor": {"dtype": "DT_INT32", "tensorShape": {"dim": [{"size": "2"}]}}}}}, {"name": "StatefulPartitionedCall/model/upsample_2/instance_normalization_8/moments/variance/reduction_indices", "op": "Const", "attr": {"dtype": {"type": "DT_INT32"}, "value": {"tensor": {"dtype": "DT_INT32", "tensorShape": {"dim": [{"size": "2"}]}}}}}, {"name": "StatefulPartitionedCall/model/upsample_2/instance_normalization_8/batchnorm/add/y", "op": "Const", "attr": {"dtype": {"type": "DT_FLOAT"}, "value": {"tensor": {"dtype": "DT_FLOAT", "tensorShape": {}}}}}, {"name": "StatefulPartitionedCall/model/upsample_2/instance_normalization_8/Reshape", "op": "Const", "attr": {"value": {"tensor": {"dtype": "DT_FLOAT", "tensorShape": {"dim": [{"size": "1"}, {"size": "1"}, {"size": "1"}, {"size": "512"}]}}}, "dtype": {"type": "DT_FLOAT"}}}, {"name": "StatefulPartitionedCall/model/downsample_6/instance_normalization_4/Reshape_1", "op": "Const", "attr": {"value": {"tensor": {"dtype": "DT_FLOAT", "tensorShape": {"dim": [{"size": "1"}, {"size": "1"}, {"size": "1"}, {"size": "512"}]}}}, "dtype": {"type": "DT_FLOAT"}}}, {"name": "StatefulPartitionedCall/model/downsample_6/conv2d_5/Conv2D/ReadVariableOp", "op": "Const", "attr": {"dtype": {"type": "DT_FLOAT"}, "value": {"tensor": {"dtype": "DT_FLOAT", "tensorShape": {"dim": [{"size": "4"}, {"size": "4"}, {"size": "512"}, {"size": "512"}]}}}}}, {"name": "StatefulPartitionedCall/model/downsample_6/instance_normalization_4/moments/mean/reduction_indices", "op": "Const", "attr": {"value": {"tensor": {"dtype": "DT_INT32", "tensorShape": {"dim": [{"size": "2"}]}}}, "dtype": {"type": "DT_INT32"}}}, {"name": "StatefulPartitionedCall/model/downsample_6/instance_normalization_4/moments/variance/reduction_indices", "op": "Const", "attr": {"dtype": {"type": "DT_INT32"}, "value": {"tensor": {"dtype": "DT_INT32", "tensorShape": {"dim": [{"size": "2"}]}}}}}, {"name": "StatefulPartitionedCall/model/downsample_6/instance_normalization_4/batchnorm/add/y", "op": "Const", "attr": {"value": {"tensor": {"dtype": "DT_FLOAT", "tensorShape": {}}}, "dtype": {"type": "DT_FLOAT"}}}, {"name": "StatefulPartitionedCall/model/downsample_6/instance_normalization_4/Reshape", "op": "Const", "attr": {"dtype": {"type": "DT_FLOAT"}, "value": {"tensor": {"dtype": "DT_FLOAT", "tensorShape": {"dim": [{"size": "1"}, {"size": "1"}, {"size": "1"}, {"size": "512"}]}}}}}, {"name": "StatefulPartitionedCall/model/concatenate_1/concat/axis", "op": "Const", "attr": {"value": {"tensor": {"dtype": "DT_INT32", "tensorShape": {}}}, "dtype": {"type": "DT_INT32"}}}, {"name": "StatefulPartitionedCall/model/upsample_3/instance_normalization_9/moments/mean/reduction_indices", "op": "Const", "attr": {"value": {"tensor": {"dtype": "DT_INT32", "tensorShape": {"dim": [{"size": "2"}]}}}, "dtype": {"type": "DT_INT32"}}}, {"name": "StatefulPartitionedCall/model/upsample_3/instance_normalization_9/moments/variance/reduction_indices", "op": "Const", "attr": {"dtype": {"type": "DT_INT32"}, "value": {"tensor": {"dtype": "DT_INT32", "tensorShape": {"dim": [{"size": "2"}]}}}}}, {"name": "StatefulPartitionedCall/model/upsample_3/instance_normalization_9/batchnorm/add/y", "op": "Const", "attr": {"dtype": {"type": "DT_FLOAT"}, "value": {"tensor": {"dtype": "DT_FLOAT", "tensorShape": {}}}}}, {"name": "StatefulPartitionedCall/model/upsample_3/instance_normalization_9/Reshape", "op": "Const", "attr": {"value": {"tensor": {"dtype": "DT_FLOAT", "tensorShape": {"dim": [{"size": "1"}, {"size": "1"}, {"size": "1"}, {"size": "512"}]}}}, "dtype": {"type": "DT_FLOAT"}}}, {"name": "StatefulPartitionedCall/model/downsample_5/instance_normalization_3/Reshape_1", "op": "Const", "attr": {"dtype": {"type": "DT_FLOAT"}, "value": {"tensor": {"dtype": "DT_FLOAT", "tensorShape": {"dim": [{"size": "1"}, {"size": "1"}, {"size": "1"}, {"size": "512"}]}}}}}, {"name": "StatefulPartitionedCall/model/downsample_5/conv2d_4/Conv2D/ReadVariableOp", "op": "Const", "attr": {"dtype": {"type": "DT_FLOAT"}, "value": {"tensor": {"dtype": "DT_FLOAT", "tensorShape": {"dim": [{"size": "4"}, {"size": "4"}, {"size": "512"}, {"size": "512"}]}}}}}, {"name": "StatefulPartitionedCall/model/downsample_5/instance_normalization_3/moments/mean/reduction_indices", "op": "Const", "attr": {"dtype": {"type": "DT_INT32"}, "value": {"tensor": {"dtype": "DT_INT32", "tensorShape": {"dim": [{"size": "2"}]}}}}}, {"name": "StatefulPartitionedCall/model/downsample_5/instance_normalization_3/moments/variance/reduction_indices", "op": "Const", "attr": {"dtype": {"type": "DT_INT32"}, "value": {"tensor": {"dtype": "DT_INT32", "tensorShape": {"dim": [{"size": "2"}]}}}}}, {"name": "StatefulPartitionedCall/model/downsample_5/instance_normalization_3/batchnorm/add/y", "op": "Const", "attr": {"value": {"tensor": {"dtype": "DT_FLOAT", "tensorShape": {}}}, "dtype": {"type": "DT_FLOAT"}}}, {"name": "StatefulPartitionedCall/model/downsample_5/instance_normalization_3/Reshape", "op": "Const", "attr": {"value": {"tensor": {"dtype": "DT_FLOAT", "tensorShape": {"dim": [{"size": "1"}, {"size": "1"}, {"size": "1"}, {"size": "512"}]}}}, "dtype": {"type": "DT_FLOAT"}}}, {"name": "StatefulPartitionedCall/model/concatenate_2/concat/axis", "op": "Const", "attr": {"value": {"tensor": {"dtype": "DT_INT32", "tensorShape": {}}}, "dtype": {"type": "DT_INT32"}}}, {"name": "StatefulPartitionedCall/model/upsample_4/instance_normalization_10/moments/mean/reduction_indices", "op": "Const", "attr": {"dtype": {"type": "DT_INT32"}, "value": {"tensor": {"dtype": "DT_INT32", "tensorShape": {"dim": [{"size": "2"}]}}}}}, {"name": "StatefulPartitionedCall/model/upsample_4/instance_normalization_10/moments/variance/reduction_indices", "op": "Const", "attr": {"dtype": {"type": "DT_INT32"}, "value": {"tensor": {"dtype": "DT_INT32", "tensorShape": {"dim": [{"size": "2"}]}}}}}, {"name": "StatefulPartitionedCall/model/upsample_4/instance_normalization_10/batchnorm/add/y", "op": "Const", "attr": {"value": {"tensor": {"dtype": "DT_FLOAT", "tensorShape": {}}}, "dtype": {"type": "DT_FLOAT"}}}, {"name": "StatefulPartitionedCall/model/upsample_4/instance_normalization_10/Reshape", "op": "Const", "attr": {"value": {"tensor": {"dtype": "DT_FLOAT", "tensorShape": {"dim": [{"size": "1"}, {"size": "1"}, {"size": "1"}, {"size": "512"}]}}}, "dtype": {"type": "DT_FLOAT"}}}, {"name": "StatefulPartitionedCall/model/downsample_4/instance_normalization_2/Reshape_1", "op": "Const", "attr": {"dtype": {"type": "DT_FLOAT"}, "value": {"tensor": {"dtype": "DT_FLOAT", "tensorShape": {"dim": [{"size": "1"}, {"size": "1"}, {"size": "1"}, {"size": "512"}]}}}}}, {"name": "StatefulPartitionedCall/model/downsample_4/conv2d_3/Conv2D/ReadVariableOp", "op": "Const", "attr": {"value": {"tensor": {"dtype": "DT_FLOAT", "tensorShape": {"dim": [{"size": "4"}, {"size": "4"}, {"size": "256"}, {"size": "512"}]}}}, "dtype": {"type": "DT_FLOAT"}}}, {"name": "StatefulPartitionedCall/model/downsample_4/instance_normalization_2/moments/mean/reduction_indices", "op": "Const", "attr": {"value": {"tensor": {"dtype": "DT_INT32", "tensorShape": {"dim": [{"size": "2"}]}}}, "dtype": {"type": "DT_INT32"}}}, {"name": "StatefulPartitionedCall/model/downsample_4/instance_normalization_2/moments/variance/reduction_indices", "op": "Const", "attr": {"value": {"tensor": {"dtype": "DT_INT32", "tensorShape": {"dim": [{"size": "2"}]}}}, "dtype": {"type": "DT_INT32"}}}, {"name": "StatefulPartitionedCall/model/downsample_4/instance_normalization_2/batchnorm/add/y", "op": "Const", "attr": {"dtype": {"type": "DT_FLOAT"}, "value": {"tensor": {"dtype": "DT_FLOAT", "tensorShape": {}}}}}, {"name": "StatefulPartitionedCall/model/downsample_4/instance_normalization_2/Reshape", "op": "Const", "attr": {"dtype": {"type": "DT_FLOAT"}, "value": {"tensor": {"dtype": "DT_FLOAT", "tensorShape": {"dim": [{"size": "1"}, {"size": "1"}, {"size": "1"}, {"size": "512"}]}}}}}, {"name": "StatefulPartitionedCall/model/concatenate_3/concat/axis", "op": "Const", "attr": {"value": {"tensor": {"dtype": "DT_INT32", "tensorShape": {}}}, "dtype": {"type": "DT_INT32"}}}, {"name": "StatefulPartitionedCall/model/upsample_5/instance_normalization_11/moments/mean/reduction_indices", "op": "Const", "attr": {"value": {"tensor": {"dtype": "DT_INT32", "tensorShape": {"dim": [{"size": "2"}]}}}, "dtype": {"type": "DT_INT32"}}}, {"name": "StatefulPartitionedCall/model/upsample_5/instance_normalization_11/moments/variance/reduction_indices", "op": "Const", "attr": {"value": {"tensor": {"dtype": "DT_INT32", "tensorShape": {"dim": [{"size": "2"}]}}}, "dtype": {"type": "DT_INT32"}}}, {"name": "StatefulPartitionedCall/model/upsample_5/instance_normalization_11/batchnorm/add/y", "op": "Const", "attr": {"dtype": {"type": "DT_FLOAT"}, "value": {"tensor": {"dtype": "DT_FLOAT", "tensorShape": {}}}}}, {"name": "StatefulPartitionedCall/model/upsample_5/instance_normalization_11/Reshape", "op": "Const", "attr": {"value": {"tensor": {"dtype": "DT_FLOAT", "tensorShape": {"dim": [{"size": "1"}, {"size": "1"}, {"size": "1"}, {"size": "256"}]}}}, "dtype": {"type": "DT_FLOAT"}}}, {"name": "StatefulPartitionedCall/model/downsample_3/instance_normalization_1/Reshape_1", "op": "Const", "attr": {"value": {"tensor": {"dtype": "DT_FLOAT", "tensorShape": {"dim": [{"size": "1"}, {"size": "1"}, {"size": "1"}, {"size": "256"}]}}}, "dtype": {"type": "DT_FLOAT"}}}, {"name": "StatefulPartitionedCall/model/downsample_3/conv2d_2/Conv2D/ReadVariableOp", "op": "Const", "attr": {"dtype": {"type": "DT_FLOAT"}, "value": {"tensor": {"dtype": "DT_FLOAT", "tensorShape": {"dim": [{"size": "4"}, {"size": "4"}, {"size": "128"}, {"size": "256"}]}}}}}, {"name": "StatefulPartitionedCall/model/downsample_3/instance_normalization_1/moments/mean/reduction_indices", "op": "Const", "attr": {"value": {"tensor": {"dtype": "DT_INT32", "tensorShape": {"dim": [{"size": "2"}]}}}, "dtype": {"type": "DT_INT32"}}}, {"name": "StatefulPartitionedCall/model/downsample_3/instance_normalization_1/moments/variance/reduction_indices", "op": "Const", "attr": {"value": {"tensor": {"dtype": "DT_INT32", "tensorShape": {"dim": [{"size": "2"}]}}}, "dtype": {"type": "DT_INT32"}}}, {"name": "StatefulPartitionedCall/model/downsample_3/instance_normalization_1/batchnorm/add/y", "op": "Const", "attr": {"value": {"tensor": {"dtype": "DT_FLOAT", "tensorShape": {}}}, "dtype": {"type": "DT_FLOAT"}}}, {"name": "StatefulPartitionedCall/model/downsample_3/instance_normalization_1/Reshape", "op": "Const", "attr": {"dtype": {"type": "DT_FLOAT"}, "value": {"tensor": {"dtype": "DT_FLOAT", "tensorShape": {"dim": [{"size": "1"}, {"size": "1"}, {"size": "1"}, {"size": "256"}]}}}}}, {"name": "StatefulPartitionedCall/model/concatenate_4/concat/axis", "op": "Const", "attr": {"value": {"tensor": {"dtype": "DT_INT32", "tensorShape": {}}}, "dtype": {"type": "DT_INT32"}}}, {"name": "StatefulPartitionedCall/model/upsample_6/instance_normalization_12/moments/mean/reduction_indices", "op": "Const", "attr": {"dtype": {"type": "DT_INT32"}, "value": {"tensor": {"dtype": "DT_INT32", "tensorShape": {"dim": [{"size": "2"}]}}}}}, {"name": "StatefulPartitionedCall/model/upsample_6/instance_normalization_12/moments/variance/reduction_indices", "op": "Const", "attr": {"dtype": {"type": "DT_INT32"}, "value": {"tensor": {"dtype": "DT_INT32", "tensorShape": {"dim": [{"size": "2"}]}}}}}, {"name": "StatefulPartitionedCall/model/upsample_6/instance_normalization_12/batchnorm/add/y", "op": "Const", "attr": {"value": {"tensor": {"dtype": "DT_FLOAT", "tensorShape": {}}}, "dtype": {"type": "DT_FLOAT"}}}, {"name": "StatefulPartitionedCall/model/upsample_6/instance_normalization_12/Reshape", "op": "Const", "attr": {"dtype": {"type": "DT_FLOAT"}, "value": {"tensor": {"dtype": "DT_FLOAT", "tensorShape": {"dim": [{"size": "1"}, {"size": "1"}, {"size": "1"}, {"size": "128"}]}}}}}, {"name": "StatefulPartitionedCall/model/downsample_2/instance_normalization/Reshape_1", "op": "Const", "attr": {"value": {"tensor": {"dtype": "DT_FLOAT", "tensorShape": {"dim": [{"size": "1"}, {"size": "1"}, {"size": "1"}, {"size": "128"}]}}}, "dtype": {"type": "DT_FLOAT"}}}, {"name": "StatefulPartitionedCall/model/downsample_2/conv2d_1/Conv2D/ReadVariableOp", "op": "Const", "attr": {"dtype": {"type": "DT_FLOAT"}, "value": {"tensor": {"dtype": "DT_FLOAT", "tensorShape": {"dim": [{"size": "4"}, {"size": "4"}, {"size": "64"}, {"size": "128"}]}}}}}, {"name": "StatefulPartitionedCall/model/downsample_2/instance_normalization/moments/mean/reduction_indices", "op": "Const", "attr": {"dtype": {"type": "DT_INT32"}, "value": {"tensor": {"dtype": "DT_INT32", "tensorShape": {"dim": [{"size": "2"}]}}}}}, {"name": "StatefulPartitionedCall/model/downsample_2/instance_normalization/moments/variance/reduction_indices", "op": "Const", "attr": {"value": {"tensor": {"dtype": "DT_INT32", "tensorShape": {"dim": [{"size": "2"}]}}}, "dtype": {"type": "DT_INT32"}}}, {"name": "StatefulPartitionedCall/model/downsample_2/instance_normalization/batchnorm/add/y", "op": "Const", "attr": {"dtype": {"type": "DT_FLOAT"}, "value": {"tensor": {"dtype": "DT_FLOAT", "tensorShape": {}}}}}, {"name": "StatefulPartitionedCall/model/downsample_2/instance_normalization/Reshape", "op": "Const", "attr": {"dtype": {"type": "DT_FLOAT"}, "value": {"tensor": {"dtype": "DT_FLOAT", "tensorShape": {"dim": [{"size": "1"}, {"size": "1"}, {"size": "1"}, {"size": "128"}]}}}}}, {"name": "StatefulPartitionedCall/model/concatenate_5/concat/axis", "op": "Const", "attr": {"dtype": {"type": "DT_INT32"}, "value": {"tensor": {"dtype": "DT_INT32", "tensorShape": {}}}}}, {"name": "StatefulPartitionedCall/model/upsample_7/instance_normalization_13/moments/mean/reduction_indices", "op": "Const", "attr": {"dtype": {"type": "DT_INT32"}, "value": {"tensor": {"dtype": "DT_INT32", "tensorShape": {"dim": [{"size": "2"}]}}}}}, {"name": "StatefulPartitionedCall/model/upsample_7/instance_normalization_13/moments/variance/reduction_indices", "op": "Const", "attr": {"value": {"tensor": {"dtype": "DT_INT32", "tensorShape": {"dim": [{"size": "2"}]}}}, "dtype": {"type": "DT_INT32"}}}, {"name": "StatefulPartitionedCall/model/upsample_7/instance_normalization_13/batchnorm/add/y", "op": "Const", "attr": {"value": {"tensor": {"dtype": "DT_FLOAT", "tensorShape": {}}}, "dtype": {"type": "DT_FLOAT"}}}, {"name": "StatefulPartitionedCall/model/upsample_7/instance_normalization_13/Reshape", "op": "Const", "attr": {"value": {"tensor": {"dtype": "DT_FLOAT", "tensorShape": {"dim": [{"size": "1"}, {"size": "1"}, {"size": "1"}, {"size": "64"}]}}}, "dtype": {"type": "DT_FLOAT"}}}, {"name": "StatefulPartitionedCall/model/downsample_1/conv2d/Conv2D/ReadVariableOp", "op": "Const", "attr": {"value": {"tensor": {"dtype": "DT_FLOAT", "tensorShape": {"dim": [{"size": "4"}, {"size": "4"}, {"size": "3"}, {"size": "64"}]}}}, "dtype": {"type": "DT_FLOAT"}}}, {"name": "StatefulPartitionedCall/model/concatenate_6/concat/axis", "op": "Const", "attr": {"value": {"tensor": {"dtype": "DT_INT32", "tensorShape": {}}}, "dtype": {"type": "DT_INT32"}}}, {"name": "StatefulPartitionedCall/model/conv2d_transpose_7/BiasAdd/ReadVariableOp", "op": "Const", "attr": {"dtype": {"type": "DT_FLOAT"}, "value": {"tensor": {"dtype": "DT_FLOAT", "tensorShape": {"dim": [{"size": "3"}]}}}}}, {"name": "input_1", "op": "Placeholder", "attr": {"dtype": {"type": "DT_FLOAT"}, "shape": {"shape": {"dim": [{"size": "-1"}, {"size": "256"}, {"size": "256"}, {"size": "3"}]}}}}, {"name": "StatefulPartitionedCall/model/downsample_1/conv2d/Conv2D", "op": "Conv2D", "input": ["input_1", "StatefulPartitionedCall/model/downsample_1/conv2d/Conv2D/ReadVariableOp"], "device": "/device:CPU:0", "attr": {"use_cudnn_on_gpu": {"b": true}, "strides": {"list": {"i": ["1", "2", "2", "1"]}}, "data_format": {"s": "TkhXQw=="}, "explicit_paddings": {"list": {}}, "dilations": {"list": {"i": ["1", "1", "1", "1"]}}, "padding": {"s": "U0FNRQ=="}, "T": {"type": "DT_FLOAT"}}}, {"name": "StatefulPartitionedCall/model/downsample_1/re_lu/Relu", "op": "Relu", "input": ["StatefulPartitionedCall/model/downsample_1/conv2d/Conv2D"], "attr": {"T": {"type": "DT_FLOAT"}}}, {"name": "StatefulPartitionedCall/model/downsample_2/conv2d_1/Conv2D", "op": "Conv2D", "input": ["StatefulPartitionedCall/model/downsample_1/re_lu/Relu", "StatefulPartitionedCall/model/downsample_2/conv2d_1/Conv2D/ReadVariableOp"], "device": "/device:CPU:0", "attr": {"explicit_paddings": {"list": {}}, "dilations": {"list": {"i": ["1", "1", "1", "1"]}}, "use_cudnn_on_gpu": {"b": true}, "T": {"type": "DT_FLOAT"}, "padding": {"s": "U0FNRQ=="}, "data_format": {"s": "TkhXQw=="}, "strides": {"list": {"i": ["1", "2", "2", "1"]}}}}, {"name": "StatefulPartitionedCall/model/downsample_2/instance_normalization/moments/mean", "op": "Mean", "input": ["StatefulPartitionedCall/model/downsample_2/conv2d_1/Conv2D", "StatefulPartitionedCall/model/downsample_2/instance_normalization/moments/mean/reduction_indices"], "attr": {"Tidx": {"type": "DT_INT32"}, "keep_dims": {"b": true}, "T": {"type": "DT_FLOAT"}}}, {"name": "StatefulPartitionedCall/model/downsample_2/instance_normalization/moments/SquaredDifference", "op": "SquaredDifference", "input": ["StatefulPartitionedCall/model/downsample_2/conv2d_1/Conv2D", "StatefulPartitionedCall/model/downsample_2/instance_normalization/moments/mean"], "attr": {"T": {"type": "DT_FLOAT"}}}, {"name": "StatefulPartitionedCall/model/downsample_2/instance_normalization/moments/variance", "op": "Mean", "input": ["StatefulPartitionedCall/model/downsample_2/instance_normalization/moments/SquaredDifference", "StatefulPartitionedCall/model/downsample_2/instance_normalization/moments/variance/reduction_indices"], "attr": {"T": {"type": "DT_FLOAT"}, "Tidx": {"type": "DT_INT32"}, "keep_dims": {"b": true}}}, {"name": "StatefulPartitionedCall/model/downsample_2/instance_normalization/batchnorm/add", "op": "AddV2", "input": ["StatefulPartitionedCall/model/downsample_2/instance_normalization/moments/variance", "StatefulPartitionedCall/model/downsample_2/instance_normalization/batchnorm/add/y"], "attr": {"T": {"type": "DT_FLOAT"}}}, {"name": "StatefulPartitionedCall/model/downsample_2/instance_normalization/batchnorm/Rsqrt", "op": "Rsqrt", "input": ["StatefulPartitionedCall/model/downsample_2/instance_normalization/batchnorm/add"], "attr": {"T": {"type": "DT_FLOAT"}}}, {"name": "StatefulPartitionedCall/model/downsample_2/instance_normalization/batchnorm/mul", "op": "Mul", "input": ["StatefulPartitionedCall/model/downsample_2/instance_normalization/batchnorm/Rsqrt", "StatefulPartitionedCall/model/downsample_2/instance_normalization/Reshape"], "attr": {"T": {"type": "DT_FLOAT"}}}, {"name": "StatefulPartitionedCall/model/downsample_2/instance_normalization/batchnorm/mul_2", "op": "Mul", "input": ["StatefulPartitionedCall/model/downsample_2/instance_normalization/moments/mean", "StatefulPartitionedCall/model/downsample_2/instance_normalization/batchnorm/mul"], "attr": {"T": {"type": "DT_FLOAT"}}}, {"name": "StatefulPartitionedCall/model/downsample_2/instance_normalization/batchnorm/mul_1", "op": "Mul", "input": ["StatefulPartitionedCall/model/downsample_2/conv2d_1/Conv2D", "StatefulPartitionedCall/model/downsample_2/instance_normalization/batchnorm/mul"], "attr": {"T": {"type": "DT_FLOAT"}}}, {"name": "StatefulPartitionedCall/model/downsample_2/instance_normalization/batchnorm/sub", "op": "Sub", "input": ["StatefulPartitionedCall/model/downsample_2/instance_normalization/Reshape_1", "StatefulPartitionedCall/model/downsample_2/instance_normalization/batchnorm/mul_2"], "attr": {"T": {"type": "DT_FLOAT"}}}, {"name": "StatefulPartitionedCall/model/downsample_2/instance_normalization/batchnorm/add_1", "op": "AddV2", "input": ["StatefulPartitionedCall/model/downsample_2/instance_normalization/batchnorm/mul_1", "StatefulPartitionedCall/model/downsample_2/instance_normalization/batchnorm/sub"], "attr": {"T": {"type": "DT_FLOAT"}}}, {"name": "StatefulPartitionedCall/model/downsample_2/re_lu_1/Relu", "op": "Relu", "input": ["StatefulPartitionedCall/model/downsample_2/instance_normalization/batchnorm/add_1"], "attr": {"T": {"type": "DT_FLOAT"}}}, {"name": "StatefulPartitionedCall/model/downsample_3/conv2d_2/Conv2D", "op": "Conv2D", "input": ["StatefulPartitionedCall/model/downsample_2/re_lu_1/Relu", "StatefulPartitionedCall/model/downsample_3/conv2d_2/Conv2D/ReadVariableOp"], "device": "/device:CPU:0", "attr": {"explicit_paddings": {"list": {}}, "T": {"type": "DT_FLOAT"}, "data_format": {"s": "TkhXQw=="}, "dilations": {"list": {"i": ["1", "1", "1", "1"]}}, "strides": {"list": {"i": ["1", "2", "2", "1"]}}, "padding": {"s": "U0FNRQ=="}, "use_cudnn_on_gpu": {"b": true}}}, {"name": "StatefulPartitionedCall/model/downsample_3/instance_normalization_1/moments/mean", "op": "Mean", "input": ["StatefulPartitionedCall/model/downsample_3/conv2d_2/Conv2D", "StatefulPartitionedCall/model/downsample_3/instance_normalization_1/moments/mean/reduction_indices"], "attr": {"keep_dims": {"b": true}, "T": {"type": "DT_FLOAT"}, "Tidx": {"type": "DT_INT32"}}}, {"name": "StatefulPartitionedCall/model/downsample_3/instance_normalization_1/moments/SquaredDifference", "op": "SquaredDifference", "input": ["StatefulPartitionedCall/model/downsample_3/conv2d_2/Conv2D", "StatefulPartitionedCall/model/downsample_3/instance_normalization_1/moments/mean"], "attr": {"T": {"type": "DT_FLOAT"}}}, {"name": "StatefulPartitionedCall/model/downsample_3/instance_normalization_1/moments/variance", "op": "Mean", "input": ["StatefulPartitionedCall/model/downsample_3/instance_normalization_1/moments/SquaredDifference", "StatefulPartitionedCall/model/downsample_3/instance_normalization_1/moments/variance/reduction_indices"], "attr": {"T": {"type": "DT_FLOAT"}, "Tidx": {"type": "DT_INT32"}, "keep_dims": {"b": true}}}, {"name": "StatefulPartitionedCall/model/downsample_3/instance_normalization_1/batchnorm/add", "op": "AddV2", "input": ["StatefulPartitionedCall/model/downsample_3/instance_normalization_1/moments/variance", "StatefulPartitionedCall/model/downsample_3/instance_normalization_1/batchnorm/add/y"], "attr": {"T": {"type": "DT_FLOAT"}}}, {"name": "StatefulPartitionedCall/model/downsample_3/instance_normalization_1/batchnorm/Rsqrt", "op": "Rsqrt", "input": ["StatefulPartitionedCall/model/downsample_3/instance_normalization_1/batchnorm/add"], "attr": {"T": {"type": "DT_FLOAT"}}}, {"name": "StatefulPartitionedCall/model/downsample_3/instance_normalization_1/batchnorm/mul", "op": "Mul", "input": ["StatefulPartitionedCall/model/downsample_3/instance_normalization_1/batchnorm/Rsqrt", "StatefulPartitionedCall/model/downsample_3/instance_normalization_1/Reshape"], "attr": {"T": {"type": "DT_FLOAT"}}}, {"name": "StatefulPartitionedCall/model/downsample_3/instance_normalization_1/batchnorm/mul_2", "op": "Mul", "input": ["StatefulPartitionedCall/model/downsample_3/instance_normalization_1/moments/mean", "StatefulPartitionedCall/model/downsample_3/instance_normalization_1/batchnorm/mul"], "attr": {"T": {"type": "DT_FLOAT"}}}, {"name": "StatefulPartitionedCall/model/downsample_3/instance_normalization_1/batchnorm/mul_1", "op": "Mul", "input": ["StatefulPartitionedCall/model/downsample_3/conv2d_2/Conv2D", "StatefulPartitionedCall/model/downsample_3/instance_normalization_1/batchnorm/mul"], "attr": {"T": {"type": "DT_FLOAT"}}}, {"name": "StatefulPartitionedCall/model/downsample_3/instance_normalization_1/batchnorm/sub", "op": "Sub", "input": ["StatefulPartitionedCall/model/downsample_3/instance_normalization_1/Reshape_1", "StatefulPartitionedCall/model/downsample_3/instance_normalization_1/batchnorm/mul_2"], "attr": {"T": {"type": "DT_FLOAT"}}}, {"name": "StatefulPartitionedCall/model/downsample_3/instance_normalization_1/batchnorm/add_1", "op": "AddV2", "input": ["StatefulPartitionedCall/model/downsample_3/instance_normalization_1/batchnorm/mul_1", "StatefulPartitionedCall/model/downsample_3/instance_normalization_1/batchnorm/sub"], "attr": {"T": {"type": "DT_FLOAT"}}}, {"name": "StatefulPartitionedCall/model/downsample_3/re_lu_2/Relu", "op": "Relu", "input": ["StatefulPartitionedCall/model/downsample_3/instance_normalization_1/batchnorm/add_1"], "attr": {"T": {"type": "DT_FLOAT"}}}, {"name": "StatefulPartitionedCall/model/downsample_4/conv2d_3/Conv2D", "op": "Conv2D", "input": ["StatefulPartitionedCall/model/downsample_3/re_lu_2/Relu", "StatefulPartitionedCall/model/downsample_4/conv2d_3/Conv2D/ReadVariableOp"], "device": "/device:CPU:0", "attr": {"explicit_paddings": {"list": {}}, "strides": {"list": {"i": ["1", "2", "2", "1"]}}, "use_cudnn_on_gpu": {"b": true}, "T": {"type": "DT_FLOAT"}, "data_format": {"s": "TkhXQw=="}, "padding": {"s": "U0FNRQ=="}, "dilations": {"list": {"i": ["1", "1", "1", "1"]}}}}, {"name": "StatefulPartitionedCall/model/downsample_4/instance_normalization_2/moments/mean", "op": "Mean", "input": ["StatefulPartitionedCall/model/downsample_4/conv2d_3/Conv2D", "StatefulPartitionedCall/model/downsample_4/instance_normalization_2/moments/mean/reduction_indices"], "attr": {"T": {"type": "DT_FLOAT"}, "Tidx": {"type": "DT_INT32"}, "keep_dims": {"b": true}}}, {"name": "StatefulPartitionedCall/model/downsample_4/instance_normalization_2/moments/SquaredDifference", "op": "SquaredDifference", "input": ["StatefulPartitionedCall/model/downsample_4/conv2d_3/Conv2D", "StatefulPartitionedCall/model/downsample_4/instance_normalization_2/moments/mean"], "attr": {"T": {"type": "DT_FLOAT"}}}, {"name": "StatefulPartitionedCall/model/downsample_4/instance_normalization_2/moments/variance", "op": "Mean", "input": ["StatefulPartitionedCall/model/downsample_4/instance_normalization_2/moments/SquaredDifference", "StatefulPartitionedCall/model/downsample_4/instance_normalization_2/moments/variance/reduction_indices"], "attr": {"Tidx": {"type": "DT_INT32"}, "T": {"type": "DT_FLOAT"}, "keep_dims": {"b": true}}}, {"name": "StatefulPartitionedCall/model/downsample_4/instance_normalization_2/batchnorm/add", "op": "AddV2", "input": ["StatefulPartitionedCall/model/downsample_4/instance_normalization_2/moments/variance", "StatefulPartitionedCall/model/downsample_4/instance_normalization_2/batchnorm/add/y"], "attr": {"T": {"type": "DT_FLOAT"}}}, {"name": "StatefulPartitionedCall/model/downsample_4/instance_normalization_2/batchnorm/Rsqrt", "op": "Rsqrt", "input": ["StatefulPartitionedCall/model/downsample_4/instance_normalization_2/batchnorm/add"], "attr": {"T": {"type": "DT_FLOAT"}}}, {"name": "StatefulPartitionedCall/model/downsample_4/instance_normalization_2/batchnorm/mul", "op": "Mul", "input": ["StatefulPartitionedCall/model/downsample_4/instance_normalization_2/batchnorm/Rsqrt", "StatefulPartitionedCall/model/downsample_4/instance_normalization_2/Reshape"], "attr": {"T": {"type": "DT_FLOAT"}}}, {"name": "StatefulPartitionedCall/model/downsample_4/instance_normalization_2/batchnorm/mul_2", "op": "Mul", "input": ["StatefulPartitionedCall/model/downsample_4/instance_normalization_2/moments/mean", "StatefulPartitionedCall/model/downsample_4/instance_normalization_2/batchnorm/mul"], "attr": {"T": {"type": "DT_FLOAT"}}}, {"name": "StatefulPartitionedCall/model/downsample_4/instance_normalization_2/batchnorm/mul_1", "op": "Mul", "input": ["StatefulPartitionedCall/model/downsample_4/conv2d_3/Conv2D", "StatefulPartitionedCall/model/downsample_4/instance_normalization_2/batchnorm/mul"], "attr": {"T": {"type": "DT_FLOAT"}}}, {"name": "StatefulPartitionedCall/model/downsample_4/instance_normalization_2/batchnorm/sub", "op": "Sub", "input": ["StatefulPartitionedCall/model/downsample_4/instance_normalization_2/Reshape_1", "StatefulPartitionedCall/model/downsample_4/instance_normalization_2/batchnorm/mul_2"], "attr": {"T": {"type": "DT_FLOAT"}}}, {"name": "StatefulPartitionedCall/model/downsample_4/instance_normalization_2/batchnorm/add_1", "op": "AddV2", "input": ["StatefulPartitionedCall/model/downsample_4/instance_normalization_2/batchnorm/mul_1", "StatefulPartitionedCall/model/downsample_4/instance_normalization_2/batchnorm/sub"], "attr": {"T": {"type": "DT_FLOAT"}}}, {"name": "StatefulPartitionedCall/model/downsample_4/re_lu_3/Relu", "op": "Relu", "input": ["StatefulPartitionedCall/model/downsample_4/instance_normalization_2/batchnorm/add_1"], "attr": {"T": {"type": "DT_FLOAT"}}}, {"name": "StatefulPartitionedCall/model/downsample_5/conv2d_4/Conv2D", "op": "Conv2D", "input": ["StatefulPartitionedCall/model/downsample_4/re_lu_3/Relu", "StatefulPartitionedCall/model/downsample_5/conv2d_4/Conv2D/ReadVariableOp"], "device": "/device:CPU:0", "attr": {"T": {"type": "DT_FLOAT"}, "strides": {"list": {"i": ["1", "2", "2", "1"]}}, "use_cudnn_on_gpu": {"b": true}, "padding": {"s": "U0FNRQ=="}, "explicit_paddings": {"list": {}}, "data_format": {"s": "TkhXQw=="}, "dilations": {"list": {"i": ["1", "1", "1", "1"]}}}}, {"name": "StatefulPartitionedCall/model/downsample_5/instance_normalization_3/moments/mean", "op": "Mean", "input": ["StatefulPartitionedCall/model/downsample_5/conv2d_4/Conv2D", "StatefulPartitionedCall/model/downsample_5/instance_normalization_3/moments/mean/reduction_indices"], "attr": {"Tidx": {"type": "DT_INT32"}, "T": {"type": "DT_FLOAT"}, "keep_dims": {"b": true}}}, {"name": "StatefulPartitionedCall/model/downsample_5/instance_normalization_3/moments/SquaredDifference", "op": "SquaredDifference", "input": ["StatefulPartitionedCall/model/downsample_5/conv2d_4/Conv2D", "StatefulPartitionedCall/model/downsample_5/instance_normalization_3/moments/mean"], "attr": {"T": {"type": "DT_FLOAT"}}}, {"name": "StatefulPartitionedCall/model/downsample_5/instance_normalization_3/moments/variance", "op": "Mean", "input": ["StatefulPartitionedCall/model/downsample_5/instance_normalization_3/moments/SquaredDifference", "StatefulPartitionedCall/model/downsample_5/instance_normalization_3/moments/variance/reduction_indices"], "attr": {"Tidx": {"type": "DT_INT32"}, "keep_dims": {"b": true}, "T": {"type": "DT_FLOAT"}}}, {"name": "StatefulPartitionedCall/model/downsample_5/instance_normalization_3/batchnorm/add", "op": "AddV2", "input": ["StatefulPartitionedCall/model/downsample_5/instance_normalization_3/moments/variance", "StatefulPartitionedCall/model/downsample_5/instance_normalization_3/batchnorm/add/y"], "attr": {"T": {"type": "DT_FLOAT"}}}, {"name": "StatefulPartitionedCall/model/downsample_5/instance_normalization_3/batchnorm/Rsqrt", "op": "Rsqrt", "input": ["StatefulPartitionedCall/model/downsample_5/instance_normalization_3/batchnorm/add"], "attr": {"T": {"type": "DT_FLOAT"}}}, {"name": "StatefulPartitionedCall/model/downsample_5/instance_normalization_3/batchnorm/mul", "op": "Mul", "input": ["StatefulPartitionedCall/model/downsample_5/instance_normalization_3/batchnorm/Rsqrt", "StatefulPartitionedCall/model/downsample_5/instance_normalization_3/Reshape"], "attr": {"T": {"type": "DT_FLOAT"}}}, {"name": "StatefulPartitionedCall/model/downsample_5/instance_normalization_3/batchnorm/mul_2", "op": "Mul", "input": ["StatefulPartitionedCall/model/downsample_5/instance_normalization_3/moments/mean", "StatefulPartitionedCall/model/downsample_5/instance_normalization_3/batchnorm/mul"], "attr": {"T": {"type": "DT_FLOAT"}}}, {"name": "StatefulPartitionedCall/model/downsample_5/instance_normalization_3/batchnorm/mul_1", "op": "Mul", "input": ["StatefulPartitionedCall/model/downsample_5/conv2d_4/Conv2D", "StatefulPartitionedCall/model/downsample_5/instance_normalization_3/batchnorm/mul"], "attr": {"T": {"type": "DT_FLOAT"}}}, {"name": "StatefulPartitionedCall/model/downsample_5/instance_normalization_3/batchnorm/sub", "op": "Sub", "input": ["StatefulPartitionedCall/model/downsample_5/instance_normalization_3/Reshape_1", "StatefulPartitionedCall/model/downsample_5/instance_normalization_3/batchnorm/mul_2"], "attr": {"T": {"type": "DT_FLOAT"}}}, {"name": "StatefulPartitionedCall/model/downsample_5/instance_normalization_3/batchnorm/add_1", "op": "AddV2", "input": ["StatefulPartitionedCall/model/downsample_5/instance_normalization_3/batchnorm/mul_1", "StatefulPartitionedCall/model/downsample_5/instance_normalization_3/batchnorm/sub"], "attr": {"T": {"type": "DT_FLOAT"}}}, {"name": "StatefulPartitionedCall/model/downsample_5/re_lu_4/Relu", "op": "Relu", "input": ["StatefulPartitionedCall/model/downsample_5/instance_normalization_3/batchnorm/add_1"], "attr": {"T": {"type": "DT_FLOAT"}}}, {"name": "StatefulPartitionedCall/model/downsample_6/conv2d_5/Conv2D", "op": "Conv2D", "input": ["StatefulPartitionedCall/model/downsample_5/re_lu_4/Relu", "StatefulPartitionedCall/model/downsample_6/conv2d_5/Conv2D/ReadVariableOp"], "device": "/device:CPU:0", "attr": {"data_format": {"s": "TkhXQw=="}, "padding": {"s": "U0FNRQ=="}, "strides": {"list": {"i": ["1", "2", "2", "1"]}}, "explicit_paddings": {"list": {}}, "T": {"type": "DT_FLOAT"}, "dilations": {"list": {"i": ["1", "1", "1", "1"]}}, "use_cudnn_on_gpu": {"b": true}}}, {"name": "StatefulPartitionedCall/model/downsample_6/instance_normalization_4/moments/mean", "op": "Mean", "input": ["StatefulPartitionedCall/model/downsample_6/conv2d_5/Conv2D", "StatefulPartitionedCall/model/downsample_6/instance_normalization_4/moments/mean/reduction_indices"], "attr": {"Tidx": {"type": "DT_INT32"}, "T": {"type": "DT_FLOAT"}, "keep_dims": {"b": true}}}, {"name": "StatefulPartitionedCall/model/downsample_6/instance_normalization_4/moments/SquaredDifference", "op": "SquaredDifference", "input": ["StatefulPartitionedCall/model/downsample_6/conv2d_5/Conv2D", "StatefulPartitionedCall/model/downsample_6/instance_normalization_4/moments/mean"], "attr": {"T": {"type": "DT_FLOAT"}}}, {"name": "StatefulPartitionedCall/model/downsample_6/instance_normalization_4/moments/variance", "op": "Mean", "input": ["StatefulPartitionedCall/model/downsample_6/instance_normalization_4/moments/SquaredDifference", "StatefulPartitionedCall/model/downsample_6/instance_normalization_4/moments/variance/reduction_indices"], "attr": {"keep_dims": {"b": true}, "Tidx": {"type": "DT_INT32"}, "T": {"type": "DT_FLOAT"}}}, {"name": "StatefulPartitionedCall/model/downsample_6/instance_normalization_4/batchnorm/add", "op": "AddV2", "input": ["StatefulPartitionedCall/model/downsample_6/instance_normalization_4/moments/variance", "StatefulPartitionedCall/model/downsample_6/instance_normalization_4/batchnorm/add/y"], "attr": {"T": {"type": "DT_FLOAT"}}}, {"name": "StatefulPartitionedCall/model/downsample_6/instance_normalization_4/batchnorm/Rsqrt", "op": "Rsqrt", "input": ["StatefulPartitionedCall/model/downsample_6/instance_normalization_4/batchnorm/add"], "attr": {"T": {"type": "DT_FLOAT"}}}, {"name": "StatefulPartitionedCall/model/downsample_6/instance_normalization_4/batchnorm/mul", "op": "Mul", "input": ["StatefulPartitionedCall/model/downsample_6/instance_normalization_4/batchnorm/Rsqrt", "StatefulPartitionedCall/model/downsample_6/instance_normalization_4/Reshape"], "attr": {"T": {"type": "DT_FLOAT"}}}, {"name": "StatefulPartitionedCall/model/downsample_6/instance_normalization_4/batchnorm/mul_2", "op": "Mul", "input": ["StatefulPartitionedCall/model/downsample_6/instance_normalization_4/moments/mean", "StatefulPartitionedCall/model/downsample_6/instance_normalization_4/batchnorm/mul"], "attr": {"T": {"type": "DT_FLOAT"}}}, {"name": "StatefulPartitionedCall/model/downsample_6/instance_normalization_4/batchnorm/mul_1", "op": "Mul", "input": ["StatefulPartitionedCall/model/downsample_6/conv2d_5/Conv2D", "StatefulPartitionedCall/model/downsample_6/instance_normalization_4/batchnorm/mul"], "attr": {"T": {"type": "DT_FLOAT"}}}, {"name": "StatefulPartitionedCall/model/downsample_6/instance_normalization_4/batchnorm/sub", "op": "Sub", "input": ["StatefulPartitionedCall/model/downsample_6/instance_normalization_4/Reshape_1", "StatefulPartitionedCall/model/downsample_6/instance_normalization_4/batchnorm/mul_2"], "attr": {"T": {"type": "DT_FLOAT"}}}, {"name": "StatefulPartitionedCall/model/downsample_6/instance_normalization_4/batchnorm/add_1", "op": "AddV2", "input": ["StatefulPartitionedCall/model/downsample_6/instance_normalization_4/batchnorm/mul_1", "StatefulPartitionedCall/model/downsample_6/instance_normalization_4/batchnorm/sub"], "attr": {"T": {"type": "DT_FLOAT"}}}, {"name": "StatefulPartitionedCall/model/downsample_6/re_lu_5/Relu", "op": "Relu", "input": ["StatefulPartitionedCall/model/downsample_6/instance_normalization_4/batchnorm/add_1"], "attr": {"T": {"type": "DT_FLOAT"}}}, {"name": "StatefulPartitionedCall/model/downsample_7/conv2d_6/Conv2D", "op": "Conv2D", "input": ["StatefulPartitionedCall/model/downsample_6/re_lu_5/Relu", "StatefulPartitionedCall/model/downsample_7/conv2d_6/Conv2D/ReadVariableOp"], "device": "/device:CPU:0", "attr": {"T": {"type": "DT_FLOAT"}, "padding": {"s": "U0FNRQ=="}, "use_cudnn_on_gpu": {"b": true}, "dilations": {"list": {"i": ["1", "1", "1", "1"]}}, "data_format": {"s": "TkhXQw=="}, "strides": {"list": {"i": ["1", "2", "2", "1"]}}, "explicit_paddings": {"list": {}}}}, {"name": "StatefulPartitionedCall/model/downsample_7/instance_normalization_5/moments/mean", "op": "Mean", "input": ["StatefulPartitionedCall/model/downsample_7/conv2d_6/Conv2D", "StatefulPartitionedCall/model/downsample_7/instance_normalization_5/moments/mean/reduction_indices"], "attr": {"Tidx": {"type": "DT_INT32"}, "keep_dims": {"b": true}, "T": {"type": "DT_FLOAT"}}}, {"name": "StatefulPartitionedCall/model/downsample_7/instance_normalization_5/moments/SquaredDifference", "op": "SquaredDifference", "input": ["StatefulPartitionedCall/model/downsample_7/conv2d_6/Conv2D", "StatefulPartitionedCall/model/downsample_7/instance_normalization_5/moments/mean"], "attr": {"T": {"type": "DT_FLOAT"}}}, {"name": "StatefulPartitionedCall/model/downsample_7/instance_normalization_5/moments/variance", "op": "Mean", "input": ["StatefulPartitionedCall/model/downsample_7/instance_normalization_5/moments/SquaredDifference", "StatefulPartitionedCall/model/downsample_7/instance_normalization_5/moments/variance/reduction_indices"], "attr": {"T": {"type": "DT_FLOAT"}, "keep_dims": {"b": true}, "Tidx": {"type": "DT_INT32"}}}, {"name": "StatefulPartitionedCall/model/downsample_7/instance_normalization_5/batchnorm/add", "op": "AddV2", "input": ["StatefulPartitionedCall/model/downsample_7/instance_normalization_5/moments/variance", "StatefulPartitionedCall/model/downsample_7/instance_normalization_5/batchnorm/add/y"], "attr": {"T": {"type": "DT_FLOAT"}}}, {"name": "StatefulPartitionedCall/model/downsample_7/instance_normalization_5/batchnorm/Rsqrt", "op": "Rsqrt", "input": ["StatefulPartitionedCall/model/downsample_7/instance_normalization_5/batchnorm/add"], "attr": {"T": {"type": "DT_FLOAT"}}}, {"name": "StatefulPartitionedCall/model/downsample_7/instance_normalization_5/batchnorm/mul", "op": "Mul", "input": ["StatefulPartitionedCall/model/downsample_7/instance_normalization_5/batchnorm/Rsqrt", "StatefulPartitionedCall/model/downsample_7/instance_normalization_5/Reshape"], "attr": {"T": {"type": "DT_FLOAT"}}}, {"name": "StatefulPartitionedCall/model/downsample_7/instance_normalization_5/batchnorm/mul_2", "op": "Mul", "input": ["StatefulPartitionedCall/model/downsample_7/instance_normalization_5/moments/mean", "StatefulPartitionedCall/model/downsample_7/instance_normalization_5/batchnorm/mul"], "attr": {"T": {"type": "DT_FLOAT"}}}, {"name": "StatefulPartitionedCall/model/downsample_7/instance_normalization_5/batchnorm/mul_1", "op": "Mul", "input": ["StatefulPartitionedCall/model/downsample_7/conv2d_6/Conv2D", "StatefulPartitionedCall/model/downsample_7/instance_normalization_5/batchnorm/mul"], "attr": {"T": {"type": "DT_FLOAT"}}}, {"name": "StatefulPartitionedCall/model/downsample_7/instance_normalization_5/batchnorm/sub", "op": "Sub", "input": ["StatefulPartitionedCall/model/downsample_7/instance_normalization_5/Reshape_1", "StatefulPartitionedCall/model/downsample_7/instance_normalization_5/batchnorm/mul_2"], "attr": {"T": {"type": "DT_FLOAT"}}}, {"name": "StatefulPartitionedCall/model/downsample_7/instance_normalization_5/batchnorm/add_1", "op": "AddV2", "input": ["StatefulPartitionedCall/model/downsample_7/instance_normalization_5/batchnorm/mul_1", "StatefulPartitionedCall/model/downsample_7/instance_normalization_5/batchnorm/sub"], "attr": {"T": {"type": "DT_FLOAT"}}}, {"name": "StatefulPartitionedCall/model/downsample_7/re_lu_6/Relu", "op": "Relu", "input": ["StatefulPartitionedCall/model/downsample_7/instance_normalization_5/batchnorm/add_1"], "attr": {"T": {"type": "DT_FLOAT"}}}, {"name": "StatefulPartitionedCall/model/downsample_8/conv2d_7/Conv2D", "op": "Conv2D", "input": ["StatefulPartitionedCall/model/downsample_7/re_lu_6/Relu", "StatefulPartitionedCall/model/downsample_8/conv2d_7/Conv2D/ReadVariableOp"], "device": "/device:CPU:0", "attr": {"T": {"type": "DT_FLOAT"}, "use_cudnn_on_gpu": {"b": true}, "dilations": {"list": {"i": ["1", "1", "1", "1"]}}, "strides": {"list": {"i": ["1", "2", "2", "1"]}}, "explicit_paddings": {"list": {}}, "data_format": {"s": "TkhXQw=="}, "padding": {"s": "U0FNRQ=="}}}, {"name": "StatefulPartitionedCall/model/downsample_8/instance_normalization_6/moments/mean", "op": "Mean", "input": ["StatefulPartitionedCall/model/downsample_8/conv2d_7/Conv2D", "StatefulPartitionedCall/model/downsample_8/instance_normalization_6/moments/mean/reduction_indices"], "attr": {"Tidx": {"type": "DT_INT32"}, "T": {"type": "DT_FLOAT"}, "keep_dims": {"b": true}}}, {"name": "StatefulPartitionedCall/model/downsample_8/instance_normalization_6/moments/SquaredDifference", "op": "SquaredDifference", "input": ["StatefulPartitionedCall/model/downsample_8/conv2d_7/Conv2D", "StatefulPartitionedCall/model/downsample_8/instance_normalization_6/moments/mean"], "attr": {"T": {"type": "DT_FLOAT"}}}, {"name": "StatefulPartitionedCall/model/downsample_8/instance_normalization_6/moments/variance", "op": "Mean", "input": ["StatefulPartitionedCall/model/downsample_8/instance_normalization_6/moments/SquaredDifference", "StatefulPartitionedCall/model/downsample_8/instance_normalization_6/moments/variance/reduction_indices"], "attr": {"T": {"type": "DT_FLOAT"}, "keep_dims": {"b": true}, "Tidx": {"type": "DT_INT32"}}}, {"name": "StatefulPartitionedCall/model/downsample_8/instance_normalization_6/batchnorm/add", "op": "AddV2", "input": ["StatefulPartitionedCall/model/downsample_8/instance_normalization_6/moments/variance", "StatefulPartitionedCall/model/downsample_8/instance_normalization_6/batchnorm/add/y"], "attr": {"T": {"type": "DT_FLOAT"}}}, {"name": "StatefulPartitionedCall/model/downsample_8/instance_normalization_6/batchnorm/Rsqrt", "op": "Rsqrt", "input": ["StatefulPartitionedCall/model/downsample_8/instance_normalization_6/batchnorm/add"], "attr": {"T": {"type": "DT_FLOAT"}}}, {"name": "StatefulPartitionedCall/model/downsample_8/instance_normalization_6/batchnorm/mul", "op": "Mul", "input": ["StatefulPartitionedCall/model/downsample_8/instance_normalization_6/batchnorm/Rsqrt", "StatefulPartitionedCall/model/downsample_8/instance_normalization_6/Reshape"], "attr": {"T": {"type": "DT_FLOAT"}}}, {"name": "StatefulPartitionedCall/model/downsample_8/instance_normalization_6/batchnorm/mul_2", "op": "Mul", "input": ["StatefulPartitionedCall/model/downsample_8/instance_normalization_6/moments/mean", "StatefulPartitionedCall/model/downsample_8/instance_normalization_6/batchnorm/mul"], "attr": {"T": {"type": "DT_FLOAT"}}}, {"name": "StatefulPartitionedCall/model/downsample_8/instance_normalization_6/batchnorm/mul_1", "op": "Mul", "input": ["StatefulPartitionedCall/model/downsample_8/conv2d_7/Conv2D", "StatefulPartitionedCall/model/downsample_8/instance_normalization_6/batchnorm/mul"], "attr": {"T": {"type": "DT_FLOAT"}}}, {"name": "StatefulPartitionedCall/model/downsample_8/instance_normalization_6/batchnorm/add_1", "op": "Sub", "input": ["StatefulPartitionedCall/model/downsample_8/instance_normalization_6/batchnorm/mul_1", "StatefulPartitionedCall/model/downsample_8/instance_normalization_6/batchnorm/mul_2"], "attr": {"T": {"type": "DT_FLOAT"}}}, {"name": "StatefulPartitionedCall/model/downsample_8/re_lu_7/Relu", "op": "Relu", "input": ["StatefulPartitionedCall/model/downsample_8/instance_normalization_6/batchnorm/add_1"], "attr": {"T": {"type": "DT_FLOAT"}}}, {"name": "StatefulPartitionedCall/model/upsample_1/conv2d_transpose/Shape", "op": "Shape", "input": ["StatefulPartitionedCall/model/downsample_8/re_lu_7/Relu"], "attr": {"T": {"type": "DT_FLOAT"}, "out_type": {"type": "DT_INT32"}}}, {"name": "StatefulPartitionedCall/model/upsample_1/conv2d_transpose/strided_slice", "op": "StridedSlice", "input": ["StatefulPartitionedCall/model/upsample_1/conv2d_transpose/Shape", "StatefulPartitionedCall/model/upsample_1/conv2d_transpose/strided_slice/stack", "StatefulPartitionedCall/model/upsample_1/conv2d_transpose/strided_slice/stack_1", "StatefulPartitionedCall/model/upsample_1/conv2d_transpose/strided_slice/stack_2"], "attr": {"shrink_axis_mask": {"i": "1"}, "Index": {"type": "DT_INT32"}, "begin_mask": {"i": "0"}, "end_mask": {"i": "0"}, "new_axis_mask": {"i": "0"}, "T": {"type": "DT_INT32"}, "ellipsis_mask": {"i": "0"}}}, {"name": "StatefulPartitionedCall/model/upsample_1/conv2d_transpose/stack", "op": "Pack", "input": ["StatefulPartitionedCall/model/upsample_1/conv2d_transpose/strided_slice", "StatefulPartitionedCall/model/upsample_1/conv2d_transpose/stack/1", "StatefulPartitionedCall/model/upsample_1/conv2d_transpose/stack/2", "StatefulPartitionedCall/model/upsample_1/conv2d_transpose/stack/3"], "attr": {"N": {"i": "4"}, "T": {"type": "DT_INT32"}, "axis": {"i": "0"}}}, {"name": "StatefulPartitionedCall/model/upsample_1/conv2d_transpose/conv2d_transpose", "op": "Conv2DBackpropInput", "input": ["StatefulPartitionedCall/model/upsample_1/conv2d_transpose/stack", "StatefulPartitionedCall/model/upsample_1/conv2d_transpose/conv2d_transpose/ReadVariableOp", "StatefulPartitionedCall/model/downsample_8/re_lu_7/Relu"], "attr": {"T": {"type": "DT_FLOAT"}, "explicit_paddings": {"list": {}}, "strides": {"list": {"i": ["1", "2", "2", "1"]}}, "use_cudnn_on_gpu": {"b": true}, "dilations": {"list": {"i": ["1", "1", "1", "1"]}}, "data_format": {"s": "TkhXQw=="}, "padding": {"s": "U0FNRQ=="}}}, {"name": "StatefulPartitionedCall/model/upsample_1/instance_normalization_7/moments/mean", "op": "Mean", "input": ["StatefulPartitionedCall/model/upsample_1/conv2d_transpose/conv2d_transpose", "StatefulPartitionedCall/model/upsample_1/instance_normalization_7/moments/mean/reduction_indices"], "attr": {"T": {"type": "DT_FLOAT"}, "keep_dims": {"b": true}, "Tidx": {"type": "DT_INT32"}}}, {"name": "StatefulPartitionedCall/model/upsample_1/instance_normalization_7/moments/SquaredDifference", "op": "SquaredDifference", "input": ["StatefulPartitionedCall/model/upsample_1/conv2d_transpose/conv2d_transpose", "StatefulPartitionedCall/model/upsample_1/instance_normalization_7/moments/mean"], "attr": {"T": {"type": "DT_FLOAT"}}}, {"name": "StatefulPartitionedCall/model/upsample_1/instance_normalization_7/moments/variance", "op": "Mean", "input": ["StatefulPartitionedCall/model/upsample_1/instance_normalization_7/moments/SquaredDifference", "StatefulPartitionedCall/model/upsample_1/instance_normalization_7/moments/variance/reduction_indices"], "attr": {"Tidx": {"type": "DT_INT32"}, "keep_dims": {"b": true}, "T": {"type": "DT_FLOAT"}}}, {"name": "StatefulPartitionedCall/model/upsample_1/instance_normalization_7/batchnorm/add", "op": "AddV2", "input": ["StatefulPartitionedCall/model/upsample_1/instance_normalization_7/moments/variance", "StatefulPartitionedCall/model/upsample_1/instance_normalization_7/batchnorm/add/y"], "attr": {"T": {"type": "DT_FLOAT"}}}, {"name": "StatefulPartitionedCall/model/upsample_1/instance_normalization_7/batchnorm/Rsqrt", "op": "Rsqrt", "input": ["StatefulPartitionedCall/model/upsample_1/instance_normalization_7/batchnorm/add"], "attr": {"T": {"type": "DT_FLOAT"}}}, {"name": "StatefulPartitionedCall/model/upsample_1/instance_normalization_7/batchnorm/mul", "op": "Mul", "input": ["StatefulPartitionedCall/model/upsample_1/instance_normalization_7/batchnorm/Rsqrt", "StatefulPartitionedCall/model/upsample_1/instance_normalization_7/Reshape"], "attr": {"T": {"type": "DT_FLOAT"}}}, {"name": "StatefulPartitionedCall/model/upsample_1/instance_normalization_7/batchnorm/mul_2", "op": "Mul", "input": ["StatefulPartitionedCall/model/upsample_1/instance_normalization_7/moments/mean", "StatefulPartitionedCall/model/upsample_1/instance_normalization_7/batchnorm/mul"], "attr": {"T": {"type": "DT_FLOAT"}}}, {"name": "StatefulPartitionedCall/model/upsample_1/instance_normalization_7/batchnorm/mul_1", "op": "Mul", "input": ["StatefulPartitionedCall/model/upsample_1/conv2d_transpose/conv2d_transpose", "StatefulPartitionedCall/model/upsample_1/instance_normalization_7/batchnorm/mul"], "attr": {"T": {"type": "DT_FLOAT"}}}, {"name": "StatefulPartitionedCall/model/upsample_1/instance_normalization_7/batchnorm/add_1", "op": "Sub", "input": ["StatefulPartitionedCall/model/upsample_1/instance_normalization_7/batchnorm/mul_1", "StatefulPartitionedCall/model/upsample_1/instance_normalization_7/batchnorm/mul_2"], "attr": {"T": {"type": "DT_FLOAT"}}}, {"name": "StatefulPartitionedCall/model/upsample_1/re_lu_8/Relu", "op": "Relu", "input": ["StatefulPartitionedCall/model/upsample_1/instance_normalization_7/batchnorm/add_1"], "attr": {"T": {"type": "DT_FLOAT"}}}, {"name": "StatefulPartitionedCall/model/concatenate/concat", "op": "ConcatV2", "input": ["StatefulPartitionedCall/model/upsample_1/re_lu_8/Relu", "StatefulPartitionedCall/model/downsample_7/re_lu_6/Relu", "StatefulPartitionedCall/model/concatenate/concat/axis"], "attr": {"Tidx": {"type": "DT_INT32"}, "T": {"type": "DT_FLOAT"}, "N": {"i": "2"}}}, {"name": "StatefulPartitionedCall/model/upsample_2/conv2d_transpose_1/Shape", "op": "Shape", "input": ["StatefulPartitionedCall/model/concatenate/concat"], "attr": {"out_type": {"type": "DT_INT32"}, "T": {"type": "DT_FLOAT"}}}, {"name": "StatefulPartitionedCall/model/upsample_2/conv2d_transpose_1/strided_slice", "op": "StridedSlice", "input": ["StatefulPartitionedCall/model/upsample_2/conv2d_transpose_1/Shape", "StatefulPartitionedCall/model/upsample_2/conv2d_transpose_1/strided_slice/stack", "StatefulPartitionedCall/model/upsample_2/conv2d_transpose_1/strided_slice/stack_1", "StatefulPartitionedCall/model/upsample_2/conv2d_transpose_1/strided_slice/stack_2"], "attr": {"begin_mask": {"i": "0"}, "end_mask": {"i": "0"}, "T": {"type": "DT_INT32"}, "shrink_axis_mask": {"i": "1"}, "new_axis_mask": {"i": "0"}, "ellipsis_mask": {"i": "0"}, "Index": {"type": "DT_INT32"}}}, {"name": "StatefulPartitionedCall/model/upsample_2/conv2d_transpose_1/stack", "op": "Pack", "input": ["StatefulPartitionedCall/model/upsample_2/conv2d_transpose_1/strided_slice", "StatefulPartitionedCall/model/upsample_2/conv2d_transpose_1/stack/1", "StatefulPartitionedCall/model/upsample_2/conv2d_transpose_1/stack/2", "StatefulPartitionedCall/model/upsample_2/conv2d_transpose_1/stack/3"], "attr": {"T": {"type": "DT_INT32"}, "axis": {"i": "0"}, "N": {"i": "4"}}}, {"name": "StatefulPartitionedCall/model/upsample_2/conv2d_transpose_1/conv2d_transpose", "op": "Conv2DBackpropInput", "input": ["StatefulPartitionedCall/model/upsample_2/conv2d_transpose_1/stack", "StatefulPartitionedCall/model/upsample_2/conv2d_transpose_1/conv2d_transpose/ReadVariableOp", "StatefulPartitionedCall/model/concatenate/concat"], "attr": {"use_cudnn_on_gpu": {"b": true}, "data_format": {"s": "TkhXQw=="}, "explicit_paddings": {"list": {}}, "T": {"type": "DT_FLOAT"}, "strides": {"list": {"i": ["1", "2", "2", "1"]}}, "dilations": {"list": {"i": ["1", "1", "1", "1"]}}, "padding": {"s": "U0FNRQ=="}}}, {"name": "StatefulPartitionedCall/model/upsample_2/instance_normalization_8/moments/mean", "op": "Mean", "input": ["StatefulPartitionedCall/model/upsample_2/conv2d_transpose_1/conv2d_transpose", "StatefulPartitionedCall/model/upsample_2/instance_normalization_8/moments/mean/reduction_indices"], "attr": {"Tidx": {"type": "DT_INT32"}, "T": {"type": "DT_FLOAT"}, "keep_dims": {"b": true}}}, {"name": "StatefulPartitionedCall/model/upsample_2/instance_normalization_8/moments/SquaredDifference", "op": "SquaredDifference", "input": ["StatefulPartitionedCall/model/upsample_2/conv2d_transpose_1/conv2d_transpose", "StatefulPartitionedCall/model/upsample_2/instance_normalization_8/moments/mean"], "attr": {"T": {"type": "DT_FLOAT"}}}, {"name": "StatefulPartitionedCall/model/upsample_2/instance_normalization_8/moments/variance", "op": "Mean", "input": ["StatefulPartitionedCall/model/upsample_2/instance_normalization_8/moments/SquaredDifference", "StatefulPartitionedCall/model/upsample_2/instance_normalization_8/moments/variance/reduction_indices"], "attr": {"keep_dims": {"b": true}, "Tidx": {"type": "DT_INT32"}, "T": {"type": "DT_FLOAT"}}}, {"name": "StatefulPartitionedCall/model/upsample_2/instance_normalization_8/batchnorm/add", "op": "AddV2", "input": ["StatefulPartitionedCall/model/upsample_2/instance_normalization_8/moments/variance", "StatefulPartitionedCall/model/upsample_2/instance_normalization_8/batchnorm/add/y"], "attr": {"T": {"type": "DT_FLOAT"}}}, {"name": "StatefulPartitionedCall/model/upsample_2/instance_normalization_8/batchnorm/Rsqrt", "op": "Rsqrt", "input": ["StatefulPartitionedCall/model/upsample_2/instance_normalization_8/batchnorm/add"], "attr": {"T": {"type": "DT_FLOAT"}}}, {"name": "StatefulPartitionedCall/model/upsample_2/instance_normalization_8/batchnorm/mul", "op": "Mul", "input": ["StatefulPartitionedCall/model/upsample_2/instance_normalization_8/batchnorm/Rsqrt", "StatefulPartitionedCall/model/upsample_2/instance_normalization_8/Reshape"], "attr": {"T": {"type": "DT_FLOAT"}}}, {"name": "StatefulPartitionedCall/model/upsample_2/instance_normalization_8/batchnorm/mul_2", "op": "Mul", "input": ["StatefulPartitionedCall/model/upsample_2/instance_normalization_8/moments/mean", "StatefulPartitionedCall/model/upsample_2/instance_normalization_8/batchnorm/mul"], "attr": {"T": {"type": "DT_FLOAT"}}}, {"name": "StatefulPartitionedCall/model/upsample_2/instance_normalization_8/batchnorm/mul_1", "op": "Mul", "input": ["StatefulPartitionedCall/model/upsample_2/conv2d_transpose_1/conv2d_transpose", "StatefulPartitionedCall/model/upsample_2/instance_normalization_8/batchnorm/mul"], "attr": {"T": {"type": "DT_FLOAT"}}}, {"name": "StatefulPartitionedCall/model/upsample_2/instance_normalization_8/batchnorm/sub", "op": "Sub", "input": ["StatefulPartitionedCall/model/upsample_2/instance_normalization_8/Reshape_1", "StatefulPartitionedCall/model/upsample_2/instance_normalization_8/batchnorm/mul_2"], "attr": {"T": {"type": "DT_FLOAT"}}}, {"name": "StatefulPartitionedCall/model/upsample_2/instance_normalization_8/batchnorm/add_1", "op": "AddV2", "input": ["StatefulPartitionedCall/model/upsample_2/instance_normalization_8/batchnorm/mul_1", "StatefulPartitionedCall/model/upsample_2/instance_normalization_8/batchnorm/sub"], "attr": {"T": {"type": "DT_FLOAT"}}}, {"name": "StatefulPartitionedCall/model/upsample_2/re_lu_9/Relu", "op": "Relu", "input": ["StatefulPartitionedCall/model/upsample_2/instance_normalization_8/batchnorm/add_1"], "attr": {"T": {"type": "DT_FLOAT"}}}, {"name": "StatefulPartitionedCall/model/concatenate_1/concat", "op": "ConcatV2", "input": ["StatefulPartitionedCall/model/upsample_2/re_lu_9/Relu", "StatefulPartitionedCall/model/downsample_6/re_lu_5/Relu", "StatefulPartitionedCall/model/concatenate_1/concat/axis"], "attr": {"N": {"i": "2"}, "Tidx": {"type": "DT_INT32"}, "T": {"type": "DT_FLOAT"}}}, {"name": "StatefulPartitionedCall/model/upsample_3/conv2d_transpose_2/Shape", "op": "Shape", "input": ["StatefulPartitionedCall/model/concatenate_1/concat"], "attr": {"T": {"type": "DT_FLOAT"}, "out_type": {"type": "DT_INT32"}}}, {"name": "StatefulPartitionedCall/model/upsample_3/conv2d_transpose_2/strided_slice", "op": "StridedSlice", "input": ["StatefulPartitionedCall/model/upsample_3/conv2d_transpose_2/Shape", "StatefulPartitionedCall/model/upsample_3/conv2d_transpose_2/strided_slice/stack", "StatefulPartitionedCall/model/upsample_3/conv2d_transpose_2/strided_slice/stack_1", "StatefulPartitionedCall/model/upsample_3/conv2d_transpose_2/strided_slice/stack_2"], "attr": {"ellipsis_mask": {"i": "0"}, "end_mask": {"i": "0"}, "shrink_axis_mask": {"i": "1"}, "new_axis_mask": {"i": "0"}, "begin_mask": {"i": "0"}, "Index": {"type": "DT_INT32"}, "T": {"type": "DT_INT32"}}}, {"name": "StatefulPartitionedCall/model/upsample_3/conv2d_transpose_2/stack", "op": "Pack", "input": ["StatefulPartitionedCall/model/upsample_3/conv2d_transpose_2/strided_slice", "StatefulPartitionedCall/model/upsample_3/conv2d_transpose_2/stack/1", "StatefulPartitionedCall/model/upsample_3/conv2d_transpose_2/stack/2", "StatefulPartitionedCall/model/upsample_3/conv2d_transpose_2/stack/3"], "attr": {"T": {"type": "DT_INT32"}, "axis": {"i": "0"}, "N": {"i": "4"}}}, {"name": "StatefulPartitionedCall/model/upsample_3/conv2d_transpose_2/conv2d_transpose", "op": "Conv2DBackpropInput", "input": ["StatefulPartitionedCall/model/upsample_3/conv2d_transpose_2/stack", "StatefulPartitionedCall/model/upsample_3/conv2d_transpose_2/conv2d_transpose/ReadVariableOp", "StatefulPartitionedCall/model/concatenate_1/concat"], "attr": {"explicit_paddings": {"list": {}}, "T": {"type": "DT_FLOAT"}, "dilations": {"list": {"i": ["1", "1", "1", "1"]}}, "use_cudnn_on_gpu": {"b": true}, "strides": {"list": {"i": ["1", "2", "2", "1"]}}, "data_format": {"s": "TkhXQw=="}, "padding": {"s": "U0FNRQ=="}}}, {"name": "StatefulPartitionedCall/model/upsample_3/instance_normalization_9/moments/mean", "op": "Mean", "input": ["StatefulPartitionedCall/model/upsample_3/conv2d_transpose_2/conv2d_transpose", "StatefulPartitionedCall/model/upsample_3/instance_normalization_9/moments/mean/reduction_indices"], "attr": {"keep_dims": {"b": true}, "Tidx": {"type": "DT_INT32"}, "T": {"type": "DT_FLOAT"}}}, {"name": "StatefulPartitionedCall/model/upsample_3/instance_normalization_9/moments/SquaredDifference", "op": "SquaredDifference", "input": ["StatefulPartitionedCall/model/upsample_3/conv2d_transpose_2/conv2d_transpose", "StatefulPartitionedCall/model/upsample_3/instance_normalization_9/moments/mean"], "attr": {"T": {"type": "DT_FLOAT"}}}, {"name": "StatefulPartitionedCall/model/upsample_3/instance_normalization_9/moments/variance", "op": "Mean", "input": ["StatefulPartitionedCall/model/upsample_3/instance_normalization_9/moments/SquaredDifference", "StatefulPartitionedCall/model/upsample_3/instance_normalization_9/moments/variance/reduction_indices"], "attr": {"T": {"type": "DT_FLOAT"}, "Tidx": {"type": "DT_INT32"}, "keep_dims": {"b": true}}}, {"name": "StatefulPartitionedCall/model/upsample_3/instance_normalization_9/batchnorm/add", "op": "AddV2", "input": ["StatefulPartitionedCall/model/upsample_3/instance_normalization_9/moments/variance", "StatefulPartitionedCall/model/upsample_3/instance_normalization_9/batchnorm/add/y"], "attr": {"T": {"type": "DT_FLOAT"}}}, {"name": "StatefulPartitionedCall/model/upsample_3/instance_normalization_9/batchnorm/Rsqrt", "op": "Rsqrt", "input": ["StatefulPartitionedCall/model/upsample_3/instance_normalization_9/batchnorm/add"], "attr": {"T": {"type": "DT_FLOAT"}}}, {"name": "StatefulPartitionedCall/model/upsample_3/instance_normalization_9/batchnorm/mul", "op": "Mul", "input": ["StatefulPartitionedCall/model/upsample_3/instance_normalization_9/batchnorm/Rsqrt", "StatefulPartitionedCall/model/upsample_3/instance_normalization_9/Reshape"], "attr": {"T": {"type": "DT_FLOAT"}}}, {"name": "StatefulPartitionedCall/model/upsample_3/instance_normalization_9/batchnorm/mul_2", "op": "Mul", "input": ["StatefulPartitionedCall/model/upsample_3/instance_normalization_9/moments/mean", "StatefulPartitionedCall/model/upsample_3/instance_normalization_9/batchnorm/mul"], "attr": {"T": {"type": "DT_FLOAT"}}}, {"name": "StatefulPartitionedCall/model/upsample_3/instance_normalization_9/batchnorm/mul_1", "op": "Mul", "input": ["StatefulPartitionedCall/model/upsample_3/conv2d_transpose_2/conv2d_transpose", "StatefulPartitionedCall/model/upsample_3/instance_normalization_9/batchnorm/mul"], "attr": {"T": {"type": "DT_FLOAT"}}}, {"name": "StatefulPartitionedCall/model/upsample_3/instance_normalization_9/batchnorm/sub", "op": "Sub", "input": ["StatefulPartitionedCall/model/upsample_3/instance_normalization_9/Reshape_1", "StatefulPartitionedCall/model/upsample_3/instance_normalization_9/batchnorm/mul_2"], "attr": {"T": {"type": "DT_FLOAT"}}}, {"name": "StatefulPartitionedCall/model/upsample_3/instance_normalization_9/batchnorm/add_1", "op": "AddV2", "input": ["StatefulPartitionedCall/model/upsample_3/instance_normalization_9/batchnorm/mul_1", "StatefulPartitionedCall/model/upsample_3/instance_normalization_9/batchnorm/sub"], "attr": {"T": {"type": "DT_FLOAT"}}}, {"name": "StatefulPartitionedCall/model/upsample_3/re_lu_10/Relu", "op": "Relu", "input": ["StatefulPartitionedCall/model/upsample_3/instance_normalization_9/batchnorm/add_1"], "attr": {"T": {"type": "DT_FLOAT"}}}, {"name": "StatefulPartitionedCall/model/concatenate_2/concat", "op": "ConcatV2", "input": ["StatefulPartitionedCall/model/upsample_3/re_lu_10/Relu", "StatefulPartitionedCall/model/downsample_5/re_lu_4/Relu", "StatefulPartitionedCall/model/concatenate_2/concat/axis"], "attr": {"N": {"i": "2"}, "T": {"type": "DT_FLOAT"}, "Tidx": {"type": "DT_INT32"}}}, {"name": "StatefulPartitionedCall/model/upsample_4/conv2d_transpose_3/Shape", "op": "Shape", "input": ["StatefulPartitionedCall/model/concatenate_2/concat"], "attr": {"out_type": {"type": "DT_INT32"}, "T": {"type": "DT_FLOAT"}}}, {"name": "StatefulPartitionedCall/model/upsample_4/conv2d_transpose_3/strided_slice", "op": "StridedSlice", "input": ["StatefulPartitionedCall/model/upsample_4/conv2d_transpose_3/Shape", "StatefulPartitionedCall/model/upsample_4/conv2d_transpose_3/strided_slice/stack", "StatefulPartitionedCall/model/upsample_4/conv2d_transpose_3/strided_slice/stack_1", "StatefulPartitionedCall/model/upsample_4/conv2d_transpose_3/strided_slice/stack_2"], "attr": {"shrink_axis_mask": {"i": "1"}, "T": {"type": "DT_INT32"}, "begin_mask": {"i": "0"}, "Index": {"type": "DT_INT32"}, "end_mask": {"i": "0"}, "new_axis_mask": {"i": "0"}, "ellipsis_mask": {"i": "0"}}}, {"name": "StatefulPartitionedCall/model/upsample_4/conv2d_transpose_3/stack", "op": "Pack", "input": ["StatefulPartitionedCall/model/upsample_4/conv2d_transpose_3/strided_slice", "StatefulPartitionedCall/model/upsample_4/conv2d_transpose_3/stack/1", "StatefulPartitionedCall/model/upsample_4/conv2d_transpose_3/stack/2", "StatefulPartitionedCall/model/upsample_4/conv2d_transpose_3/stack/3"], "attr": {"T": {"type": "DT_INT32"}, "N": {"i": "4"}, "axis": {"i": "0"}}}, {"name": "StatefulPartitionedCall/model/upsample_4/conv2d_transpose_3/conv2d_transpose", "op": "Conv2DBackpropInput", "input": ["StatefulPartitionedCall/model/upsample_4/conv2d_transpose_3/stack", "StatefulPartitionedCall/model/upsample_4/conv2d_transpose_3/conv2d_transpose/ReadVariableOp", "StatefulPartitionedCall/model/concatenate_2/concat"], "attr": {"data_format": {"s": "TkhXQw=="}, "padding": {"s": "U0FNRQ=="}, "explicit_paddings": {"list": {}}, "dilations": {"list": {"i": ["1", "1", "1", "1"]}}, "use_cudnn_on_gpu": {"b": true}, "T": {"type": "DT_FLOAT"}, "strides": {"list": {"i": ["1", "2", "2", "1"]}}}}, {"name": "StatefulPartitionedCall/model/upsample_4/instance_normalization_10/moments/mean", "op": "Mean", "input": ["StatefulPartitionedCall/model/upsample_4/conv2d_transpose_3/conv2d_transpose", "StatefulPartitionedCall/model/upsample_4/instance_normalization_10/moments/mean/reduction_indices"], "attr": {"keep_dims": {"b": true}, "T": {"type": "DT_FLOAT"}, "Tidx": {"type": "DT_INT32"}}}, {"name": "StatefulPartitionedCall/model/upsample_4/instance_normalization_10/moments/SquaredDifference", "op": "SquaredDifference", "input": ["StatefulPartitionedCall/model/upsample_4/conv2d_transpose_3/conv2d_transpose", "StatefulPartitionedCall/model/upsample_4/instance_normalization_10/moments/mean"], "attr": {"T": {"type": "DT_FLOAT"}}}, {"name": "StatefulPartitionedCall/model/upsample_4/instance_normalization_10/moments/variance", "op": "Mean", "input": ["StatefulPartitionedCall/model/upsample_4/instance_normalization_10/moments/SquaredDifference", "StatefulPartitionedCall/model/upsample_4/instance_normalization_10/moments/variance/reduction_indices"], "attr": {"Tidx": {"type": "DT_INT32"}, "keep_dims": {"b": true}, "T": {"type": "DT_FLOAT"}}}, {"name": "StatefulPartitionedCall/model/upsample_4/instance_normalization_10/batchnorm/add", "op": "AddV2", "input": ["StatefulPartitionedCall/model/upsample_4/instance_normalization_10/moments/variance", "StatefulPartitionedCall/model/upsample_4/instance_normalization_10/batchnorm/add/y"], "attr": {"T": {"type": "DT_FLOAT"}}}, {"name": "StatefulPartitionedCall/model/upsample_4/instance_normalization_10/batchnorm/Rsqrt", "op": "Rsqrt", "input": ["StatefulPartitionedCall/model/upsample_4/instance_normalization_10/batchnorm/add"], "attr": {"T": {"type": "DT_FLOAT"}}}, {"name": "StatefulPartitionedCall/model/upsample_4/instance_normalization_10/batchnorm/mul", "op": "Mul", "input": ["StatefulPartitionedCall/model/upsample_4/instance_normalization_10/batchnorm/Rsqrt", "StatefulPartitionedCall/model/upsample_4/instance_normalization_10/Reshape"], "attr": {"T": {"type": "DT_FLOAT"}}}, {"name": "StatefulPartitionedCall/model/upsample_4/instance_normalization_10/batchnorm/mul_2", "op": "Mul", "input": ["StatefulPartitionedCall/model/upsample_4/instance_normalization_10/moments/mean", "StatefulPartitionedCall/model/upsample_4/instance_normalization_10/batchnorm/mul"], "attr": {"T": {"type": "DT_FLOAT"}}}, {"name": "StatefulPartitionedCall/model/upsample_4/instance_normalization_10/batchnorm/mul_1", "op": "Mul", "input": ["StatefulPartitionedCall/model/upsample_4/conv2d_transpose_3/conv2d_transpose", "StatefulPartitionedCall/model/upsample_4/instance_normalization_10/batchnorm/mul"], "attr": {"T": {"type": "DT_FLOAT"}}}, {"name": "StatefulPartitionedCall/model/upsample_4/instance_normalization_10/batchnorm/sub", "op": "Sub", "input": ["StatefulPartitionedCall/model/upsample_4/instance_normalization_10/Reshape_1", "StatefulPartitionedCall/model/upsample_4/instance_normalization_10/batchnorm/mul_2"], "attr": {"T": {"type": "DT_FLOAT"}}}, {"name": "StatefulPartitionedCall/model/upsample_4/instance_normalization_10/batchnorm/add_1", "op": "AddV2", "input": ["StatefulPartitionedCall/model/upsample_4/instance_normalization_10/batchnorm/mul_1", "StatefulPartitionedCall/model/upsample_4/instance_normalization_10/batchnorm/sub"], "attr": {"T": {"type": "DT_FLOAT"}}}, {"name": "StatefulPartitionedCall/model/upsample_4/re_lu_11/Relu", "op": "Relu", "input": ["StatefulPartitionedCall/model/upsample_4/instance_normalization_10/batchnorm/add_1"], "attr": {"T": {"type": "DT_FLOAT"}}}, {"name": "StatefulPartitionedCall/model/concatenate_3/concat", "op": "ConcatV2", "input": ["StatefulPartitionedCall/model/upsample_4/re_lu_11/Relu", "StatefulPartitionedCall/model/downsample_4/re_lu_3/Relu", "StatefulPartitionedCall/model/concatenate_3/concat/axis"], "attr": {"Tidx": {"type": "DT_INT32"}, "T": {"type": "DT_FLOAT"}, "N": {"i": "2"}}}, {"name": "StatefulPartitionedCall/model/upsample_5/conv2d_transpose_4/Shape", "op": "Shape", "input": ["StatefulPartitionedCall/model/concatenate_3/concat"], "attr": {"out_type": {"type": "DT_INT32"}, "T": {"type": "DT_FLOAT"}}}, {"name": "StatefulPartitionedCall/model/upsample_5/conv2d_transpose_4/strided_slice", "op": "StridedSlice", "input": ["StatefulPartitionedCall/model/upsample_5/conv2d_transpose_4/Shape", "StatefulPartitionedCall/model/upsample_5/conv2d_transpose_4/strided_slice/stack", "StatefulPartitionedCall/model/upsample_5/conv2d_transpose_4/strided_slice/stack_1", "StatefulPartitionedCall/model/upsample_5/conv2d_transpose_4/strided_slice/stack_2"], "attr": {"ellipsis_mask": {"i": "0"}, "T": {"type": "DT_INT32"}, "new_axis_mask": {"i": "0"}, "Index": {"type": "DT_INT32"}, "begin_mask": {"i": "0"}, "shrink_axis_mask": {"i": "1"}, "end_mask": {"i": "0"}}}, {"name": "StatefulPartitionedCall/model/upsample_5/conv2d_transpose_4/stack", "op": "Pack", "input": ["StatefulPartitionedCall/model/upsample_5/conv2d_transpose_4/strided_slice", "StatefulPartitionedCall/model/upsample_5/conv2d_transpose_4/stack/1", "StatefulPartitionedCall/model/upsample_5/conv2d_transpose_4/stack/2", "StatefulPartitionedCall/model/upsample_5/conv2d_transpose_4/stack/3"], "attr": {"T": {"type": "DT_INT32"}, "N": {"i": "4"}, "axis": {"i": "0"}}}, {"name": "StatefulPartitionedCall/model/upsample_5/conv2d_transpose_4/conv2d_transpose", "op": "Conv2DBackpropInput", "input": ["StatefulPartitionedCall/model/upsample_5/conv2d_transpose_4/stack", "StatefulPartitionedCall/model/upsample_5/conv2d_transpose_4/conv2d_transpose/ReadVariableOp", "StatefulPartitionedCall/model/concatenate_3/concat"], "attr": {"use_cudnn_on_gpu": {"b": true}, "dilations": {"list": {"i": ["1", "1", "1", "1"]}}, "padding": {"s": "U0FNRQ=="}, "T": {"type": "DT_FLOAT"}, "strides": {"list": {"i": ["1", "2", "2", "1"]}}, "data_format": {"s": "TkhXQw=="}, "explicit_paddings": {"list": {}}}}, {"name": "StatefulPartitionedCall/model/upsample_5/instance_normalization_11/moments/mean", "op": "Mean", "input": ["StatefulPartitionedCall/model/upsample_5/conv2d_transpose_4/conv2d_transpose", "StatefulPartitionedCall/model/upsample_5/instance_normalization_11/moments/mean/reduction_indices"], "attr": {"keep_dims": {"b": true}, "T": {"type": "DT_FLOAT"}, "Tidx": {"type": "DT_INT32"}}}, {"name": "StatefulPartitionedCall/model/upsample_5/instance_normalization_11/moments/SquaredDifference", "op": "SquaredDifference", "input": ["StatefulPartitionedCall/model/upsample_5/conv2d_transpose_4/conv2d_transpose", "StatefulPartitionedCall/model/upsample_5/instance_normalization_11/moments/mean"], "attr": {"T": {"type": "DT_FLOAT"}}}, {"name": "StatefulPartitionedCall/model/upsample_5/instance_normalization_11/moments/variance", "op": "Mean", "input": ["StatefulPartitionedCall/model/upsample_5/instance_normalization_11/moments/SquaredDifference", "StatefulPartitionedCall/model/upsample_5/instance_normalization_11/moments/variance/reduction_indices"], "attr": {"keep_dims": {"b": true}, "T": {"type": "DT_FLOAT"}, "Tidx": {"type": "DT_INT32"}}}, {"name": "StatefulPartitionedCall/model/upsample_5/instance_normalization_11/batchnorm/add", "op": "AddV2", "input": ["StatefulPartitionedCall/model/upsample_5/instance_normalization_11/moments/variance", "StatefulPartitionedCall/model/upsample_5/instance_normalization_11/batchnorm/add/y"], "attr": {"T": {"type": "DT_FLOAT"}}}, {"name": "StatefulPartitionedCall/model/upsample_5/instance_normalization_11/batchnorm/Rsqrt", "op": "Rsqrt", "input": ["StatefulPartitionedCall/model/upsample_5/instance_normalization_11/batchnorm/add"], "attr": {"T": {"type": "DT_FLOAT"}}}, {"name": "StatefulPartitionedCall/model/upsample_5/instance_normalization_11/batchnorm/mul", "op": "Mul", "input": ["StatefulPartitionedCall/model/upsample_5/instance_normalization_11/batchnorm/Rsqrt", "StatefulPartitionedCall/model/upsample_5/instance_normalization_11/Reshape"], "attr": {"T": {"type": "DT_FLOAT"}}}, {"name": "StatefulPartitionedCall/model/upsample_5/instance_normalization_11/batchnorm/mul_2", "op": "Mul", "input": ["StatefulPartitionedCall/model/upsample_5/instance_normalization_11/moments/mean", "StatefulPartitionedCall/model/upsample_5/instance_normalization_11/batchnorm/mul"], "attr": {"T": {"type": "DT_FLOAT"}}}, {"name": "StatefulPartitionedCall/model/upsample_5/instance_normalization_11/batchnorm/mul_1", "op": "Mul", "input": ["StatefulPartitionedCall/model/upsample_5/conv2d_transpose_4/conv2d_transpose", "StatefulPartitionedCall/model/upsample_5/instance_normalization_11/batchnorm/mul"], "attr": {"T": {"type": "DT_FLOAT"}}}, {"name": "StatefulPartitionedCall/model/upsample_5/instance_normalization_11/batchnorm/sub", "op": "Sub", "input": ["StatefulPartitionedCall/model/upsample_5/instance_normalization_11/Reshape_1", "StatefulPartitionedCall/model/upsample_5/instance_normalization_11/batchnorm/mul_2"], "attr": {"T": {"type": "DT_FLOAT"}}}, {"name": "StatefulPartitionedCall/model/upsample_5/instance_normalization_11/batchnorm/add_1", "op": "AddV2", "input": ["StatefulPartitionedCall/model/upsample_5/instance_normalization_11/batchnorm/mul_1", "StatefulPartitionedCall/model/upsample_5/instance_normalization_11/batchnorm/sub"], "attr": {"T": {"type": "DT_FLOAT"}}}, {"name": "StatefulPartitionedCall/model/upsample_5/re_lu_12/Relu", "op": "Relu", "input": ["StatefulPartitionedCall/model/upsample_5/instance_normalization_11/batchnorm/add_1"], "attr": {"T": {"type": "DT_FLOAT"}}}, {"name": "StatefulPartitionedCall/model/concatenate_4/concat", "op": "ConcatV2", "input": ["StatefulPartitionedCall/model/upsample_5/re_lu_12/Relu", "StatefulPartitionedCall/model/downsample_3/re_lu_2/Relu", "StatefulPartitionedCall/model/concatenate_4/concat/axis"], "attr": {"N": {"i": "2"}, "T": {"type": "DT_FLOAT"}, "Tidx": {"type": "DT_INT32"}}}, {"name": "StatefulPartitionedCall/model/upsample_6/conv2d_transpose_5/Shape", "op": "Shape", "input": ["StatefulPartitionedCall/model/concatenate_4/concat"], "attr": {"T": {"type": "DT_FLOAT"}, "out_type": {"type": "DT_INT32"}}}, {"name": "StatefulPartitionedCall/model/upsample_6/conv2d_transpose_5/strided_slice", "op": "StridedSlice", "input": ["StatefulPartitionedCall/model/upsample_6/conv2d_transpose_5/Shape", "StatefulPartitionedCall/model/upsample_6/conv2d_transpose_5/strided_slice/stack", "StatefulPartitionedCall/model/upsample_6/conv2d_transpose_5/strided_slice/stack_1", "StatefulPartitionedCall/model/upsample_6/conv2d_transpose_5/strided_slice/stack_2"], "attr": {"ellipsis_mask": {"i": "0"}, "new_axis_mask": {"i": "0"}, "end_mask": {"i": "0"}, "Index": {"type": "DT_INT32"}, "begin_mask": {"i": "0"}, "shrink_axis_mask": {"i": "1"}, "T": {"type": "DT_INT32"}}}, {"name": "StatefulPartitionedCall/model/upsample_6/conv2d_transpose_5/stack", "op": "Pack", "input": ["StatefulPartitionedCall/model/upsample_6/conv2d_transpose_5/strided_slice", "StatefulPartitionedCall/model/upsample_6/conv2d_transpose_5/stack/1", "StatefulPartitionedCall/model/upsample_6/conv2d_transpose_5/stack/2", "StatefulPartitionedCall/model/upsample_6/conv2d_transpose_5/stack/3"], "attr": {"T": {"type": "DT_INT32"}, "axis": {"i": "0"}, "N": {"i": "4"}}}, {"name": "StatefulPartitionedCall/model/upsample_6/conv2d_transpose_5/conv2d_transpose", "op": "Conv2DBackpropInput", "input": ["StatefulPartitionedCall/model/upsample_6/conv2d_transpose_5/stack", "StatefulPartitionedCall/model/upsample_6/conv2d_transpose_5/conv2d_transpose/ReadVariableOp", "StatefulPartitionedCall/model/concatenate_4/concat"], "attr": {"dilations": {"list": {"i": ["1", "1", "1", "1"]}}, "padding": {"s": "U0FNRQ=="}, "explicit_paddings": {"list": {}}, "data_format": {"s": "TkhXQw=="}, "use_cudnn_on_gpu": {"b": true}, "strides": {"list": {"i": ["1", "2", "2", "1"]}}, "T": {"type": "DT_FLOAT"}}}, {"name": "StatefulPartitionedCall/model/upsample_6/instance_normalization_12/moments/mean", "op": "Mean", "input": ["StatefulPartitionedCall/model/upsample_6/conv2d_transpose_5/conv2d_transpose", "StatefulPartitionedCall/model/upsample_6/instance_normalization_12/moments/mean/reduction_indices"], "attr": {"Tidx": {"type": "DT_INT32"}, "T": {"type": "DT_FLOAT"}, "keep_dims": {"b": true}}}, {"name": "StatefulPartitionedCall/model/upsample_6/instance_normalization_12/moments/SquaredDifference", "op": "SquaredDifference", "input": ["StatefulPartitionedCall/model/upsample_6/conv2d_transpose_5/conv2d_transpose", "StatefulPartitionedCall/model/upsample_6/instance_normalization_12/moments/mean"], "attr": {"T": {"type": "DT_FLOAT"}}}, {"name": "StatefulPartitionedCall/model/upsample_6/instance_normalization_12/moments/variance", "op": "Mean", "input": ["StatefulPartitionedCall/model/upsample_6/instance_normalization_12/moments/SquaredDifference", "StatefulPartitionedCall/model/upsample_6/instance_normalization_12/moments/variance/reduction_indices"], "attr": {"Tidx": {"type": "DT_INT32"}, "T": {"type": "DT_FLOAT"}, "keep_dims": {"b": true}}}, {"name": "StatefulPartitionedCall/model/upsample_6/instance_normalization_12/batchnorm/add", "op": "AddV2", "input": ["StatefulPartitionedCall/model/upsample_6/instance_normalization_12/moments/variance", "StatefulPartitionedCall/model/upsample_6/instance_normalization_12/batchnorm/add/y"], "attr": {"T": {"type": "DT_FLOAT"}}}, {"name": "StatefulPartitionedCall/model/upsample_6/instance_normalization_12/batchnorm/Rsqrt", "op": "Rsqrt", "input": ["StatefulPartitionedCall/model/upsample_6/instance_normalization_12/batchnorm/add"], "attr": {"T": {"type": "DT_FLOAT"}}}, {"name": "StatefulPartitionedCall/model/upsample_6/instance_normalization_12/batchnorm/mul", "op": "Mul", "input": ["StatefulPartitionedCall/model/upsample_6/instance_normalization_12/batchnorm/Rsqrt", "StatefulPartitionedCall/model/upsample_6/instance_normalization_12/Reshape"], "attr": {"T": {"type": "DT_FLOAT"}}}, {"name": "StatefulPartitionedCall/model/upsample_6/instance_normalization_12/batchnorm/mul_2", "op": "Mul", "input": ["StatefulPartitionedCall/model/upsample_6/instance_normalization_12/moments/mean", "StatefulPartitionedCall/model/upsample_6/instance_normalization_12/batchnorm/mul"], "attr": {"T": {"type": "DT_FLOAT"}}}, {"name": "StatefulPartitionedCall/model/upsample_6/instance_normalization_12/batchnorm/mul_1", "op": "Mul", "input": ["StatefulPartitionedCall/model/upsample_6/conv2d_transpose_5/conv2d_transpose", "StatefulPartitionedCall/model/upsample_6/instance_normalization_12/batchnorm/mul"], "attr": {"T": {"type": "DT_FLOAT"}}}, {"name": "StatefulPartitionedCall/model/upsample_6/instance_normalization_12/batchnorm/sub", "op": "Sub", "input": ["StatefulPartitionedCall/model/upsample_6/instance_normalization_12/Reshape_1", "StatefulPartitionedCall/model/upsample_6/instance_normalization_12/batchnorm/mul_2"], "attr": {"T": {"type": "DT_FLOAT"}}}, {"name": "StatefulPartitionedCall/model/upsample_6/instance_normalization_12/batchnorm/add_1", "op": "AddV2", "input": ["StatefulPartitionedCall/model/upsample_6/instance_normalization_12/batchnorm/mul_1", "StatefulPartitionedCall/model/upsample_6/instance_normalization_12/batchnorm/sub"], "attr": {"T": {"type": "DT_FLOAT"}}}, {"name": "StatefulPartitionedCall/model/upsample_6/re_lu_13/Relu", "op": "Relu", "input": ["StatefulPartitionedCall/model/upsample_6/instance_normalization_12/batchnorm/add_1"], "attr": {"T": {"type": "DT_FLOAT"}}}, {"name": "StatefulPartitionedCall/model/concatenate_5/concat", "op": "ConcatV2", "input": ["StatefulPartitionedCall/model/upsample_6/re_lu_13/Relu", "StatefulPartitionedCall/model/downsample_2/re_lu_1/Relu", "StatefulPartitionedCall/model/concatenate_5/concat/axis"], "attr": {"N": {"i": "2"}, "T": {"type": "DT_FLOAT"}, "Tidx": {"type": "DT_INT32"}}}, {"name": "StatefulPartitionedCall/model/upsample_7/conv2d_transpose_6/Shape", "op": "Shape", "input": ["StatefulPartitionedCall/model/concatenate_5/concat"], "attr": {"T": {"type": "DT_FLOAT"}, "out_type": {"type": "DT_INT32"}}}, {"name": "StatefulPartitionedCall/model/upsample_7/conv2d_transpose_6/strided_slice", "op": "StridedSlice", "input": ["StatefulPartitionedCall/model/upsample_7/conv2d_transpose_6/Shape", "StatefulPartitionedCall/model/upsample_7/conv2d_transpose_6/strided_slice/stack", "StatefulPartitionedCall/model/upsample_7/conv2d_transpose_6/strided_slice/stack_1", "StatefulPartitionedCall/model/upsample_7/conv2d_transpose_6/strided_slice/stack_2"], "attr": {"Index": {"type": "DT_INT32"}, "shrink_axis_mask": {"i": "1"}, "new_axis_mask": {"i": "0"}, "T": {"type": "DT_INT32"}, "ellipsis_mask": {"i": "0"}, "end_mask": {"i": "0"}, "begin_mask": {"i": "0"}}}, {"name": "StatefulPartitionedCall/model/upsample_7/conv2d_transpose_6/stack", "op": "Pack", "input": ["StatefulPartitionedCall/model/upsample_7/conv2d_transpose_6/strided_slice", "StatefulPartitionedCall/model/upsample_7/conv2d_transpose_6/stack/1", "StatefulPartitionedCall/model/upsample_7/conv2d_transpose_6/stack/2", "StatefulPartitionedCall/model/upsample_7/conv2d_transpose_6/stack/3"], "attr": {"T": {"type": "DT_INT32"}, "N": {"i": "4"}, "axis": {"i": "0"}}}, {"name": "StatefulPartitionedCall/model/upsample_7/conv2d_transpose_6/conv2d_transpose", "op": "Conv2DBackpropInput", "input": ["StatefulPartitionedCall/model/upsample_7/conv2d_transpose_6/stack", "StatefulPartitionedCall/model/upsample_7/conv2d_transpose_6/conv2d_transpose/ReadVariableOp", "StatefulPartitionedCall/model/concatenate_5/concat"], "attr": {"T": {"type": "DT_FLOAT"}, "use_cudnn_on_gpu": {"b": true}, "dilations": {"list": {"i": ["1", "1", "1", "1"]}}, "data_format": {"s": "TkhXQw=="}, "explicit_paddings": {"list": {}}, "strides": {"list": {"i": ["1", "2", "2", "1"]}}, "padding": {"s": "U0FNRQ=="}}}, {"name": "StatefulPartitionedCall/model/upsample_7/instance_normalization_13/moments/mean", "op": "Mean", "input": ["StatefulPartitionedCall/model/upsample_7/conv2d_transpose_6/conv2d_transpose", "StatefulPartitionedCall/model/upsample_7/instance_normalization_13/moments/mean/reduction_indices"], "attr": {"T": {"type": "DT_FLOAT"}, "Tidx": {"type": "DT_INT32"}, "keep_dims": {"b": true}}}, {"name": "StatefulPartitionedCall/model/upsample_7/instance_normalization_13/moments/SquaredDifference", "op": "SquaredDifference", "input": ["StatefulPartitionedCall/model/upsample_7/conv2d_transpose_6/conv2d_transpose", "StatefulPartitionedCall/model/upsample_7/instance_normalization_13/moments/mean"], "attr": {"T": {"type": "DT_FLOAT"}}}, {"name": "StatefulPartitionedCall/model/upsample_7/instance_normalization_13/moments/variance", "op": "Mean", "input": ["StatefulPartitionedCall/model/upsample_7/instance_normalization_13/moments/SquaredDifference", "StatefulPartitionedCall/model/upsample_7/instance_normalization_13/moments/variance/reduction_indices"], "attr": {"Tidx": {"type": "DT_INT32"}, "T": {"type": "DT_FLOAT"}, "keep_dims": {"b": true}}}, {"name": "StatefulPartitionedCall/model/upsample_7/instance_normalization_13/batchnorm/add", "op": "AddV2", "input": ["StatefulPartitionedCall/model/upsample_7/instance_normalization_13/moments/variance", "StatefulPartitionedCall/model/upsample_7/instance_normalization_13/batchnorm/add/y"], "attr": {"T": {"type": "DT_FLOAT"}}}, {"name": "StatefulPartitionedCall/model/upsample_7/instance_normalization_13/batchnorm/Rsqrt", "op": "Rsqrt", "input": ["StatefulPartitionedCall/model/upsample_7/instance_normalization_13/batchnorm/add"], "attr": {"T": {"type": "DT_FLOAT"}}}, {"name": "StatefulPartitionedCall/model/upsample_7/instance_normalization_13/batchnorm/mul", "op": "Mul", "input": ["StatefulPartitionedCall/model/upsample_7/instance_normalization_13/batchnorm/Rsqrt", "StatefulPartitionedCall/model/upsample_7/instance_normalization_13/Reshape"], "attr": {"T": {"type": "DT_FLOAT"}}}, {"name": "StatefulPartitionedCall/model/upsample_7/instance_normalization_13/batchnorm/mul_2", "op": "Mul", "input": ["StatefulPartitionedCall/model/upsample_7/instance_normalization_13/moments/mean", "StatefulPartitionedCall/model/upsample_7/instance_normalization_13/batchnorm/mul"], "attr": {"T": {"type": "DT_FLOAT"}}}, {"name": "StatefulPartitionedCall/model/upsample_7/instance_normalization_13/batchnorm/mul_1", "op": "Mul", "input": ["StatefulPartitionedCall/model/upsample_7/conv2d_transpose_6/conv2d_transpose", "StatefulPartitionedCall/model/upsample_7/instance_normalization_13/batchnorm/mul"], "attr": {"T": {"type": "DT_FLOAT"}}}, {"name": "StatefulPartitionedCall/model/upsample_7/instance_normalization_13/batchnorm/sub", "op": "Sub", "input": ["StatefulPartitionedCall/model/upsample_7/instance_normalization_13/Reshape_1", "StatefulPartitionedCall/model/upsample_7/instance_normalization_13/batchnorm/mul_2"], "attr": {"T": {"type": "DT_FLOAT"}}}, {"name": "StatefulPartitionedCall/model/upsample_7/instance_normalization_13/batchnorm/add_1", "op": "AddV2", "input": ["StatefulPartitionedCall/model/upsample_7/instance_normalization_13/batchnorm/mul_1", "StatefulPartitionedCall/model/upsample_7/instance_normalization_13/batchnorm/sub"], "attr": {"T": {"type": "DT_FLOAT"}}}, {"name": "StatefulPartitionedCall/model/upsample_7/re_lu_14/Relu", "op": "Relu", "input": ["StatefulPartitionedCall/model/upsample_7/instance_normalization_13/batchnorm/add_1"], "attr": {"T": {"type": "DT_FLOAT"}}}, {"name": "StatefulPartitionedCall/model/concatenate_6/concat", "op": "ConcatV2", "input": ["StatefulPartitionedCall/model/upsample_7/re_lu_14/Relu", "StatefulPartitionedCall/model/downsample_1/re_lu/Relu", "StatefulPartitionedCall/model/concatenate_6/concat/axis"], "attr": {"Tidx": {"type": "DT_INT32"}, "T": {"type": "DT_FLOAT"}, "N": {"i": "2"}}}, {"name": "StatefulPartitionedCall/model/conv2d_transpose_7/Shape", "op": "Shape", "input": ["StatefulPartitionedCall/model/concatenate_6/concat"], "attr": {"out_type": {"type": "DT_INT32"}, "T": {"type": "DT_FLOAT"}}}, {"name": "StatefulPartitionedCall/model/conv2d_transpose_7/strided_slice", "op": "StridedSlice", "input": ["StatefulPartitionedCall/model/conv2d_transpose_7/Shape", "StatefulPartitionedCall/model/conv2d_transpose_7/strided_slice/stack", "StatefulPartitionedCall/model/conv2d_transpose_7/strided_slice/stack_1", "StatefulPartitionedCall/model/conv2d_transpose_7/strided_slice/stack_2"], "attr": {"T": {"type": "DT_INT32"}, "begin_mask": {"i": "0"}, "Index": {"type": "DT_INT32"}, "shrink_axis_mask": {"i": "1"}, "new_axis_mask": {"i": "0"}, "ellipsis_mask": {"i": "0"}, "end_mask": {"i": "0"}}}, {"name": "StatefulPartitionedCall/model/conv2d_transpose_7/stack", "op": "Pack", "input": ["StatefulPartitionedCall/model/conv2d_transpose_7/strided_slice", "StatefulPartitionedCall/model/conv2d_transpose_7/stack/1", "StatefulPartitionedCall/model/conv2d_transpose_7/stack/2", "StatefulPartitionedCall/model/conv2d_transpose_7/stack/3"], "attr": {"axis": {"i": "0"}, "N": {"i": "4"}, "T": {"type": "DT_INT32"}}}, {"name": "StatefulPartitionedCall/model/conv2d_transpose_7/conv2d_transpose", "op": "Conv2DBackpropInput", "input": ["StatefulPartitionedCall/model/conv2d_transpose_7/stack", "StatefulPartitionedCall/model/conv2d_transpose_7/conv2d_transpose/ReadVariableOp", "StatefulPartitionedCall/model/concatenate_6/concat"], "attr": {"padding": {"s": "U0FNRQ=="}, "explicit_paddings": {"list": {}}, "data_format": {"s": "TkhXQw=="}, "strides": {"list": {"i": ["1", "2", "2", "1"]}}, "dilations": {"list": {"i": ["1", "1", "1", "1"]}}, "T": {"type": "DT_FLOAT"}, "use_cudnn_on_gpu": {"b": true}}}, {"name": "StatefulPartitionedCall/model/conv2d_transpose_7/BiasAdd", "op": "BiasAdd", "input": ["StatefulPartitionedCall/model/conv2d_transpose_7/conv2d_transpose", "StatefulPartitionedCall/model/conv2d_transpose_7/BiasAdd/ReadVariableOp"], "attr": {"data_format": {"s": "TkhXQw=="}, "T": {"type": "DT_FLOAT"}}}, {"name": "StatefulPartitionedCall/model/conv2d_transpose_7/Tanh", "op": "Tanh", "input": ["StatefulPartitionedCall/model/conv2d_transpose_7/BiasAdd"], "attr": {"T": {"type": "DT_FLOAT"}}}, {"name": "Identity", "op": "Identity", "input": ["StatefulPartitionedCall/model/conv2d_transpose_7/Tanh"], "attr": {"T": {"type": "DT_FLOAT"}}}], "library": {}, "versions": {"producer": 1205}}, "weightsManifest": [{"paths": ["group1-shard1of52.bin", "group1-shard2of52.bin", "group1-shard3of52.bin", "group1-shard4of52.bin", "group1-shard5of52.bin", "group1-shard6of52.bin", "group1-shard7of52.bin", "group1-shard8of52.bin", "group1-shard9of52.bin", "group1-shard10of52.bin", "group1-shard11of52.bin", "group1-shard12of52.bin", "group1-shard13of52.bin", "group1-shard14of52.bin", "group1-shard15of52.bin", "group1-shard16of52.bin", "group1-shard17of52.bin", "group1-shard18of52.bin", "group1-shard19of52.bin", "group1-shard20of52.bin", "group1-shard21of52.bin", "group1-shard22of52.bin", "group1-shard23of52.bin", "group1-shard24of52.bin", "group1-shard25of52.bin", "group1-shard26of52.bin", "group1-shard27of52.bin", "group1-shard28of52.bin", "group1-shard29of52.bin", "group1-shard30of52.bin", "group1-shard31of52.bin", "group1-shard32of52.bin", "group1-shard33of52.bin", "group1-shard34of52.bin", "group1-shard35of52.bin", "group1-shard36of52.bin", "group1-shard37of52.bin", "group1-shard38of52.bin", "group1-shard39of52.bin", "group1-shard40of52.bin", "group1-shard41of52.bin", "group1-shard42of52.bin", "group1-shard43of52.bin", "group1-shard44of52.bin", "group1-shard45of52.bin", "group1-shard46of52.bin", "group1-shard47of52.bin", "group1-shard48of52.bin", "group1-shard49of52.bin", "group1-shard50of52.bin", "group1-shard51of52.bin", "group1-shard52of52.bin"], "weights": [{"name": "StatefulPartitionedCall/model/conv2d_transpose_7/strided_slice/stack", "shape": [1], "dtype": "int32"}, {"name": "StatefulPartitionedCall/model/conv2d_transpose_7/strided_slice/stack_1", "shape": [1], "dtype": "int32"}, {"name": "StatefulPartitionedCall/model/conv2d_transpose_7/strided_slice/stack_2", "shape": [1], "dtype": "int32"}, {"name": "StatefulPartitionedCall/model/conv2d_transpose_7/stack/1", "shape": [], "dtype": "int32"}, {"name": "StatefulPartitionedCall/model/conv2d_transpose_7/stack/2", "shape": [], "dtype": "int32"}, {"name": "StatefulPartitionedCall/model/conv2d_transpose_7/stack/3", "shape": [], "dtype": "int32"}, {"name": "StatefulPartitionedCall/model/conv2d_transpose_7/conv2d_transpose/ReadVariableOp", "shape": [4, 4, 3, 128], "dtype": "float32"}, {"name": "StatefulPartitionedCall/model/upsample_7/instance_normalization_13/Reshape_1", "shape": [1, 1, 1, 64], "dtype": "float32"}, {"name": "StatefulPartitionedCall/model/upsample_7/conv2d_transpose_6/strided_slice/stack", "shape": [1], "dtype": "int32"}, {"name": "StatefulPartitionedCall/model/upsample_7/conv2d_transpose_6/strided_slice/stack_1", "shape": [1], "dtype": "int32"}, {"name": "StatefulPartitionedCall/model/upsample_7/conv2d_transpose_6/strided_slice/stack_2", "shape": [1], "dtype": "int32"}, {"name": "StatefulPartitionedCall/model/upsample_7/conv2d_transpose_6/stack/1", "shape": [], "dtype": "int32"}, {"name": "StatefulPartitionedCall/model/upsample_7/conv2d_transpose_6/stack/2", "shape": [], "dtype": "int32"}, {"name": "StatefulPartitionedCall/model/upsample_7/conv2d_transpose_6/stack/3", "shape": [], "dtype": "int32"}, {"name": "StatefulPartitionedCall/model/upsample_7/conv2d_transpose_6/conv2d_transpose/ReadVariableOp", "shape": [4, 4, 64, 256], "dtype": "float32"}, {"name": "StatefulPartitionedCall/model/upsample_6/instance_normalization_12/Reshape_1", "shape": [1, 1, 1, 128], "dtype": "float32"}, {"name": "StatefulPartitionedCall/model/upsample_6/conv2d_transpose_5/strided_slice/stack", "shape": [1], "dtype": "int32"}, {"name": "StatefulPartitionedCall/model/upsample_6/conv2d_transpose_5/strided_slice/stack_1", "shape": [1], "dtype": "int32"}, {"name": "StatefulPartitionedCall/model/upsample_6/conv2d_transpose_5/strided_slice/stack_2", "shape": [1], "dtype": "int32"}, {"name": "StatefulPartitionedCall/model/upsample_6/conv2d_transpose_5/stack/1", "shape": [], "dtype": "int32"}, {"name": "StatefulPartitionedCall/model/upsample_6/conv2d_transpose_5/stack/2", "shape": [], "dtype": "int32"}, {"name": "StatefulPartitionedCall/model/upsample_6/conv2d_transpose_5/stack/3", "shape": [], "dtype": "int32"}, {"name": "StatefulPartitionedCall/model/upsample_6/conv2d_transpose_5/conv2d_transpose/ReadVariableOp", "shape": [4, 4, 128, 512], "dtype": "float32"}, {"name": "StatefulPartitionedCall/model/upsample_5/instance_normalization_11/Reshape_1", "shape": [1, 1, 1, 256], "dtype": "float32"}, {"name": "StatefulPartitionedCall/model/upsample_5/conv2d_transpose_4/strided_slice/stack", "shape": [1], "dtype": "int32"}, {"name": "StatefulPartitionedCall/model/upsample_5/conv2d_transpose_4/strided_slice/stack_1", "shape": [1], "dtype": "int32"}, {"name": "StatefulPartitionedCall/model/upsample_5/conv2d_transpose_4/strided_slice/stack_2", "shape": [1], "dtype": "int32"}, {"name": "StatefulPartitionedCall/model/upsample_5/conv2d_transpose_4/stack/1", "shape": [], "dtype": "int32"}, {"name": "StatefulPartitionedCall/model/upsample_5/conv2d_transpose_4/stack/2", "shape": [], "dtype": "int32"}, {"name": "StatefulPartitionedCall/model/upsample_5/conv2d_transpose_4/stack/3", "shape": [], "dtype": "int32"}, {"name": "StatefulPartitionedCall/model/upsample_5/conv2d_transpose_4/conv2d_transpose/ReadVariableOp", "shape": [4, 4, 256, 1024], "dtype": "float32"}, {"name": "StatefulPartitionedCall/model/upsample_4/instance_normalization_10/Reshape_1", "shape": [1, 1, 1, 512], "dtype": "float32"}, {"name": "StatefulPartitionedCall/model/upsample_4/conv2d_transpose_3/strided_slice/stack", "shape": [1], "dtype": "int32"}, {"name": "StatefulPartitionedCall/model/upsample_4/conv2d_transpose_3/strided_slice/stack_1", "shape": [1], "dtype": "int32"}, {"name": "StatefulPartitionedCall/model/upsample_4/conv2d_transpose_3/strided_slice/stack_2", "shape": [1], "dtype": "int32"}, {"name": "StatefulPartitionedCall/model/upsample_4/conv2d_transpose_3/stack/1", "shape": [], "dtype": "int32"}, {"name": "StatefulPartitionedCall/model/upsample_4/conv2d_transpose_3/stack/2", "shape": [], "dtype": "int32"}, {"name": "StatefulPartitionedCall/model/upsample_4/conv2d_transpose_3/stack/3", "shape": [], "dtype": "int32"}, {"name": "StatefulPartitionedCall/model/upsample_4/conv2d_transpose_3/conv2d_transpose/ReadVariableOp", "shape": [4, 4, 512, 1024], "dtype": "float32"}, {"name": "StatefulPartitionedCall/model/upsample_3/instance_normalization_9/Reshape_1", "shape": [1, 1, 1, 512], "dtype": "float32"}, {"name": "StatefulPartitionedCall/model/upsample_3/conv2d_transpose_2/strided_slice/stack", "shape": [1], "dtype": "int32"}, {"name": "StatefulPartitionedCall/model/upsample_3/conv2d_transpose_2/strided_slice/stack_1", "shape": [1], "dtype": "int32"}, {"name": "StatefulPartitionedCall/model/upsample_3/conv2d_transpose_2/strided_slice/stack_2", "shape": [1], "dtype": "int32"}, {"name": "StatefulPartitionedCall/model/upsample_3/conv2d_transpose_2/stack/1", "shape": [], "dtype": "int32"}, {"name": "StatefulPartitionedCall/model/upsample_3/conv2d_transpose_2/stack/2", "shape": [], "dtype": "int32"}, {"name": "StatefulPartitionedCall/model/upsample_3/conv2d_transpose_2/stack/3", "shape": [], "dtype": "int32"}, {"name": "StatefulPartitionedCall/model/upsample_3/conv2d_transpose_2/conv2d_transpose/ReadVariableOp", "shape": [4, 4, 512, 1024], "dtype": "float32"}, {"name": "StatefulPartitionedCall/model/upsample_2/instance_normalization_8/Reshape_1", "shape": [1, 1, 1, 512], "dtype": "float32"}, {"name": "StatefulPartitionedCall/model/upsample_2/conv2d_transpose_1/strided_slice/stack", "shape": [1], "dtype": "int32"}, {"name": "StatefulPartitionedCall/model/upsample_2/conv2d_transpose_1/strided_slice/stack_1", "shape": [1], "dtype": "int32"}, {"name": "StatefulPartitionedCall/model/upsample_2/conv2d_transpose_1/strided_slice/stack_2", "shape": [1], "dtype": "int32"}, {"name": "StatefulPartitionedCall/model/upsample_2/conv2d_transpose_1/stack/1", "shape": [], "dtype": "int32"}, {"name": "StatefulPartitionedCall/model/upsample_2/conv2d_transpose_1/stack/2", "shape": [], "dtype": "int32"}, {"name": "StatefulPartitionedCall/model/upsample_2/conv2d_transpose_1/stack/3", "shape": [], "dtype": "int32"}, {"name": "StatefulPartitionedCall/model/upsample_2/conv2d_transpose_1/conv2d_transpose/ReadVariableOp", "shape": [4, 4, 512, 1024], "dtype": "float32"}, {"name": "StatefulPartitionedCall/model/upsample_1/conv2d_transpose/strided_slice/stack", "shape": [1], "dtype": "int32"}, {"name": "StatefulPartitionedCall/model/upsample_1/conv2d_transpose/strided_slice/stack_1", "shape": [1], "dtype": "int32"}, {"name": "StatefulPartitionedCall/model/upsample_1/conv2d_transpose/strided_slice/stack_2", "shape": [1], "dtype": "int32"}, {"name": "StatefulPartitionedCall/model/upsample_1/conv2d_transpose/stack/1", "shape": [], "dtype": "int32"}, {"name": "StatefulPartitionedCall/model/upsample_1/conv2d_transpose/stack/2", "shape": [], "dtype": "int32"}, {"name": "StatefulPartitionedCall/model/upsample_1/conv2d_transpose/stack/3", "shape": [], "dtype": "int32"}, {"name": "StatefulPartitionedCall/model/upsample_1/conv2d_transpose/conv2d_transpose/ReadVariableOp", "shape": [4, 4, 512, 512], "dtype": "float32"}, {"name": "StatefulPartitionedCall/model/downsample_8/conv2d_7/Conv2D/ReadVariableOp", "shape": [4, 4, 512, 512], "dtype": "float32"}, {"name": "StatefulPartitionedCall/model/downsample_8/instance_normalization_6/moments/mean/reduction_indices", "shape": [2], "dtype": "int32"}, {"name": "StatefulPartitionedCall/model/downsample_8/instance_normalization_6/moments/variance/reduction_indices", "shape": [2], "dtype": "int32"}, {"name": "StatefulPartitionedCall/model/downsample_8/instance_normalization_6/batchnorm/add/y", "shape": [], "dtype": "float32"}, {"name": "StatefulPartitionedCall/model/downsample_8/instance_normalization_6/Reshape", "shape": [1, 1, 1, 512], "dtype": "float32"}, {"name": "StatefulPartitionedCall/model/upsample_1/instance_normalization_7/moments/mean/reduction_indices", "shape": [2], "dtype": "int32"}, {"name": "StatefulPartitionedCall/model/upsample_1/instance_normalization_7/moments/variance/reduction_indices", "shape": [2], "dtype": "int32"}, {"name": "StatefulPartitionedCall/model/upsample_1/instance_normalization_7/batchnorm/add/y", "shape": [], "dtype": "float32"}, {"name": "StatefulPartitionedCall/model/upsample_1/instance_normalization_7/Reshape", "shape": [1, 1, 1, 512], "dtype": "float32"}, {"name": "StatefulPartitionedCall/model/downsample_7/instance_normalization_5/Reshape_1", "shape": [1, 1, 1, 512], "dtype": "float32"}, {"name": "StatefulPartitionedCall/model/downsample_7/conv2d_6/Conv2D/ReadVariableOp", "shape": [4, 4, 512, 512], "dtype": "float32"}, {"name": "StatefulPartitionedCall/model/downsample_7/instance_normalization_5/moments/mean/reduction_indices", "shape": [2], "dtype": "int32"}, {"name": "StatefulPartitionedCall/model/downsample_7/instance_normalization_5/moments/variance/reduction_indices", "shape": [2], "dtype": "int32"}, {"name": "StatefulPartitionedCall/model/downsample_7/instance_normalization_5/batchnorm/add/y", "shape": [], "dtype": "float32"}, {"name": "StatefulPartitionedCall/model/downsample_7/instance_normalization_5/Reshape", "shape": [1, 1, 1, 512], "dtype": "float32"}, {"name": "StatefulPartitionedCall/model/concatenate/concat/axis", "shape": [], "dtype": "int32"}, {"name": "StatefulPartitionedCall/model/upsample_2/instance_normalization_8/moments/mean/reduction_indices", "shape": [2], "dtype": "int32"}, {"name": "StatefulPartitionedCall/model/upsample_2/instance_normalization_8/moments/variance/reduction_indices", "shape": [2], "dtype": "int32"}, {"name": "StatefulPartitionedCall/model/upsample_2/instance_normalization_8/batchnorm/add/y", "shape": [], "dtype": "float32"}, {"name": "StatefulPartitionedCall/model/upsample_2/instance_normalization_8/Reshape", "shape": [1, 1, 1, 512], "dtype": "float32"}, {"name": "StatefulPartitionedCall/model/downsample_6/instance_normalization_4/Reshape_1", "shape": [1, 1, 1, 512], "dtype": "float32"}, {"name": "StatefulPartitionedCall/model/downsample_6/conv2d_5/Conv2D/ReadVariableOp", "shape": [4, 4, 512, 512], "dtype": "float32"}, {"name": "StatefulPartitionedCall/model/downsample_6/instance_normalization_4/moments/mean/reduction_indices", "shape": [2], "dtype": "int32"}, {"name": "StatefulPartitionedCall/model/downsample_6/instance_normalization_4/moments/variance/reduction_indices", "shape": [2], "dtype": "int32"}, {"name": "StatefulPartitionedCall/model/downsample_6/instance_normalization_4/batchnorm/add/y", "shape": [], "dtype": "float32"}, {"name": "StatefulPartitionedCall/model/downsample_6/instance_normalization_4/Reshape", "shape": [1, 1, 1, 512], "dtype": "float32"}, {"name": "StatefulPartitionedCall/model/concatenate_1/concat/axis", "shape": [], "dtype": "int32"}, {"name": "StatefulPartitionedCall/model/upsample_3/instance_normalization_9/moments/mean/reduction_indices", "shape": [2], "dtype": "int32"}, {"name": "StatefulPartitionedCall/model/upsample_3/instance_normalization_9/moments/variance/reduction_indices", "shape": [2], "dtype": "int32"}, {"name": "StatefulPartitionedCall/model/upsample_3/instance_normalization_9/batchnorm/add/y", "shape": [], "dtype": "float32"}, {"name": "StatefulPartitionedCall/model/upsample_3/instance_normalization_9/Reshape", "shape": [1, 1, 1, 512], "dtype": "float32"}, {"name": "StatefulPartitionedCall/model/downsample_5/instance_normalization_3/Reshape_1", "shape": [1, 1, 1, 512], "dtype": "float32"}, {"name": "StatefulPartitionedCall/model/downsample_5/conv2d_4/Conv2D/ReadVariableOp", "shape": [4, 4, 512, 512], "dtype": "float32"}, {"name": "StatefulPartitionedCall/model/downsample_5/instance_normalization_3/moments/mean/reduction_indices", "shape": [2], "dtype": "int32"}, {"name": "StatefulPartitionedCall/model/downsample_5/instance_normalization_3/moments/variance/reduction_indices", "shape": [2], "dtype": "int32"}, {"name": "StatefulPartitionedCall/model/downsample_5/instance_normalization_3/batchnorm/add/y", "shape": [], "dtype": "float32"}, {"name": "StatefulPartitionedCall/model/downsample_5/instance_normalization_3/Reshape", "shape": [1, 1, 1, 512], "dtype": "float32"}, {"name": "StatefulPartitionedCall/model/concatenate_2/concat/axis", "shape": [], "dtype": "int32"}, {"name": "StatefulPartitionedCall/model/upsample_4/instance_normalization_10/moments/mean/reduction_indices", "shape": [2], "dtype": "int32"}, {"name": "StatefulPartitionedCall/model/upsample_4/instance_normalization_10/moments/variance/reduction_indices", "shape": [2], "dtype": "int32"}, {"name": "StatefulPartitionedCall/model/upsample_4/instance_normalization_10/batchnorm/add/y", "shape": [], "dtype": "float32"}, {"name": "StatefulPartitionedCall/model/upsample_4/instance_normalization_10/Reshape", "shape": [1, 1, 1, 512], "dtype": "float32"}, {"name": "StatefulPartitionedCall/model/downsample_4/instance_normalization_2/Reshape_1", "shape": [1, 1, 1, 512], "dtype": "float32"}, {"name": "StatefulPartitionedCall/model/downsample_4/conv2d_3/Conv2D/ReadVariableOp", "shape": [4, 4, 256, 512], "dtype": "float32"}, {"name": "StatefulPartitionedCall/model/downsample_4/instance_normalization_2/moments/mean/reduction_indices", "shape": [2], "dtype": "int32"}, {"name": "StatefulPartitionedCall/model/downsample_4/instance_normalization_2/moments/variance/reduction_indices", "shape": [2], "dtype": "int32"}, {"name": "StatefulPartitionedCall/model/downsample_4/instance_normalization_2/batchnorm/add/y", "shape": [], "dtype": "float32"}, {"name": "StatefulPartitionedCall/model/downsample_4/instance_normalization_2/Reshape", "shape": [1, 1, 1, 512], "dtype": "float32"}, {"name": "StatefulPartitionedCall/model/concatenate_3/concat/axis", "shape": [], "dtype": "int32"}, {"name": "StatefulPartitionedCall/model/upsample_5/instance_normalization_11/moments/mean/reduction_indices", "shape": [2], "dtype": "int32"}, {"name": "StatefulPartitionedCall/model/upsample_5/instance_normalization_11/moments/variance/reduction_indices", "shape": [2], "dtype": "int32"}, {"name": "StatefulPartitionedCall/model/upsample_5/instance_normalization_11/batchnorm/add/y", "shape": [], "dtype": "float32"}, {"name": "StatefulPartitionedCall/model/upsample_5/instance_normalization_11/Reshape", "shape": [1, 1, 1, 256], "dtype": "float32"}, {"name": "StatefulPartitionedCall/model/downsample_3/instance_normalization_1/Reshape_1", "shape": [1, 1, 1, 256], "dtype": "float32"}, {"name": "StatefulPartitionedCall/model/downsample_3/conv2d_2/Conv2D/ReadVariableOp", "shape": [4, 4, 128, 256], "dtype": "float32"}, {"name": "StatefulPartitionedCall/model/downsample_3/instance_normalization_1/moments/mean/reduction_indices", "shape": [2], "dtype": "int32"}, {"name": "StatefulPartitionedCall/model/downsample_3/instance_normalization_1/moments/variance/reduction_indices", "shape": [2], "dtype": "int32"}, {"name": "StatefulPartitionedCall/model/downsample_3/instance_normalization_1/batchnorm/add/y", "shape": [], "dtype": "float32"}, {"name": "StatefulPartitionedCall/model/downsample_3/instance_normalization_1/Reshape", "shape": [1, 1, 1, 256], "dtype": "float32"}, {"name": "StatefulPartitionedCall/model/concatenate_4/concat/axis", "shape": [], "dtype": "int32"}, {"name": "StatefulPartitionedCall/model/upsample_6/instance_normalization_12/moments/mean/reduction_indices", "shape": [2], "dtype": "int32"}, {"name": "StatefulPartitionedCall/model/upsample_6/instance_normalization_12/moments/variance/reduction_indices", "shape": [2], "dtype": "int32"}, {"name": "StatefulPartitionedCall/model/upsample_6/instance_normalization_12/batchnorm/add/y", "shape": [], "dtype": "float32"}, {"name": "StatefulPartitionedCall/model/upsample_6/instance_normalization_12/Reshape", "shape": [1, 1, 1, 128], "dtype": "float32"}, {"name": "StatefulPartitionedCall/model/downsample_2/instance_normalization/Reshape_1", "shape": [1, 1, 1, 128], "dtype": "float32"}, {"name": "StatefulPartitionedCall/model/downsample_2/conv2d_1/Conv2D/ReadVariableOp", "shape": [4, 4, 64, 128], "dtype": "float32"}, {"name": "StatefulPartitionedCall/model/downsample_2/instance_normalization/moments/mean/reduction_indices", "shape": [2], "dtype": "int32"}, {"name": "StatefulPartitionedCall/model/downsample_2/instance_normalization/moments/variance/reduction_indices", "shape": [2], "dtype": "int32"}, {"name": "StatefulPartitionedCall/model/downsample_2/instance_normalization/batchnorm/add/y", "shape": [], "dtype": "float32"}, {"name": "StatefulPartitionedCall/model/downsample_2/instance_normalization/Reshape", "shape": [1, 1, 1, 128], "dtype": "float32"}, {"name": "StatefulPartitionedCall/model/concatenate_5/concat/axis", "shape": [], "dtype": "int32"}, {"name": "StatefulPartitionedCall/model/upsample_7/instance_normalization_13/moments/mean/reduction_indices", "shape": [2], "dtype": "int32"}, {"name": "StatefulPartitionedCall/model/upsample_7/instance_normalization_13/moments/variance/reduction_indices", "shape": [2], "dtype": "int32"}, {"name": "StatefulPartitionedCall/model/upsample_7/instance_normalization_13/batchnorm/add/y", "shape": [], "dtype": "float32"}, {"name": "StatefulPartitionedCall/model/upsample_7/instance_normalization_13/Reshape", "shape": [1, 1, 1, 64], "dtype": "float32"}, {"name": "StatefulPartitionedCall/model/downsample_1/conv2d/Conv2D/ReadVariableOp", "shape": [4, 4, 3, 64], "dtype": "float32"}, {"name": "StatefulPartitionedCall/model/concatenate_6/concat/axis", "shape": [], "dtype": "int32"}, {"name": "StatefulPartitionedCall/model/conv2d_transpose_7/BiasAdd/ReadVariableOp", "shape": [3], "dtype": "float32"}]}]}